trained_models/nucb_GGS_model_final_model_epoch_43_val_loss_0.8608.pt (torch, 523925 bytes, 15 tensors)

conv1.weight f4 [32, 1280, 1]
0	0x3c920e5e	0.017829116
1	0x3d1897c9	0.03725413
2	0xbd4586cc	-0.048224255
3	0x3c8e447c	0.01736664
4	0x3b4601b6	0.0030213422
5	0xbd9fb4ab	-0.077981316
6	0xbd45eb23	-0.048319947
7	0xbaed55ff	-0.0018107294
8	0xbd1f54c6	-0.038899206
9	0xbd98f529	-0.074686356
10	0x3a787b06	0.0009478781
11	0xbd48bb58	-0.04900679
12	0xbc8a32fe	-0.016870018
13	0x3d8b7863	0.06810071
14	0x3d7135bd	0.05888914
15	0xbd1f1b3d	-0.038844336
16	0xbdb9416f	-0.090456836
17	0xbac02c4b	-0.0014661638
18	0xbcf5193f	-0.029919265
19	0xbd91b4e0	-0.07114577
20	0xbde7800a	-0.113037184
21	0x3d71c9fa	0.05903051
22	0xbdda2487	-0.10651498
23	0xbe385977	-0.18002878
24	0x3d6f7aed	0.05846684
25	0xbda3748a	-0.079812124
26	0x3ca84b35	0.020543674
27	0x3c957f9f	0.018249331
28	0x3d3c0955	0.045907337
29	0xbdc705ef	-0.097179286
30	0xbe1be743	-0.15224938
31	0xbd4b2760	-0.049598098
32	0xbc430ef9	-0.011905425
33	0xb942e232	-0.00018585546
34	0xbd382eca	-0.044966497
35	0xbd30ea4a	-0.043192185
36	0x3bd851f8	0.0066015683
37	0x3bd89a2a	0.0066101747
38	0xbd66e01d	-0.056366075
39	0x3ccb9063	0.024849122
40	0xbdbc5775	-0.091963686
41	0xbc130666	-0.0089736935
42	0xbca3e690	-0.020007402
43	0xbd098429	-0.033573303
44	0xbd517957	-0.05114111
45	0xbd01128e	-0.031511836
46	0xbd933f21	-0.07189775
47	0x3d53565a	0.051596023
48	0x3c5632bb	0.0130736185
49	0x3ae8df2f	0.0017766709
50	0x3dba157b	0.09086128
51	0x3dc8dbee	0.09807573
52	0xbd89db38	-0.06731266
53	0x3db92735	0.09040681
54	0xbdd82160	-0.10553241
55	0x3d2ba3e9	0.041904364
56	0xbc320d56	-0.010867437
57	0xbcf44260	-0.029816806
58	0xbdd51ee5	-0.10406283
59	0x3d6a18e9	0.057152662
60	0x3cd5c5aa	0.02609523
61	0xbe0e1fc8	-0.13879311
62	0xbd4aa30c	-0.0494719
63	0x3d2d7a5b	0.042353015
64	0xb95c5719	-0.00021013281
65	0xbc4e04b4	-0.0125743635
66	0xbd26d4ec	-0.040730402
67	0xbd0cce95	-0.0343767
68	0xbd0be7bc	-0.034156546
69	0x3d47e677	0.048803773
70	0xbe265118	-0.16241872
71	0xbc59e405	-0.013298993
72	0x3da34433	0.07971992
73	0xbd85aa98	-0.06526679
74	0x3be268bf	0.0069094594
75	0x3c440019	0.011962914
76	0x3d81a3de	0.06330083
77	0xbda5d021	-0.08096338
78	0x3c8306c3	0.015994435
79	0xbe0537df	-0.13009594
80	0x3c4632b9	0.012097054
81	0x3dcfae83	0.10140707
82	0x3ca25b97	0.019819064
83	0xbce20c20	-0.027593672
84	0xbd957329	-0.07297356
85	0x3dc352c0	0.09537268
86	0x3ca56411	0.020189317
87	0x3c0e317a	0.008678788
88	0xbcb18e3c	-0.021674268
89	0xbde80eda	-0.11330958
90	0x3bd59ed4	0.006519178
91	0x3d1289d5	0.035775978
92	0xbd832d55	-0.06405131
93	0x3b2ff47a	0.00268486
94	0xbd8736b6	-0.06602232
95	0x3c68fc78	0.0142203495
96	0xbdacc00a	-0.08435066
97	0xbd443006	-0.04789736
98	0xbc9141a0	-0.017731488
99	0xbb4f2cd9	-0.0031612425
100	0x3d18a627	0.03726783
101	0xbb217b8d	-0.0024640292
102	0xbdc886b7	-0.0979132
103	0xbab6f02c	-0.0013957075
104	0x3d9254bb	0.07145067
105	0xbc59ff17	-0.013305447
106	0x3d641525	0.055684227
107	0xbd9d1e13	-0.07671752
108	0x3d8cd816	0.068771526
109	0x3af41ebc	0.0018624882
110	0x3da62c8b	0.08113965
111	0x3e2dc2e1	0.16968872
112	0x3de5b9d9	0.11217088
113	0xbc89fce3	-0.016844219
114	0x3d64a915	0.05582531
115	0x3d8f9a82	0.07011892
116	0xbe057942	-0.13034537
117	0x3dc29f44	0.09503034
118	0xbcf2a8d3	-0.029621517
119	0xbdbad664	-0.09122923
120	0x3d9dcf9d	0.07705615
121	0xbc53c6e2	-0.012925835
122	0x3d82253b	0.063547574
123	0x3b3bad25	0.0028637138
124	0x3cb89a0c	0.022534393
125	0xbcc8eb87	-0.02452637
126	0xbdc91d39	-0.09820027
127	0xbd8e1c89	-0.069390364
128	0x3cb409fe	0.02197742
129	0x3c1232f5	0.008923282
130	0x3da7a12c	0.08185038
131	0xbe0c0536	-0.13673863
132	0x3e22e330	0.15906978
133	0xbd778e52	-0.06043846
134	0xbba54299	-0.0050433394
135	0x3cf0dc88	0.029402032
136	0x3dc30dd1	0.0952412
137	0x3d64d27a	0.05586479
138	0x3cce5d42	0.025190953
139	0xbdefbbdb	-0.117057525
140	0x3c9053d1	0.017618092
141	0x3cf7746c	0.030206881
142	0x3dcd4928	0.10023719
143	0xbe06f576	-0.13179573
144	0xbd8b9cac	-0.06816992
145	0x3d88c6fc	0.06678578
146	0xbd569329	-0.052386437
147	0x3c4f0177	0.012634627
148	0x3d1a742a	0.03770844
149	0xbc933af1	-0.017972441
150	0x3d5e80b5	0.054321963
151	0xbd5d7e75	-0.054075677
152	0xbb71ea50	-0.0036913343
153	0xbddb128e	-0.106968984
154	0x3ce167fa	0.0275154
155	0x3da39260	0.07986903
156	0x3d068465	0.032841105
157	0x3d53ce87	0.05171063
158	0x3d04965f	0.032369968
159	0xbc026e0e	-0.007960809
160	0x3cdbdb4d	0.02683797
161	0x3c84685a	0.01616304
162	0x3d03546d	0.032062937
163	0x3d26c219	0.04071245
164	0x3e17e824	0.14834648
165	0xbe157d60	-0.14598608
166	0xbca030f5	-0.019554595
167	0xbdee3097	-0.116303615
168	0x3af8fb5f	0.0018995813
169	0xbdf1923f	-0.11795472
170	0x3d4320cd	0.047638703
171	0x3dcabfd6	0.09899871
172	0x3c87688b	0.016529342
173	0x3d534a16	0.051584326
174	0xbda96496	-0.08271138
175	0xbc4a8880	-0.012361646
176	0xba94cd4a	-0.0011352685
177	0xbd6c8dcf	-0.057752427
178	0x3a08c14c	0.0005216792
179	0x3d59a258	0.05313334
180	0xbc937edf	-0.018004833
181	0xbd46ce23	-0.04853643
182	0x3d6e43e2	0.058170207
183	0x3b4269c9	0.0029665104
184	0x3daa8ed1	0.08328021
185	0xbcd349aa	-0.025791962
186	0xbc800c63	-0.015630906
187	0x3dcb1a89	0.099171706
188	0x3c2583e1	0.010102243
189	0xbe49816b	-0.19678275
190	0x3d322fa9	0.043502484
191	0xbc8c6a6b	-0.017140588
192	0x3e123224	0.1427694
193	0x3def760b	0.11692437
194	0x3d21e140	0.039521456
195	0x3ba7dde8	0.005122889
196	0x3ddbacb7	0.10726302
197	0xbcb2fae0	-0.021848142
198	0x3dba1596	0.090861484
199	0xbbbadb50	-0.0057024136
200	0x3d8303dc	0.063972205
201	0xbc32355e	-0.010876982
202	0x3c49a92b	0.012308399
203	0xbd68c966	-0.056832694
204	0x3d4aa5ae	0.04947441
205	0xbd49235f	-0.049105998
206	0x3dad5476	0.08463375
207	0x3db5a0e8	0.08868581
208	0x3cac4bad	0.021032179
209	0xbe02fe0d	-0.12792225
210	0xbe13e809	-0.14443983
211	0xbcf7316f	-0.030174939
212	0x3ddcb557	0.10776775
213	0xbd635bde	-0.055507533
214	0xbc93c05b	-0.018036058
215	0xbd7463a3	-0.059665333
216	0xbc8d9f3a	-0.01728784
217	0xbdb2bc14	-0.08727279
218	0xbcd76c7b	-0.026296845
219	0x3c79621f	0.015221148
220	0xbda8806b	-0.08227619
221	0x3d542692	0.051794596
222	0xbd0e961a	-0.034811117
223	0xbd4b55d5	-0.049642403
224	0xbc720168	-0.014770843
225	0x3c0dfa1f	0.008665591
226	0xbccc412b	-0.024933418
227	0x3dd11dd3	0.10210767
228	0x3d007c9d	0.03136884
229	0xbdaf5637	-0.08561366
230	0x3d54e361	0.051974658
231	0x3b4c3ea4	0.0031165266
232	0xbc5b85d6	-0.013398608
233	0xbd988334	-0.074469
234	0x3d6e2a95	0.05814608
235	0x3d95a6b2	0.07307185
236	0x3cbf8d63	0.023382848
237	0x3d8db9f1	0.06920231
238	0x3d48c803	0.04901887
239	0x3cb6eac6	0.022328746
240	0x3db9361e	0.09043525
241	0xbd2cbafc	-0.04217051
242	0x3c123fde	0.00892636
243	0xbd05f8b3	-0.03270788
244	0xbc02e062	-0.007988067
245	0x3c782fd3	0.015148121
246	0xbd1188fe	-0.035531037
247	0xbdbd68c4	-0.09248498
248	0xbb597add	-0.0033184804
249	0x3db8e34f	0.09027731
250	0xbda0f206	-0.07858662
251	0x3df64fa4	0.12026909
252	0xbd370d16	-0.044690214
253	0xbc2f1a5f	-0.01068744
254	0x3d1210cf	0.03566056
255	0x3d05fb5b	0.032710414

conv1.bias f4 [32]
0	0xbbfe3ace	-0.007758475
1	0xbd5c0c64	-0.053722754
2	0xbb2fb9d6	-0.0026813648
3	0x3a580cc5	0.0008241649
4	0xbd6cd1e2	-0.057817347
5	0xbc2318a0	-0.0099546015
6	0x3d5267e7	0.05136862
7	0x3b94cca7	0.004540998
8	0xbd3903b7	-0.04516956
9	0xbbd217ae	-0.0064115142
10	0x3c5f26b7	0.01362007
11	0xbb97d18e	-0.004633135
12	0x3c9e781c	0.019344382
13	0x3c45f69f	0.012082725
14	0x3c5b8e10	0.01340057
15	0x3cfa7c55	0.030576864
16	0xbd495838	-0.049156398
17	0x3cb12d3b	0.021628013
18	0x3d3faa65	0.04679336
19	0x3d3bf362	0.045886405
20	0xbd33181a	-0.043724157
21	0x3c9de1ae	0.019272652
22	0x3bee6dc4	0.0072762687
23	0xbbc76fb3	-0.0060863136
24	0x3c1fe7bd	0.009759841
25	0x3a12cde9	0.0005600141
26	0xbc5d3572	-0.013501512
27	0xbc765180	-0.01503408
28	0xbbb89f6f	-0.0056342403
29	0x3c968ac3	0.018376714
30	0x3c9a006d	0.018799031
31	0xbc4e5977	-0.012594572

conv2.weight f4 [32, 1280, 1]
0	0x3db474fb	0.08811375
1	0xbe10e4fe	-0.14149854
2	0x3b86507c	0.00409895
3	0xbd4be61d	-0.04978
4	0x3df38203	0.11890032
5	0xbdcddb4f	-0.100515954
6	0x3e4b80bf	0.19873331
7	0xbd93315b	-0.07187148
8	0x3de8e4ed	0.11371789
9	0xbdbeab9b	-0.09310075
10	0xbe24271c	-0.16030544
11	0xbc6f7a32	-0.014616536
12	0xbdcea55f	-0.10090136
13	0x3dbc1c48	0.09185082
14	0x3cc5ea20	0.024159491
15	0xbd8abe9f	-0.06774639
16	0xbdf61eec	-0.12017617
17	0xbcbccf7f	-0.02304816
18	0x3cecbf1c	0.028899722
19	0x3dec0759	0.11524839
20	0x3daabe12	0.08337034
21	0xbd373c60	-0.044735312
22	0xbe1760d7	-0.14783035
23	0xbe5c5724	-0.21517617
24	0xbd6299eb	-0.05532257
25	0xbd40c9f7	-0.04706761
26	0xbcd9c903	-0.026585108
27	0xbd1d074c	-0.038337037
28	0x3dd78b7c	0.105246514
29	0xbe6eb76e	-0.2331216
30	0x3d77949d	0.060444463
31	0x3db642ae	0.08899437
32	0x3dd8019d	0.10547183
33	0x3daf7697	0.08567541
34	0x3d0be26b	0.034151476
35	0x3e2fee37	0.17180716
36	0x3deebd89	0.11657245
37	0x3daa707b	0.08322235
38	0xbe5bd415	-0.21467622
39	0x3d854e32	0.06509055
40	0x3e05c084	0.1306172
41	0x3d0cad42	0.03434492
42	0xbdc6d0c4	-0.09707788
43	0xbde9ac1f	-0.114097826
44	0x3e1b0711	0.15139414
45	0x3dde7bad	0.10863433
46	0xbe24ce65	-0.16094358
47	0x3dd2a606	0.10285573
48	0x3db932fb	0.09042927
49	0x3bc0a322	0.005878822
50	0x3df707f7	0.12062066
51	0x3d07761f	0.033071633
52	0x3d3f8789	0.046760116
53	0x3dfbfc1a	0.12303944
54	0x3bbf4515	0.0058370926
55	0x3df765c3	0.120799564
56	0x3dc1e41e	0.09467338
57	0xbde5622e	-0.11200367
58	0xbc25c2bd	-0.01011723
59	0x3e9dad64	0.3079635
60	0x3daf2e7b	0.08553787
61	0xbe340b07	-0.17582332
62	0xbda725c0	-0.08161497
63	0xbc810aa2	-0.01575214
64	0x3d92354e	0.07139073
65	0xbd4af06a	-0.049545683
66	0xbe89aa67	-0.2688782
67	0xbd6faa65	-0.05851211
68	0x3daf0e19	0.08547611
69	0x3dc38ca4	0.095483094
70	0xbc15ff44	-0.009155098
71	0xbcd386d1	-0.025821121
72	0x3de80c58	0.113304794
73	0xbe2ba171	-0.16760804
74	0x3dc1fc90	0.094720006
75	0x3c9d4269	0.019196706
76	0x3d8f9998	0.070117176
77	0xbc9f3d01	-0.019438269
78	0x3d597518	0.053090185
79	0xbdee5a91	-0.11638368
80	0x3db7bbbd	0.08971355
81	0x3e614eab	0.22002666
82	0x3d4db475	0.050220925
83	0x3c9d73d4	0.01922027
84	0xbdfc5a12	-0.12321867
85	0x3e045e46	0.12926587
86	0x3de18d26	0.1101325
87	0x3d9a47e3	0.075332426
88	0xbe2ece66	-0.17070922
89	0xbe3a19ed	-0.18173952
90	0x3dc0fca7	0.094231896
91	0x3d5a8152	0.053345986
92	0x3dc395c5	0.09550051
93	0xbd9f000a	-0.07763679
94	0xbe5427bc	-0.20718282
95	0xbd60e83c	-0.054908976
96	0xbe3914d9	-0.18074359
97	0x3d0e739e	0.03477823
98	0x3a0719c9	0.00051536836
99	0xbe718424	-0.23585564
100	0x3d69bbe4	0.057063952
101	0xbaa2c9b0	-0.0012419727
102	0x3db0736b	0.08615764
103	0xbddaf20e	-0.106906995
104	0x3c5f0545	0.013612096
105	0x3d765cd2	0.060147114
106	0x3c860830	0.016361326
107	0xbe6011f8	-0.21881855
108	0xbcfce9a1	-0.030873122
109	0xba2ae94d	-0.000651975
110	0xbbbf142a	-0.005831261
111	0x3e8185f1	0.25297502
112	0x3cb859fe	0.02250385
113	0x3db62e9b	0.08895608
114	0x3d43e905	0.047829647
115	0x3d08e1e1	0.03341854
116	0xbd6e3743	-0.05815817
117	0x3c3a4b7f	0.011370539
118	0x3d152ee3	0.036421668
119	0xbd93d7fb	-0.072189294
120	0x3e18926a	0.14899603
121	0xbe13e575	-0.14443
122	0xbd9e4e0f	-0.07729732
123	0x3dc520b4	0.09625378
124	0xbdb472ce	-0.0881096
125	0xbe35f089	-0.17767538
126	0xbe210987	-0.1572629
127	0xbe01c1ed	-0.12671633
128	0xbe28e8fc	-0.16495126
129	0x3d16c470	0.03680843
130	0xbe0c53d8	-0.13703859
131	0xbe7ebdd0	-0.24877095
132	0x3e52af9b	0.205748
133	0x3c7f8a88	0.015596993
134	0xbc7b4775	-0.015336861
135	0x3d51591e	0.05111038
136	0x3e165dfe	0.14684293
137	0x3dee5fd1	0.11639369
138	0xbd997c69	-0.074944325
139	0xbe152ec7	-0.14568625
140	0xbd19082e	-0.037361316
141	0x3e1b6fc3	0.15179352
142	0x3e18d1ea	0.14923826
143	0x3cbc5f92	0.02299479
144	0x3da70bef	0.08156573
145	0x3db87d49	0.09008271
146	0xbe5c33ce	-0.21504137
147	0x3e072a56	0.13199744
148	0xbcaa2df8	-0.020773873
149	0xbe236260	-0.15955496
150	0x3dd040c4	0.10168603
151	0xbd747a31	-0.059686843
152	0x3ce07868	0.027401164
153	0xbe69ef30	-0.22845149
154	0x3d745a38	0.05965635
155	0x3dcab82c	0.09898409
156	0xbdfa6eeb	-0.12228187
157	0xbd89e067	-0.067322545
158	0x3d567046	0.052353166
159	0x3dd9f10c	0.10641679
160	0x3d203902	0.039116867
161	0x3dcc2812	0.0996858
162	0xbcc23f97	-0.023711963
163	0x3e2fa747	0.17153655
164	0x3e5b9d81	0.21446802
165	0xbe12bcc4	-0.14329821
166	0x3e3254b7	0.17415129
167	0xbd99844e	-0.07495938
168	0x3d537e46	0.051634096
169	0xbe01784f	-0.1264355
170	0xbe363a44	-0.17795664
171	0x3ed8cc1b	0.4234322
172	0xbe164061	-0.14672996
173	0x3d1cb800	0.038261414
174	0xbe2fbda8	-0.17162192
175	0xbb827dbf	-0.0039822753
176	0x3ccde536	0.02513371
177	0x3d3536d8	0.044241756
178	0x3da1e802	0.0790558
179	0x3ca07ea4	0.019591637
180	0x3d1d149f	0.038349744
181	0xbe0cf9e8	-0.13767207
182	0xbcfa7507	-0.030573381
183	0x3dcd3877	0.100205354
184	0x3e8a85b4	0.27055132
185	0x3d94563d	0.07243011
186	0xbbe31f50	-0.006931223
187	0x3ba4f44a	0.0050340043
188	0x3ded7add	0.115957
189	0xbddd5d78	-0.108088434
190	0xbe144bb4	-0.14482003
191	0x3c8677da	0.016414572
192	0xbde3faf0	-0.11131847
193	0xbc9a8aaf	-0.018864958
194	0xbd2c33c7	-0.042041566
195	0x3e72d82d	0.23715277
196	0x3dfb97c0	0.122848034
197	0xbe18e5fd	-0.14931484
198	0x3c121464	0.008915994
199	0x3d27d8fb	0.040978413
200	0x3e683899	0.2267784
201	0x3dbc9011	0.09207166
202	0x3d267d09	0.040646587
203	0xbd163845	-0.036674757
204	0x3dfb50b6	0.12271254
205	0xbe4c8a03	-0.19974522
206	0x3d2efc1c	0.0427209
207	0x3e7f5cd9	0.24937762
208	0xbd2f8c48	-0.042858392
209	0xbe01d35b	-0.12678282
210	0xbe050ccf	-0.12993167
211	0x3d5ed12e	0.054398708
212	0x3d8fd02b	0.07022127
213	0xbd5857db	-0.05281816
214	0xbe799bb6	-0.24375805
215	0xbbafa97a	-0.0053607794
216	0xbd582bd8	-0.052776188
217	0xbe2e7489	-0.17036642
218	0x3d4526e5	0.048132796
219	0xbdb10ec8	-0.086453974
220	0xbe2ad8bc	-0.1668424
221	0x3e2958f7	0.16537844
222	0xbba78a3b	-0.005112914
223	0xbde6f050	-0.11276305
224	0xbd6afcb0	-0.057369888
225	0xbd063243	-0.032762777
226	0xbc4ff9c3	-0.012693825
227	0x3e19a5f7	0.15004717
228	0x3ddad293	0.10684695
229	0xbdb0c80e	-0.086319074
230	0x3c04eebd	0.00811356
231	0xbb2f8580	-0.0026782453
232	0xbd8a7061	-0.06759716
233	0x3d857836	0.06517069
234	0x3e36b183	0.17841153
235	0x3e043459	0.12910594
236	0x3d7a1032	0.0610506
237	0x3d2d7eaa	0.042357124
238	0x3dc10d64	0.09426382
239	0xbc7c93e3	-0.015416118
240	0x3e321949	0.17392458
241	0x3d811779	0.06303305
242	0x3dd09351	0.101843484
243	0xbd9049de	-0.07045339
244	0xbdc33db0	-0.0953325
245	0x3de0fb83	0.10985472
246	0x3d341f0e	0.04397493
247	0x3da6bb29	0.08141167
248	0x3e22516d	0.15851374
249	0x3e83ee3c	0.25767696
250	0xbe14cb95	-0.14530785
251	0x3dbe1284	0.09280875
252	0xbdaa8fae	-0.08328186
253	0xbc5b0840	-0.013368666
254	0x3e4d00ad	0.20019789
255	0x3d153cbb	0.03643487

conv2.bias f4 [32]
0	0xbb93e3b9	-0.0045132306
1	0x3becf51b	0.0072313673
2	0x3c197118	0.009365343
3	0xbb61a6b1	-0.0034431631
4	0xbc001346	-0.007817095
5	0x3e8a1e63	0.26976308
6	0x39f885fd	0.00047402075
7	0xbdabc379	-0.08386893
8	0xbcac9b27	-0.021070076
9	0xbc1d594d	-0.0096038105
10	0xbd8a8c03	-0.06764986
11	0x3bc0779d	0.005873634
12	0x3d299846	0.041404985
13	0xbbc1a3d6	-0.0059094233
14	0x3d5ff89d	0.054680455
15	0x3da5f9e5	0.08104304
16	0x3d727724	0.059195653
17	0xbbd62bac	-0.006535968
18	0x3c39ea54	0.011347372
19	0xbba2245d	-0.0049481825
20	0xbbbd1ed3	-0.005771497
21	0x3de03e01	0.10949326
22	0x3d3fbf52	0.046813317
23	0xbddfcb40	-0.10927439
24	0xbd605f76	-0.05477854
25	0xbcc76591	-0.024340423
26	0x3c9a4492	0.018831525
27	0x3c82c3f1	0.015962573
28	0xbde049ae	-0.10951553
29	0x3c6730d1	0.01411076
30	0x3c330834	0.010927249
31	0x3c8bf806	0.01708604

prob_conv1.weight f4 [32, 20, 1]
0	0x3d14b660	0.03630674
1	0xbdb28705	-0.08717159
2	0xbe22a596	-0.15883479
3	0xbd390ae6	-0.04517641
4	0x3d65bc18	0.056087583
5	0xbe02bae5	-0.12766607
6	0xbe112629	-0.14174713
7	0x3e38aa91	0.18033816
8	0x3cc33b99	0.02383213
9	0x3e5d1e9a	0.21593705
10	0x3e2f7318	0.17133749
11	0x3d2ac9fc	0.041696534
12	0xbd4823ce	-0.04886227
13	0x3ccec716	0.025241416
14	0x3dde20bb	0.108460866
15	0xbe62e2ef	-0.22156881
16	0x3e3139fb	0.17307274
17	0xbe41bd69	-0.1891991
18	0x3daf9e02	0.085750595
19	0xbdfd51a5	-0.12369088
20	0xbaa52623	-0.0012599867
21	0x3d06cd15	0.032910425
22	0x3d1df629	0.038564835
23	0x3d0d8cda	0.034558155
24	0x3d91af0d	0.071134664
25	0x3da23b78	0.07921499
26	0x3dd13b51	0.10216392
27	0xbe2a3fb0	-0.16625857
28	0x3cf02dbb	0.029318681
29	0xbbb76bdc	-0.0055975746
30	0x3e2a9b87	0.16660891
31	0xbe17651d	-0.14784665
32	0xbe80ffb3	-0.25195083
33	0x3db2379f	0.08702015
34	0x3db9e5d5	0.0907704
35	0x3e1e1d66	0.15440902
36	0xbda79cdf	-0.08184218
37	0x3dc73d9a	0.097285464
38	0xbe0978e5	-0.13425024
39	0xbdd6fcf1	-0.104974635
40	0xbe3a045f	-0.1816573
41	0xbd848802	-0.06471254
42	0x3d5e4b35	0.05427094
43	0x3e009779	0.12557782
44	0x3de79b38	0.113089025
45	0x3ddaec8e	0.106896505
46	0xbe410b67	-0.18852006
47	0x3d9e980f	0.077438466
48	0xbd29c7fb	-0.04145048
49	0x3dc30242	0.09521915
50	0xbe4f8fd1	-0.20269705
51	0xbd9990f4	-0.07498351
52	0x3dcc9ae8	0.099904835
53	0xbcab73f2	-0.02092931
54	0xbc189442	-0.009312691
55	0x3d1b3b56	0.037898384
56	0xbe456833	-0.1927803
57	0x3c741805	0.014898305
58	0x3e8f6ae1	0.2801123
59	0xbdf4099a	-0.11915894
60	0x3daf030a	0.085455015
61	0xbd9c1021	-0.07620264
62	0x3e055b1b	0.13023035
63	0xbe213a14	-0.15744811
64	0xbe0ee540	-0.1395464
65	0x3e731087	0.23736773
66	0xbdb94d70	-0.09047973
67	0x3db090f9	0.08621401
68	0xbe04a4ab	-0.12953441
69	0x3d8b1c6e	0.06792532
70	0xbe1d54ca	-0.15364376
71	0xbe0c0722	-0.13674596
72	0x3d7f0a6f	0.06226581
73	0xbc8e4adf	-0.017369686
74	0x3de27948	0.11058289
75	0xbd4d6ec7	-0.050154474
76	0xbe181f29	-0.14855637
77	0xbd7db3a2	-0.06193889
78	0x3e72f5c1	0.2372656
79	0x3dd0fb71	0.10204209
80	0x3e138a40	0.14408207
81	0xbdc2492a	-0.09486611
82	0x3da567b6	0.08076422
83	0x3e2b6dba	0.16741076
84	0x3e0fcd0d	0.14043064
85	0x3e1dff88	0.15429509
86	0xbd17c6ec	-0.03705494
87	0xbdd66867	-0.10469132
88	0xbd780659	-0.06055293
89	0xbe5d669f	-0.21621178
90	0x3e6467a0	0.22305155
91	0xbabf96ad	-0.0014617048
92	0xbe6d9757	-0.23202263
93	0xbd806522	-0.062692896
94	0xbe32e749	-0.17471041
95	0x3dbbfab0	0.09178674
96	0x3ca40174	0.020020224
97	0x3c8680b2	0.016418789
98	0xbdcb0d45	-0.0991464
99	0x3dfaef4d	0.12252674
100	0xbe0cbdce	-0.1374428
101	0xbe2c68dd	-0.16836877
102	0x3e454d90	0.19267869
103	0x3e0a6e95	0.13518746
104	0xbd116767	-0.035499003
105	0xbc6225e0	-0.013802975
106	0x3b5c8a51	0.003365178
107	0xbe58618c	-0.21130961
108	0xbd2fcf50	-0.042922318
109	0x3de84a6d	0.113423206
110	0x3e12588c	0.1429159
111	0xbd32276f	-0.043494638
112	0xbccfe23c	-0.025376432
113	0x3e781f2c	0.24230641
114	0xbdc5518f	-0.09634697
115	0x3e198bee	0.14994785
116	0xbde9104d	-0.11380062
117	0xbd0d1715	-0.03444584
118	0xbe44ab21	-0.19205905
119	0x3e3e006e	0.18554851
120	0xbdf18de9	-0.11794645
121	0x3cfc1032	0.030769441
122	0xbe0ee026	-0.13952693
123	0x3d68208e	0.05667167
124	0x3d241ef0	0.040068567
125	0x3c1ec2e0	0.0096900165
126	0xbdd6255a	-0.10456343
127	0x3c412ed3	0.011790949
128	0x3da84517	0.08216303
129	0x3e11f364	0.14253002
130	0xbb5d27ab	-0.0033745568
131	0xbd2ad3bd	-0.041705836
132	0xbd44afcc	-0.048019215
133	0x3d958d77	0.07302373
134	0xbdc52961	-0.09627033
135	0x3ddab010	0.106781125
136	0x3d837cd3	0.06420293
137	0xbdb1d922	-0.08683993
138	0x3d8734ad	0.06601844
139	0xbd2fd1f6	-0.042924844
140	0xbc984336	-0.018586736
141	0x3da94522	0.08265139
142	0xbced18c0	-0.028942466
143	0xbe47d5f1	-0.19515206
144	0xbe52ab6a	-0.20573202
145	0x3dc47f6d	0.09594617
146	0xbcdb0e64	-0.02674026
147	0x3e609181	0.21930505
148	0xbde94531	-0.1139015
149	0x3cf1bfa3	0.029510325
150	0x3d3084e0	0.04309547
151	0x3d756db8	0.05991909
152	0x3d89e7c4	0.06733659
153	0xbde5f114	-0.11227623
154	0xbdb47c48	-0.08812767
155	0x3c2c4870	0.010515317
156	0xbc8d6af2	-0.01726291
157	0x3da32909	0.07966811
158	0x3d3d9c00	0.04629135
159	0x3d93ac4c	0.072105974
160	0xbe5c31b1	-0.21503331
161	0xbd418d51	-0.04725391
162	0x3d5bffa0	0.05371058
163	0x3df89fd8	0.12139863
164	0xbc89e812	-0.016834293
165	0x3de624f0	0.11237514
166	0x3cfc4eb7	0.030799253
167	0x3de3fbab	0.11131986
168	0x3d853fb8	0.06506294
169	0x3cb2db97	0.021833224
170	0xbd2c81e1	-0.04211605
171	0x3e24d751	0.16097762
172	0x3e1b2a9e	0.15152976
173	0xbe5326e1	-0.206203
174	0xbe3e7203	-0.1859818
175	0xbd16861b	-0.036748987
176	0xbdbbde13	-0.09173217
177	0xbae24dbd	-0.00172656
178	0x3d20e7df	0.03928363
179	0xbde0d369	-0.10977823
180	0xbdc3787a	-0.095444635
181	0x3e073175	0.1320246
182	0x3e207a39	0.15671624
183	0xbe17692b	-0.14786212
184	0x3da160bd	0.078797795
185	0x3d313d2e	0.043271236
186	0x3d913a3a	0.07091184
187	0xbcf2a9af	-0.029621927
188	0xbd63a462	-0.05557669
189	0xbdb18b54	-0.08669153
190	0xbe5d986e	-0.21640179
191	0xbe065a3d	-0.1312036
192	0x3deb6be8	0.11495191
193	0x3e1b61fc	0.15174097
194	0x3d6ae305	0.05734541
195	0x3ca81d54	0.020521797
196	0xbc906f10	-0.017631084
197	0xbe08df8c	-0.13366526
198	0xbd342f0a	-0.043990172
199	0x3d30d863	0.043175112
200	0x3d04fcd1	0.032467667
201	0xbd8047c4	-0.06263688
202	0xbcac8517	-0.021059556
203	0x3e4daffe	0.20086667
204	0x3e2cb9e7	0.16867791
205	0xbe069aa2	-0.13144925
206	0xbd688b07	-0.05677321
207	0xbdce9f5f	-0.100889914
208	0xbde6dd27	-0.1127265
209	0x3e43edb2	0.19133642
210	0xbe70e301	-0.23524095
211	0x3dde56aa	0.108563736
212	0x3e1dbc82	0.15403941
213	0x3da196f0	0.07890117
214	0x3dc37e6d	0.09545598
215	0xbdd5c710	-0.10438359
216	0xbe45eb23	-0.19327979
217	0xbd2da501	-0.042393688
218	0x3e47c012	0.19506863
219	0xbe56f518	-0.20991933
220	0xbe484744	-0.19558436
221	0x3de0d970	0.10978973
222	0x3d440727	0.047858384
223	0x3e0dedd1	0.13860251
224	0xbe52fa07	-0.2060319
225	0x3df30a21	0.11867166
226	0xbdf701c6	-0.12060885
227	0x3e03ec30	0.12883067
228	0x3e0f33c9	0.13984598
229	0xbded578e	-0.11588965
230	0x3dd6eb46	0.104940936
231	0xbe5e597b	-0.21713822
232	0x3db56896	0.08857839
233	0xbcd451ee	-0.025917973
234	0x3e27f07e	0.16400334
235	0x3e49caf5	0.19706328
236	0xbe6a88fc	-0.22903818
237	0xbd826f80	-0.06368923
238	0x3dd91e4f	0.10601484
239	0xbe553e61	-0.20824577
240	0xbd96b523	-0.07358768
241	0xbccf0ee5	-0.025275657
242	0xbd1f1bb1	-0.038844768
243	0x3e2a2b60	0.16618109
244	0xbda45e0c	-0.080257505
245	0x3dee70d2	0.116426125
246	0xbd761f6b	-0.060088556
247	0xbc82f1ea	-0.015984494
248	0xbc8f36c3	-0.017482167
249	0xbd088142	-0.033326395
250	0x3e63cf66	0.22247085
251	0xbd3eae85	-0.046553154
252	0x3d9c9bf9	0.07646937
253	0xbdaf92dd	-0.08572934
254	0xbe1d749a	-0.15376511
255	0x3e487d58	0.19579065

prob_conv1.bias f4 [32]
0	0xbdf0f3ae	-0.11765228
1	0x3c99b284	0.01876188
2	0xbda16e68	-0.078823864
3	0xbdbe8097	-0.0930187
4	0x3d8536b0	0.065045714
5	0x3d3b7cd6	0.04577335
6	0x3a2cfb32	0.00065987103
7	0x3de9a262	0.11407925
8	0x3decff2b	0.11572107
9	0xbda5374b	-0.08067187
10	0x3dd3e01a	0.10345478
11	0xbce401ce	-0.027832892
12	0xbd03f708	-0.03221801
13	0x3c8efeca	0.017455477
14	0x3d07c206	0.03314402
15	0x3dde15e1	0.10844017
16	0x3d10d2ba	0.035357215
17	0x3d9f3ad9	0.07774896
18	0xbd89ba84	-0.06725028
19	0x3da0b700	0.078474045
20	0x3d9b3a10	0.07579434
21	0x3e8616bb	0.26189217
22	0xbe2358f9	-0.15951909
23	0x3e06e539	0.13173379
24	0x3cacb119	0.02108054
25	0xbe0ee87c	-0.13955873
26	0xbcaa84e3	-0.020815318
27	0xbbde8e72	-0.006791883
28	0x3e0b8113	0.13623457
29	0xbd21d7ee	-0.039512567
30	0x3e0415a5	0.12898882
31	0xbdfaf320	-0.12253404

prob_conv2.weight f4 [32, 20, 1]
0	0x3d6bc4a4	0.057560578
1	0x3e3862c4	0.18006426
2	0xbdd4f390	-0.10398018
3	0xbc2191f9	-0.009861463
4	0xbdfe808b	-0.124268614
5	0x3e17da8d	0.14829464
6	0xbcfe305c	-0.031028919
7	0x3df5a9ca	0.11995275
8	0x3daf7686	0.085675284
9	0x3e02f559	0.12788905
10	0xbdcd7d2b	-0.100336395
11	0xbd89cc87	-0.067284636
12	0xbccd65f3	-0.025073027
13	0x39d5ccd5	0.00040779138
14	0x38a9e8c9	8.1019076e-05
15	0x3cb48e70	0.022040576
16	0xbdc9f081	-0.098603256
17	0xbd20b975	-0.039239366
18	0xbbbb38e7	-0.0057135704
19	0xbd86a72f	-0.065748565
20	0xbdc495f4	-0.09598914
21	0xbd292fe8	-0.041305453
22	0x3e0bb74a	0.13644138
23	0xbe1fa694	-0.15590888
24	0x3e04fd76	0.12987313
25	0x3db51cf2	0.088434115
26	0x3d086945	0.033303518
27	0xbd3196da	-0.043356754
28	0x3d5e29d1	0.054239098
29	0xbdd74f2e	-0.10513149
30	0x3d2c8c84	0.042126194
31	0x3bac0336	0.005249406
32	0xbd3a6b02	-0.045512207
33	0xbdb249d7	-0.0870549
34	0xbc3f7013	-0.011684435
35	0xbdcd0b18	-0.100118816
36	0x3e05292f	0.13003992
37	0x3e26e921	0.16299869
38	0x3b066906	0.0020509376
39	0xbe0a3a4f	-0.13498805
40	0x3d8a9a12	0.06767668
41	0x3e3698ee	0.17831776
42	0x3dfc99cc	0.12334022
43	0xbd4a3ac0	-0.049372435
44	0xbcb5dbf3	-0.022199607
45	0x3d35e520	0.044407964
46	0xbe49958f	-0.19685958
47	0xbe1c45cc	-0.15261
48	0x3c82a6ce	0.01594868
49	0xbdad559c	-0.08463594
50	0xbd954322	-0.07288195
51	0xbc75fd1f	-0.015013962
52	0x3c0562f3	0.008141267
53	0x3e389f0f	0.18029426
54	0x3c0dedce	0.008662654
55	0x3db790d7	0.08963173
56	0xbdee4de1	-0.11635948
57	0x3c443e55	0.011977752
58	0xbcb12e19	-0.021628426
59	0x3ddf9489	0.10917003
60	0x3d590613	0.05298431
61	0xbbdff762	-0.0068349103
62	0xbe0a9d6e	-0.13536617
63	0x3c85e75b	0.01634567
64	0x3c9e269d	0.019305522
65	0x3da6b12d	0.08139262
66	0xbdebb63c	-0.11509368
67	0xbd4be5a6	-0.049779557
68	0xbd76dc0c	-0.060268447
69	0x3dc4288d	0.09578047
70	0xbbb171be	-0.0054151705
71	0x3e71c2d2	0.23609474
72	0x3e024cf6	0.12724671
73	0x3c4ffe8d	0.012694967
74	0xbde30e1a	-0.11086674
75	0xbc6be116	-0.014396926
76	0xbd805414	-0.06266037
77	0xbe1a24ab	-0.1505305
78	0x3d58c8c9	0.05292586
79	0xbcf6be4f	-0.030120043
80	0xbd93983c	-0.07206771
81	0xbb71ae43	-0.003687755
82	0xbde180a9	-0.11010868
83	0x3e1206b6	0.14260373
84	0x3e5606a3	0.20900969
85	0xbd6065a4	-0.054784432
86	0xbe30ed0d	-0.17277928
87	0x3dfb976b	0.1228474
88	0x3e2b7194	0.16742545
89	0x3e11f06f	0.14251874
90	0xbc55f21b	-0.013058211
91	0x3e50b3d4	0.20381099
92	0xbe3adfd1	-0.18249442
93	0xbd5a5f3d	-0.053313483
94	0x3d83fea2	0.06445052
95	0x3e169fb1	0.14709355
96	0xbe24507e	-0.1604633
97	0xbd310a7c	-0.04322289
98	0xbe3b91b3	-0.18317299
99	0xbdcdc780	-0.10047817
100	0xbd526b9b	-0.05137215
101	0xbe0b0142	-0.13574699
102	0xbd5235e6	-0.051320933
103	0xbe046715	-0.12929948
104	0xbd861928	-0.06547767
105	0x3d3ba53f	0.045811888
106	0x3e03ef54	0.12884265
107	0xbd2b29c6	-0.041787885
108	0xbdf5fbef	-0.12010943
109	0xbc9bdc1c	-0.019025855
110	0x3da499ee	0.08037172
111	0x3da625ff	0.08112716
112	0xbdbc63bb	-0.091987096
113	0x3d9743de	0.073859915
114	0x3d64f2d9	0.05589566
115	0x3e17fc05	0.14842232
116	0xbe037a7d	-0.12839694
117	0x3e01f2cd	0.12690277
118	0x3dc478ea	0.09593375
119	0xbca52ab9	-0.020161973
120	0xbc8d8624	-0.017275877
121	0xbd2b74fd	-0.041859616
122	0xbd31c7dd	-0.043403495
123	0xbd9e67d3	-0.07734647
124	0x3cda4233	0.026642894
125	0x3db73ae3	0.089467786
126	0x3ab4d57f	0.0013796537
127	0x3d954821	0.07289148
128	0xbdc5f983	-0.09666731
129	0xbd8e9496	-0.06961934
130	0x3e342188	0.17590916
131	0x3cfadff3	0.030624365
132	0xbca4d6ed	-0.020122016
133	0x3e03aa93	0.12858038
134	0x3db59280	0.08865833
135	0x3da26815	0.07930008
136	0xbc0925bf	-0.008370816
137	0xbddc81a7	-0.10766917
138	0xbe199e83	-0.15001874
139	0xbd59c1ba	-0.053163268
140	0x3e028b77	0.12748514
141	0xbc819cdb	-0.015821865
142	0xbdac566e	-0.08414923
143	0x3e636b4c	0.222089
144	0x3db1059a	0.086436465
145	0xbd0e7fbc	-0.034789786
146	0xbd5ab9e2	-0.053399928
147	0x3cb2fb20	0.021848261
148	0xbd30b972	-0.043145604
149	0x3dc7cca4	0.09755829
150	0xbd0307a2	-0.0319897
151	0x3d13594d	0.035973836
152	0xbd20bce8	-0.039242655
153	0xbdb80828	-0.08985931
154	0xbd4110a4	-0.04713501
155	0x3d197aa7	0.037470486
156	0xbd7d25ac	-0.061803505
157	0xbdd330cb	-0.10312041
158	0xbd366c99	-0.04453716
159	0x3ceeed69	0.02916594
160	0x3d70d6f4	0.058798745
161	0x3ca42bfd	0.020040506
162	0x3d3921aa	0.04519812
163	0xbdaa95c0	-0.08329344
164	0x3e010fd7	0.12603699
165	0xbdaa85a1	-0.08326269
166	0x3e0541d6	0.13013396
167	0x3db8a660	0.090161085
168	0x3d919fad	0.07110534
169	0xbd658024	-0.056030408
170	0x3d125a8e	0.03573089
171	0xbd21be82	-0.039488323
172	0xbdacaf95	-0.08431927
173	0xbdb438f3	-0.08799925
174	0x3da49b68	0.08037454
175	0xbde6cf14	-0.11269966
176	0x3e24808d	0.16064663
177	0xbe037602	-0.12837985
178	0xbe264e9e	-0.16240928
179	0xbd205731	-0.039145652
180	0xbc926fe3	-0.017875617
181	0x3e1cf6ac	0.15328473
182	0x3c9cfde5	0.019164035
183	0xbc61101b	-0.01373675
184	0x3e04975f	0.12948368
185	0x3d89a691	0.06721223
186	0xbddff9ac	-0.10936293
187	0x3d829a9c	0.06377146
188	0x3b52f788	0.0032190997
189	0xbdacd1e5	-0.08438472
190	0x3d101b26	0.03518214
191	0xbde7ec36	-0.113243505
192	0x3be6985b	0.007037205
193	0x3d86c96c	0.06581387
194	0x3c593517	0.0132572865
195	0x3d3e260c	0.046423003
196	0xbd6f9492	-0.058491297
197	0xbe624130	-0.2209518
198	0xbdb2979b	-0.08720323
199	0x3d0f28dd	0.03495108
200	0x3b0627a0	0.0020470396
201	0xbe5ff3b1	-0.21870305
202	0xbdcffa82	-0.101552024
203	0xbd0433d2	-0.032275982
204	0xbe3dc8ef	-0.18533681
205	0x3ce8af63	0.028403943
206	0xbe31b454	-0.17353946
207	0xbdcdb5fe	-0.10044478
208	0x3d579872	0.052635618
209	0x3cb084a0	0.021547616
210	0xbaa7758b	-0.0012776119
211	0x3df6f3c4	0.12058213
212	0x3d8f1360	0.06986117
213	0x3d8c0e8f	0.06838714
214	0x3dfc60cb	0.12323149
215	0xbe39395a	-0.18088284
216	0x3df73a87	0.1207171
217	0x3e271354	0.16315967
218	0x3e3d6662	0.18496087
219	0x3d5ae553	0.053441357
220	0x3daf248b	0.08551892
221	0xbdd60085	-0.10449318
222	0xbe0702f3	-0.13184719
223	0x3e059960	0.13046789
224	0xbbebb236	-0.0071928753
225	0x3de79c99	0.113091655
226	0xbdfe9fa4	-0.12432793
227	0xbd9ec507	-0.07752424
228	0xbe0efbf6	-0.13963303
229	0x3a19c5d2	0.00058659643
230	0xbc28db41	-0.01030618
231	0xbd06ba87	-0.03289273
232	0xbb7ca676	-0.0038551367
233	0x3d82e2c4	0.06390908
234	0x3e0c2d90	0.13689256
235	0x3d6f43fb	0.05841444
236	0xbdccccce	-0.10000001
237	0xbd1cca8f	-0.038279112
238	0x3dfeae31	0.12435568
239	0xbb79ff55	-0.0038146575
240	0x3e0f0bbe	0.13969323
241	0xbe30edf2	-0.17278269
242	0x3c0d9590	0.0086416155
243	0xbd9c97fb	-0.076461755
244	0xbdf0de5d	-0.117611624
245	0xbc2ee5dc	-0.01067492
246	0xbdbb9901	-0.091600426
247	0x3cc8595c	0.024456672
248	0xbe1cad31	-0.15300442
249	0xbdf7b8e1	-0.1209581
250	0x3dfb3693	0.122662686
251	0xbdcdc849	-0.10047967
252	0x3df1318f	0.11777031
253	0x3e0d30ab	0.13788097
254	0x3cd5f16d	0.026116097
255	0x3d573593	0.052541327

prob_conv2.bias f4 [32]
0	0x3d389290	0.045061648
1	0xbd971269	-0.07376558
2	0xbdba7f66	-0.091063306
3	0x3dedbb05	0.11607937
4	0x3dff8f2c	0.1247848
5	0xbdc93e77	-0.09826367
6	0xbd28393e	-0.041070215
7	0xbe5f4f6b	-0.2180764
8	0xbddb5c7f	-0.107110016
9	0xbe28e6eb	-0.16494338
10	0xbe08b1c7	-0.13349067
11	0x3d98d629	0.07462723
12	0xbdc0025d	-0.09375451
13	0x3e7b5b81	0.24546625
14	0x3bf4829d	0.0074618594
15	0xbe808365	-0.25100246
16	0x3cc99641	0.02460778
17	0x3d06438c	0.03277926
18	0xbe4eed8a	-0.20207801
19	0xbe3128b4	-0.17300683
20	0xbc1d8ea2	-0.009616526
21	0xbe832017	-0.2561042
22	0x3dbfdf47	0.09368759
23	0x3e0ab02e	0.1354377
24	0x3c9d613e	0.019211408
25	0x3da5584c	0.08073482
26	0xbdb84b12	-0.089986935
27	0xbdc0d04b	-0.09414729
28	0x3db62c84	0.088952094
29	0x3d185be4	0.03719701
30	0xbd657b56	-0.056025825
31	0xbcd44f86	-0.025916826

fc1.weight f4 [27, 1543]
0	0x3b620eca	0.0034493678
1	0xbc932920	-0.017963946
2	0xbc5c1b0a	-0.013434181
3	0xbcdf383e	-0.027248498
4	0xbc020aa6	-0.007937109
5	0xbc7bb964	-0.015364025
6	0xbca12892	-0.019672666
7	0xbacd183b	-0.001564748
8	0x3c8a0376	0.016847353
9	0xba943e8a	-0.0011310142
10	0x3bb90ad1	0.0056470414
11	0xba35a3ed	-0.0006929029
12	0x3cd245fa	0.025668133
13	0x3cf1f69a	0.029536534
14	0x3ab37b3f	0.0013693346
15	0xbc14115c	-0.009037342
16	0xbbae2912	-0.0053149546
17	0xbc5be756	-0.013421854
18	0x3b81b615	0.0039584734
19	0x3c05df34	0.008170892
20	0x3cf150da	0.029457498
21	0x3c23564f	0.009969308
22	0xbc3d0a70	-0.011538133
23	0x3c56caa2	0.013109835
24	0xbcd5b302	-0.026086334
25	0xbbe88c17	-0.007096778
26	0x3c8a9dfd	0.016921038
27	0xbcb699bc	-0.022290103
28	0xbce50561	-0.027956666
29	0xbc123e54	-0.008925993
30	0xba6d85a4	-0.00090607465
31	0xbc809601	-0.015696527
32	0x3cfdf6a6	0.0310014
33	0x3c3d01c5	0.011536066
34	0xbc28cfb7	-0.010303429
35	0x3ce010aa	0.027351696
36	0x3bb4e36a	0.005520274
37	0x3b3cc5b1	0.0028804357
38	0xba23ba83	-0.0006245749
39	0xbc09f96d	-0.008421284
40	0xbb18a8eb	-0.0023294042
41	0xbc9bc06f	-0.019012658
42	0x3b678119	0.003532475
43	0xbc4ce64d	-0.01250608
44	0xbb244d4a	-0.0025070482
45	0xbb674032	-0.0035286066
46	0xba8cb2f0	-0.001073448
47	0x3c944779	0.018100487
48	0xbc5bee78	-0.013423555
49	0x3ced587c	0.028972857
50	0xbbe9ce06	-0.0071351556
51	0xbc88e0e0	-0.016708791
52	0xbb002fa4	-0.0019559646
53	0x3ca6124f	0.020272402
54	0x3cc4caff	0.024022577
55	0x3ca951fd	0.020668978
56	0x3cab3419	0.020898866
57	0xbca0ad33	-0.019613838
58	0xbcce62f5	-0.02519367
59	0xbc8e4b92	-0.01737002
60	0x3c623d4d	0.013808561
61	0xbc65dfdf	-0.014030426
62	0xbc463228	-0.012096919
63	0xbcb9933f	-0.02265322
64	0x3bd43ea9	0.0064771962
65	0xba5f5d27	-0.00085206557
66	0xbca14cde	-0.019689973
67	0x3cba9162	0.022774402
68	0xbc44c2b1	-0.012009309
69	0x3cc07459	0.023492979
70	0x3ca209fe	0.019780155
71	0xbbba01a7	-0.0056764665
72	0xbbf913a5	-0.0076012188
73	0xbcbe6a1b	-0.023243954
74	0x3b747e9e	0.0037306915
75	0xbc5e3e71	-0.013564692
76	0xbcf2c95d	-0.029637033
77	0xbaf86c7f	-0.0018953233
78	0x3b2a05c0	0.0025943369
79	0x3bfb1b08	0.0076631345
80	0xbc902581	-0.017596008
81	0xbc152699	-0.009103441
82	0xbbe3dfd5	-0.006954173
83	0x3baa52c6	0.0051978556
84	0x3c57a180	0.013161063
85	0xbb057855	-0.0020365913
86	0xbc0177ae	-0.007902069
87	0xbc9c76bd	-0.019099588
88	0x3cfec8fa	0.031101692
89	0xbc819b09	-0.015820997
90	0x3be12871	0.006871276
91	0xbce3db50	-0.027814537
92	0x3ca1f1a6	0.019768547
93	0x3c8c566f	0.017131058
94	0x3b382da2	0.002810337
95	0xbcb798b1	-0.022411676
96	0xbb57b177	-0.0032912174
97	0xbce7dd40	-0.028303742
98	0x3bba5b74	0.0056871716
99	0xbb68c47a	-0.00355175
100	0x3ccfd1e0	0.02536863
101	0xbc0ca2e2	-0.008583756
102	0x3bfe154b	0.007754003
103	0x3c93ec66	0.01805706
104	0x3b9cc0c9	0.004783724
105	0x3c639c8e	0.013892306
106	0x3ce714c9	0.028208153
107	0xbc8f5e7b	-0.017501106
108	0xbc460440	-0.012085974
109	0xbcabde0a	-0.0209799
110	0x3c3c0911	0.011476771
111	0xbcd9b147	-0.02657379
112	0x3c9658a5	0.018352816
113	0xbc538314	-0.012909669
114	0x3c37ee11	0.011226193
115	0x3c76e7d9	0.015069925
116	0xbad998d1	-0.0016601329
117	0x3be545ef	0.006996862
118	0x3cc7c665	0.024386594
119	0x3c4cbacc	0.012495708
120	0xbce4ed31	-0.027945133
121	0xbcedd9e7	-0.029034568
122	0x3bff3f1e	0.0077895066
123	0xbafbf7da	-0.0019223646
124	0x3c14b198	0.009075545
125	0xbcb2f332	-0.02184448
126	0xbcfad49e	-0.030618962
127	0x3c50c490	0.012742177
128	0x3c41e01f	0.01183322
129	0x3c78e747	0.01519186
130	0x3cc7a579	0.024370896
131	0x3c7ebc4f	0.015547826
132	0x3d06bcab	0.03289477
133	0x3b5c21a2	0.0033589383
134	0xbc88aee7	-0.016684962
135	0xbac9b06a	-0.0015387658
136	0x3ca05c5a	0.019575287
137	0x3cc40ab8	0.023930892
138	0x3ccb09b8	0.024784908
139	0xbaab530e	-0.0013071017
140	0x3c1953c3	0.009358349
141	0xbc31b755	-0.010846932
142	0x3a28aa0b	0.000643403
143	0x3b96f316	0.004606615
144	0xbc7fb45f	-0.015606969
145	0x3aaf6da2	0.0013384114
146	0x3c642f5f	0.01392731
147	0x3cb8e9b5	0.022572378
148	0x3c4dc0ec	0.012558203
149	0x3cbe02f4	0.023194768
150	0xba70fa47	-0.00091925677
151	0xbba109b1	-0.0049144854
152	0x3c667e51	0.014068202
153	0xbccd6324	-0.025071688
154	0xbcee34c8	-0.029077902
155	0x3c27976f	0.010228976
156	0xbc9ad43b	-0.018900027
157	0xbcc351d3	-0.023842728
158	0x3b8384a2	0.004013614
159	0xbc94175b	-0.018077543
160	0xbcca047c	-0.024660341
161	0x3c39e613	0.011346358
162	0x3c325cc1	0.010886372
163	0xbc75feac	-0.015014332
164	0x3be7e2ac	0.007076582
165	0xba62c78c	-0.00086509506
166	0x3c895a6f	0.016766755
167	0xbba2824c	-0.0049593803
168	0x3c907bf1	0.017637225
169	0x3c8af468	0.016962245
170	0x3b4c97c9	0.00312184
171	0xbb26b699	-0.0025438427
172	0x3cb7817b	0.022400608
173	0x3c79716b	0.015224795
174	0xbcdfd5c1	-0.027323605
175	0xbc21ee03	-0.009883407
176	0xbae9ca4a	-0.0017836776
177	0x3aacce39	0.0013184018
178	0xba1b3638	-0.000592086
179	0xba8c7b51	-0.0010717903
180	0xba3c9334	-0.0007193566
181	0xba5adf4d	-0.00083493144
182	0x3cea60f2	0.02861068
183	0xbb93b434	-0.004507566
184	0xbc3e57bd	-0.011617598
185	0x3b83322c	0.0040037837
186	0x3c4902b9	0.012268716
187	0xbbe11cd3	-0.006869891
188	0xbcc45daf	-0.023970453
189	0xbb7243b0	-0.0036966614
190	0x3b8742c9	0.0041278345
191	0x3c94e2c0	0.01817453
192	0x3c292352	0.010323362
193	0xbb358e67	-0.0027703287
194	0x3b146a5f	0.002264641
195	0xbc210f80	-0.009830356
196	0x3cdf5d72	0.027266238
197	0x3cf32764	0.029681869
198	0xbc853df4	-0.016264893
199	0xbbbb4d99	-0.0057160375
200	0xbc54543c	-0.012959536
201	0xbc99f2c8	-0.018792525
202	0xbc9bcadb	-0.019017627
203	0x3c113687	0.008863098
204	0x3b95ab32	0.004567527
205	0xbc07bdda	-0.00828501
206	0x3bffb86c	0.007803967
207	0x3cd33d21	0.025785984
208	0xbab86ba2	-0.0014070163
209	0xbbc090c5	-0.005876633
210	0xbcc299d2	-0.023754988
211	0xbcc5f5ff	-0.024165152
212	0x3c97bc13	0.018522298
213	0x3c2ad6e7	0.010427213
214	0xba9ffe36	-0.0012206498
215	0x3b9f1c52	0.004855671
216	0xba8cbc62	-0.0010737295
217	0x3c58ccaa	0.013232389
218	0xbc94661d	-0.018115098
219	0xbc37fe72	-0.011230098
220	0x3c1d540a	0.009602556
221	0xbcfc4b48	-0.030797616
222	0xbcc2a62a	-0.023760874
223	0xbc678573	-0.014130938
224	0x3aeea853	0.0018208124
225	0x3c644a5d	0.013933745
226	0xbbe5b8e8	-0.007010568
227	0xbb45cd0b	-0.003018203
228	0xbcacd85e	-0.021099266
229	0x3ce25aa1	0.027631106
230	0xbc5b90c1	-0.013401211
231	0xbcb65d46	-0.022261273
232	0xbba7f96a	-0.005126168
233	0xbc9e3a28	-0.01931484
234	0x3c8033ae	0.015649643
235	0xbbc429b6	-0.0059864176
236	0x3c82442f	0.015901653
237	0xbb4b646e	-0.0031035203
238	0x3c13232d	0.0089805545
239	0x3c86ee09	0.016470926
240	0x3cc411df	0.023934303
241	0xbc9d0eb0	-0.019172043
242	0x3cce07a7	0.025150133
243	0x3bd7b3a3	0.0065826937
244	0x3c1b67d9	0.009485208
245	0x3cb9c60f	0.02267745
246	0xbc221945	-0.00989372
247	0x3cb4d2d1	0.022073181
248	0x3ce1a11c	0.027542643
249	0xbc27b3e7	-0.010235763
250	0xbcd0153f	-0.025400756
251	0x3b176150	0.0023098774
252	0xbc18da37	-0.00932937
253	0x3c117869	0.008878806
254	0x3cdc26fe	0.026874062
255	0x3b1e45b0	0.0024150424

fc1.bias f4 [27]
0	0x3c95dcf6	0.018293839
1	0xbce3aa11	-0.027791055
2	0x3c8c914d	0.017159129
3	0xbd366dbe	-0.044538252
4	0xbcf584da	-0.029970575
5	0x3b74b5ec	0.003733988
6	0xbd00e80f	-0.03147131
7	0xbd287a58	-0.0411323
8	0xbd1ea204	-0.03872873
9	0x3c9c1761	0.019054117
10	0xbb465ad7	-0.0030266547
11	0x3cc71271	0.024300786
12	0xb70cd847	-8.395006e-06
13	0xbccca044	-0.024978764
14	0x3b78d547	0.003796892
15	0x3c968ea7	0.018378569
16	0x3c81e609	0.01585676
17	0xbcee78b0	-0.029110283
18	0xbc8aff15	-0.016967336
19	0xbb4fb2a4	-0.0031692171
20	0x3a556905	0.00081409543
21	0x3c8b314b	0.016991278
22	0x3a9bc82c	0.0011885217
23	0xbc20bc33	-0.009810495
24	0xbc0f40b3	-0.008743453
25	0xbca51cf2	-0.020155404
26	0xbcdc7498	-0.026911065

fc2.weight f4 [15, 27]
0	0xbe0a913d	-0.13531967
1	0x3e4c438d	0.19947644
2	0xbd9b848d	-0.075936414
3	0x3e280601	0.1640854
4	0xbe03de8c	-0.12877864
5	0xbe87a157	-0.2649028
6	0xbe136dd5	-0.14397366
7	0x3d9db8cf	0.07701265
8	0x3d989d04	0.07451823
9	0xbe915e7b	-0.28392395
10	0x3e37ab64	0.17936474
11	0x3ef7b840	0.4838276
12	0x3dbfc521	0.09363771
13	0x3eb54ad2	0.35408646
14	0xbcc70cce	-0.024298098
15	0xbec8be7d	-0.3920783
16	0xbee2af30	-0.44274282
17	0xbd93d9c3	-0.07219269
18	0x3d5fa2ed	0.054598738
19	0x3e09d33d	0.13459487
20	0xbdcde1e9	-0.100528546
21	0x3cd5da3c	0.026105039
22	0x3ccd4475	0.025057057
23	0xbe201baa	-0.15635553
24	0xbe026c05	-0.12736519
25	0x3d8055bf	0.06266355
26	0xbdf11c01	-0.117729194
27	0xbdddad5e	-0.10824083
28	0x3cc81d72	0.024428103
29	0xbda64d0c	-0.08120164
30	0xbe220c8f	-0.15825103
31	0x3d4efdb4	0.05053492
32	0x3df8dc1f	0.1215136
33	0xbdf28b35	-0.11842958
34	0x3dc58842	0.0964513
35	0xbdd7dc1f	-0.10540032
36	0xbcf723a8	-0.03016837
37	0xbdcbcf4b	-0.09951647
38	0xbd0d4e95	-0.03449877
39	0x3e39ce93	0.18145208
40	0xbdac5625	-0.08414868
41	0x3d06a535	0.032872397
42	0xbdd08daa	-0.1018327
43	0x3ea32c6c	0.3186983
44	0xbd808279	-0.06274886
45	0xbe2eb767	-0.1706215
46	0x3e1af66b	0.15133063
47	0xbe3bea51	-0.18351103
48	0x3e0be8e8	0.13663065
49	0xbe92ce69	-0.28673103
50	0xbd9c2c7a	-0.07625671
51	0xbde9ca8a	-0.114155844
52	0x3da94c15	0.082664646
53	0x3c9624ab	0.018328032
54	0xbb22617d	-0.0024777346
55	0x3d6ac6d2	0.057318516
56	0xbe3c4ff3	-0.18389873
57	0xbc9f3a15	-0.019436875
58	0x3d80f7a9	0.062972374
59	0x3dbc1c16	0.091850445
60	0xbe09678e	-0.13418409
61	0x3b1ad0ba	0.0023622946
62	0x3debb194	0.1150848
63	0x3c576cfe	0.013148544
64	0xbe3e39ec	-0.18576783
65	0x3ccb5553	0.02482096
66	0x3c00b0bd	0.007854638
67	0xbdc69063	-0.09695508
68	0xbcc11f6e	-0.023574557
69	0x3e913196	0.28358144
70	0x3f08b97d	0.5340803
71	0x3dd9beeb	0.10632118
72	0xbdfacc67	-0.12246018
73	0x3db67862	0.0890968
74	0xbcd4f847	-0.025997294
75	0x3ca25c73	0.019819474
76	0x3ce680b0	0.028137535
77	0xbda7bef8	-0.08190721
78	0xbbdcca84	-0.006738009
79	0x3ddb9883	0.10722449
80	0x3d0314d1	0.032002274
81	0x3e45940d	0.19294758
82	0x3d9dd9f1	0.07707585
83	0x3d378fc2	0.044814833
84	0xbe250b84	-0.16117674
85	0xbda9c0bd	-0.08288715
86	0xbe63757c	-0.22212785
87	0xbdfbb1e8	-0.12289792
88	0xbe0e6314	-0.13904983
89	0xbdf45b93	-0.11931529
90	0xbec41ca1	-0.38303092
91	0x3e471699	0.19442214
92	0xbec68135	-0.38770452
93	0xbe302a6e	-0.17203686
94	0xbe1378cd	-0.1440155
95	0xbe1fe8fe	-0.15616223
96	0x3e050ab1	0.1299236
97	0x3e85c4a6	0.26126593
98	0x3da48ed4	0.08035055
99	0x3dfa91cd	0.122348405
100	0x3e427f80	0.1899395
101	0xbcd4523b	-0.025918117
102	0x3e1e311f	0.15448426
103	0xbdc60705	-0.096693076
104	0x3d8489f9	0.06471629
105	0xbe2e4872	-0.17019823
106	0x3e34ca51	0.17655303
107	0xbde14e8d	-0.110013105
108	0x3cc4634b	0.023973128
109	0xbcd1288a	-0.025532026
110	0xbe3b5698	-0.18294752
111	0xbcadda50	-0.021222264
112	0xbd50ac5b	-0.05094562
113	0x3e0cb7bc	0.13741964
114	0x3d4e65c5	0.050390024
115	0xbd4eb633	-0.050466727
116	0xbcb77e09	-0.022398965
117	0x3ee301d1	0.44337323
118	0x3de8aaf3	0.11360731
119	0x3ee28dbb	0.44248757
120	0xbe0dde4a	-0.13854328
121	0x3eb09066	0.34485167
122	0x3cecb9b1	0.028897138
123	0x3d9faf05	0.07797054
124	0x3bcc769b	0.006239725
125	0x3e3a5afd	0.18198772
126	0xbe19a0c1	-0.15002729
127	0xbe02239c	-0.12708896
128	0x3c90a761	0.017657937
129	0x3d91ceaa	0.07119496
130	0xbde9f942	-0.11424495
131	0xbdd06423	-0.101753496
132	0x3e2d129a	0.16901627
133	0x3dc66da4	0.09688881
134	0xbe137393	-0.14399557
135	0x3e1940f5	0.14966185
136	0xbdc4b4ba	-0.09604783
137	0x3df4be60	0.11950374
138	0xbd15a223	-0.03653158
139	0xbe194a83	-0.1496983
140	0x3cbf352d	0.023340786
141	0xbcc97b89	-0.024595039
142	0xbf0006c5	-0.5001033
143	0xbe6618d4	-0.22470409
144	0xbdd78762	-0.10523869
145	0xbe1781d4	-0.14795619
146	0xbd6993dc	-0.057025775
147	0x3d1a6b3b	0.03769992
148	0xbeae4e44	-0.34044087
149	0xbe001dbd	-0.12511344
150	0x3e81794d	0.25287858
151	0xbf002d15	-0.5006879
152	0x3de3d571	0.11124695
153	0x3c950ff0	0.018196076
154	0x3d85bfdd	0.06530736
155	0xbee120ea	-0.43970424
156	0xbb0f3362	-0.0021850695
157	0xbf0e58f0	-0.5560446
158	0xbc9c8e7c	-0.01911091
159	0x3e11cb1a	0.14237633
160	0xbe24cc09	-0.16093458
161	0x3de48779	0.11158652
162	0x3d43a145	0.04776122
163	0xbbd18ce3	-0.006394969
164	0xbe1823ee	-0.14857456
165	0x3e64fea6	0.22362766
166	0xbe17d24b	-0.14826314
167	0x3e276f3f	0.16351031
168	0x3e124077	0.14282404
169	0x3c18a2f7	0.009316198
170	0x3d694127	0.0569469
171	0x3cd6da4a	0.026227135
172	0x3e158ba9	0.14604057
173	0x3d25cb4f	0.040477093
174	0xbdfc3ab7	-0.123158865
175	0x3eeb17b5	0.45916525
176	0x3d64757c	0.055776104
177	0xbe117196	-0.14203486
178	0xbe35df43	-0.17760949
179	0x3dc10344	0.09424451
180	0x3e3770df	0.1791415
181	0xbe340d24	-0.17583138
182	0x3c8bddff	0.01707363
183	0xbd0ca5f3	-0.03433795
184	0x3d7ef068	0.062240988
185	0x3b10ac26	0.0022075265
186	0xbe38d5eb	-0.18050353
187	0xbdf86122	-0.121279016
188	0x3d3f9d2f	0.04678076
189	0x3e1192d1	0.14216162
190	0xbe820c9b	-0.25400242
191	0x3de33ebc	0.1109595
192	0x3da2bc80	0.0794611
193	0xbe150848	-0.1455394
194	0x3c51afa6	0.0127982255
195	0xbde67d04	-0.112543136
196	0xbe774dcd	-0.24150772
197	0xbe67206a	-0.22570959
198	0xbd86d828	-0.06584197
199	0x3e0f302b	0.13983218
200	0xbce6c76b	-0.028171262
201	0x3bb288a5	0.005448418
202	0xbe8056c5	-0.250662
203	0xbdff52bc	-0.12466952
204	0x3e99bc03	0.30026254
205	0xbef86513	-0.48514614
206	0x3e2ca430	0.16859508
207	0x3e3b77e6	0.18307456
208	0xbcbbe18e	-0.022934701
209	0xbcd4d6de	-0.025981363
210	0x3dff2b62	0.124594465
211	0xbe59a63f	-0.21254824
212	0x3ca241ad	0.019806707
213	0x3e1a5c99	0.15074386
214	0xba9f8fd4	-0.0012173601
215	0xbdae22db	-0.08502742
216	0x3dc025c6	0.09382205
217	0xbd9f6cda	-0.07784434
218	0x3d6c42b0	0.057680786
219	0xbe3e7ef1	-0.18603112
220	0x3d3cf90d	0.04613595
221	0x3e8ec827	0.2788708
222	0xbcb4d4ab	-0.022074064
223	0x3e1e63e9	0.154678
224	0xbd0ea870	-0.034828603
225	0x3e5c68fa	0.2152442
226	0x3a686385	0.0008864927
227	0x3e9e784f	0.30951163
228	0xbd95695e	-0.07295488
229	0xbe990bb4	-0.2989174
230	0x3d807c53	0.06273713
231	0x3e6cadd5	0.23113187
232	0x3e1d5640	0.15364933
233	0xbe3b44b8	-0.18287933
234	0xbdbc0076	-0.091797754
235	0x3e2a6171	0.16638733
236	0x3d61318e	0.0549789
237	0x3c8e15fd	0.01734447
238	0x3c305353	0.010762054
239	0x3d8fba11	0.07017911
240	0xbd93519f	-0.07193302
241	0xbe2ae72b	-0.16689746
242	0x3dceb49c	0.10093042
243	0xbde9591b	-0.11393949
244	0x3dbda31a	0.09259625
245	0xbd348b75	-0.04407831
246	0xbd1e8558	-0.038701385
247	0x3d8e3410	0.06943524
248	0x3ee36673	0.444141
249	0x3d798422	0.060917027
250	0xbd20156a	-0.039082922
251	0xbe1ea2f2	-0.15491846
252	0xbe70b15c	-0.23505157
253	0xbe26ab10	-0.16276193
254	0x3d0be30b	0.034152072
255	0xbe0e51eb	-0.13898437

fc2.bias f4 [15]
0	0xbf33525b	-0.7004754
1	0xba8164a1	-0.0009871909
2	0x3d609984	0.054833904
3	0x3cac10f6	0.021004181
4	0x3e5c6587	0.21523105
5	0x3f73415e	0.9502162
6	0x3d922a78	0.071370065
7	0x3f150bd8	0.582212
8	0x3e59e7bc	0.21279806
9	0xbf14ae17	-0.5807814
10	0xbc505c9b	-0.012717391
11	0x3dde8308	0.10864836
12	0xbe9f6e2b	-0.3113874
13	0x3efa07bd	0.4883403
14	0x3ee0fc15	0.43942323

task_specific_layers.activity_greater_than_neg_control.weight f4 [1, 15]
0	0x3ffb3ce9	1.9627963
1	0xbf0eeae1	-0.55827147
2	0xbe0c9451	-0.13728453
3	0xbe962697	-0.29326317
4	0x3f1b8fad	0.60766107
5	0xbf01a2ab	-0.50638837
6	0xbe6e3751	-0.23263289
7	0xbe6b6cb5	-0.22990687
8	0x3eed63ab	0.46365103
9	0x3f2c4c01	0.6730347
10	0x3e9540dc	0.29151046
11	0x3ef75269	0.4830506
12	0x3fa71873	1.3054336
13	0xbda42402	-0.080146804
14	0xbf6f1198	-0.9338622

task_specific_layers.activity_greater_than_wt.weight f4 [1, 15]
0	0x3f1cf78a	0.61315215
1	0xbeecc1ff	-0.46241757
2	0xbf336f20	-0.7009144
3	0xbdcbaf96	-0.099456
4	0x3eb14c97	0.34628746
5	0xbf801896	-1.0007503
6	0x3eddc0b4	0.43311083
7	0xbf537225	-0.82596046
8	0xbeaf0062	-0.3417998
9	0x3f606c4e	0.8766526
10	0xbf4e6618	-0.8062453
11	0x3e938cc0	0.2881832
12	0x3f12b0db	0.5730111
13	0xbf3a8e3a	-0.7287327
14	0xbcdf7e2b	-0.027281841

task_specific_layers.activity_greater_than_a73r.weight f4 [1, 15]
0	0xbe0af464	-0.1356979
1	0x3e8090fa	0.25110608
2	0xbe39a3e3	-0.18128924
3	0xbdebc2fe	-0.11511801
4	0x3e33fce6	0.17576942
5	0xbe2cca68	-0.16874087
6	0xbe6930ea	-0.22772565
7	0xbd4b4c1b	-0.049633127
8	0xba7a3ca8	-0.00095457816
9	0x3e8156cb	0.2526153
10	0xbd0cd888	-0.034386188
11	0x3de5cc52	0.11220612
12	0x3e46e7f1	0.19424416
13	0x3d19201d	0.03738414
14	0xbcc96b57	-0.024587316
