trained_models/nucb_model_final_model_epoch_100_val_loss_0.5445.pt (torch, 524077 bytes, 15 tensors)

conv1.weight f4 [32, 1280, 1]
00000000: fd19 8a3c 17d7 cd3c 97b2 06be 1aac 753d
00000010: 8e73 1e3d 866a 063d f6a5 973c 00fa a53b
00000020: 6c70 afbc eb30 11bb 3bff afbc f0a5 a23c
00000030: f295 343d 8dbf 803d 08bc 883d fe9f 713c
00000040: ad98 b23d 1676 753c 85c4 903c 9d12 d3bb
00000050: b6e5 173d 10b8 433d f9b4 b4bd 6d9b 16be
00000060: 8628 403d b3a5 ca3c 84ab 253b 2fb7 033d
00000070: c465 bb3d 421b ccbc 1904 fcbb 793c 8fbd
00000080: 852e 4cbb 0939 e0bb 276d 1abd 1d58 123d
00000090: 7f92 27bd b997 70bd 0416 323d fa5e 10bd
000000a0: cb2c 9c39 782b 803d 59c5 fabc 5153 16bc
000000b0: ace0 c5bb 6c26 d8bc 47b2 38be 2bd4 1cbc
000000c0: 1efa a5bd e663 ccbb 82e9 d23d 742a a2bd
000000d0: baf2 e9bd 58d2 0dbd ac40 b0bb 0b9c ca3d
000000e0: dd78 d3bc b443 243d e796 42bd 5b88 ae3d
000000f0: 9c27 72bd 5e7b 0ebe b1c2 673c 560a 213d
00000100: 59fc 28bd fdf3 36be df6c cbbc 2483 06bd
00000110: 8e40 db3c f0d4 843d a430 bebc a69c 013d
00000120: c0c0 7d3c dcf6 17be f210 f0bc aa1d 893d
00000130: 5ca3 81bd 134c 8c3c 4e4d a23a 0451 34bc
00000140: f3c3 953d 9b62 94bc 4550 163e 6032 10bc
00000150: 9666 fc3b be78 483d a141 e4ba 34f8 d8bc
00000160: 09af d03c 2c7f 41bd fd1d 193d bc3a de3c
00000170: db79 27bd be2f f1bc 07f5 c33b 835e 98bd
00000180: fcbc 9c3c 6837 f5bc 9978 86bd e7d9 1ebd
00000190: abb4 5bbd 3f3a 2d3d 24fd 69bd 4961 afbd
000001a0: ed86 c33a 5bbe 6abd e75d f33d 1649 19bd
000001b0: eae9 fe3c 537b 523c 94ba 1bbd 9b03 5e3b
000001c0: 0578 623d 0aab 57b9 29be b53b 3d88 d43d
000001d0: c2a6 30bc 9f65 033e 41f4 42bc 8244 ba3c
000001e0: 4bb5 aabc 96f2 3c3a 3908 553d b3bd 263d
000001f0: 8d4e 363d be8a 2c3d d908 2fbd 6c8d 883c
00000200: d4ad 9abb 6393 913d 6ea7 7e3c 7866 de3b
00000210: c394 9a3d 4d95 a3bc c66d c7bd e851 0abd
00000220: f0c9 b83c eab9 5abc f868 803d bd9c 2fbc
00000230: ac3f 11bd a6a6 fc3d bdd8 903d ff23 41bd
00000240: 6bee 66bd b070 673d ffa3 563c 8cce 013d
00000250: 58d7 223c 1ed2 a2bd 43f7 46bd 1f96 a9bd
00000260: b1b4 cb3b d51d e7bb 7e55 023d 41f5 983d
00000270: c14d 73bc 65d0 973b 46da bd3d ec26 d13d
00000280: 7637 04bc 5353 f33c 9f2a c0bc 2420 9c3c
00000290: af54 953d 5bf7 6ebd ac4f 61bb 470c db3b
000002a0: a34e 4f3d 5cd7 86bb 9ddd f7bc 4005 e43d
000002b0: b8e9 573d c7ac abbc 82de 95be 2474 f13d
000002c0: 0d6f 863d a10f 61bc 064d c03c 13f0 ad3c
000002d0: 6f16 353d 414e 50bd d75f 30bb c032 833d
000002e0: a5f1 943c 8e5f bcbd 94a2 003d 1b92 a83c
000002f0: d909 3cbd e8f0 00bd 3926 64bd 6ea8 d3bc
00000300: 3230 173d b9ec 433d a693 87bc fa9a 853c
00000310: b037 f33d 4a89 713d fb6b 1d3d 5d9e bdbc
00000320: 6b85 21bc dc8c 823a f6e2 a7bc e941 513a
00000330: 0182 903c a332 243d 5e62 9b3b e763 cb3c
00000340: 1d95 fabb 4a0f 493c 6859 0cbe 43b1 f83c
00000350: e13d 793c e140 9bbc 0918 903c 3624 e6bc
00000360: 5a1b 4abb 080c a43b 4db8 a5bc 4fef cf3c
00000370: 0a6a 7dbc 33e6 023d 0344 35bc 28ac 83ba
00000380: a5a4 83bc d4de bbbc e80a 613d 137c 1b3c
00000390: b6fa 82bc c96b be3c b2f9 453d d7e5 523d
000003a0: 47f5 bdbc c7c3 da3b 9f9f 9c3d 09a3 9abc
000003b0: 7dbf 223d 02b0 7cbd deb5 97bb b155 40bc
000003c0: 573b 7f3c 392d 94bd 8cf8 13bc fd76 e5bc
000003d0: a46f 963d 9b58 033d ac86 b5bd 0e67 4dbd
000003e0: 598b 2f3e dca5 a13d 7312 0bbc 446f 0b3d
000003f0: 8fac 58bd 1321 183d 8bdf f33d b19e cb3b
0.016858095 0.025126977 -0.13154064 0.059978582 0.03868442 0.032816432 0.018511754 0.0050652027
-0.021415912 -0.0022154402 -0.021484008 0.019854516 0.04408831 0.062865354 0.06676489 0.014747618
0.08720527 0.014981767 0.017671833 -0.006441428 0.037084304 0.047782958 -0.0882358 -0.14707728
0.046913646 0.024737215 0.0025279233 0.03215712 0.0915027 -0.024915341 -0.007690918 -0.06993956
-0.0031155657 -0.0068427366 -0.037701752 0.035728563 -0.040911194 -0.058738444 0.043478027 -0.035246827
0.00029788012 0.06258291 -0.03061168 -0.009175138 -0.006038746 -0.026385508 -0.18036757 -0.009572069
-0.08104347 -0.0062374948 0.10298444 -0.079182535 -0.114232495 -0.034624428 -0.0053788032 0.09893044
-0.025814468 0.04010363 -0.047507193 0.085221015 -0.059119806 -0.13914248 0.014145539 0.039316498
-0.041256282 -0.17866512 -0.024832187 -0.03283991 0.02676418 0.06485927 -0.023216553 0.031643532
0.01548785 -0.14840263 -0.029304955 0.06695111 -0.063299865 0.017126119 0.0012382658 -0.011005644
0.07312765 -0.018113425 0.14679058 -0.008801073 0.007702659 0.048943274 -0.0017414578 -0.02648554
0.025474088 -0.04724042 0.037382115 0.027127616 -0.040887695 -0.02944171 0.0059801373 -0.07439902
0.019133084 -0.029933646 -0.06565971 -0.038782027 -0.053639095 0.042291876 -0.05712618 -0.085634775
0.001491753 -0.057310443 0.11883145 -0.037423216 0.031117398 0.012846786 -0.03801973 0.003387666
0.05529024 -0.00020567715 0.0055463505 0.10377548 -0.010781946 0.12831734 -0.011899055 0.022737745
-0.0208384 0.0007207779 0.052009795 0.040708255 0.044508506 0.042124502 -0.042733047 0.016668998
-0.004720429 0.0710819 0.015542848 0.0067871176 0.07547905 -0.019968653 -0.097377345 -0.033769518
0.022557229 -0.013349989 0.06270021 -0.010718522 -0.035461113 0.12336473 0.070725895 -0.04715347
-0.056379717 0.05650395 0.013100623 0.03169112 0.009939037 -0.07950233 -0.04857565 -0.082805865
0.0062166085 -0.007053117 0.031819813 0.074686535 -0.014850081 0.004632997 0.09270148 0.10212502
-0.008069864 0.029702818 -0.023457823 0.019058295 0.07291543 -0.058341365 -0.0034379764 0.006684813
0.050612103 -0.0041150283 -0.03025704 0.11133814 0.052713126 -0.02095641 -0.29271322 0.1178973
0.0656415 -0.013736636 0.023474228 0.02123264 0.044210847 -0.05085588 -0.0026912594 0.06406164
0.018181631 -0.09197913 0.031405047 0.020577481 -0.04590783 -0.031479746 -0.055700514 -0.02583715
0.036911197 0.04783318 -0.016549896 0.01630925 0.11875856 0.05896882 0.038433056 -0.023146803
-0.0098584695 0.0009960192 -0.020493966 0.00079825387 0.017640116 0.040087353 0.004741951 0.02482791
-0.00764717 0.012271712 -0.13705981 0.030357962 0.015212507 -0.018951835 0.017589586 -0.028093439
-0.0030839057 0.005006317 -0.020229483 0.025382666 -0.015467176 0.031957816 -0.011063579 -0.0010045813
-0.01606972 -0.022933401 0.05494204 0.009490031 -0.015988689 0.023244755 0.04833383 0.051488724
-0.023188246 0.0066761705 0.07647633 -0.01887657 0.0397334 -0.06169129 -0.0046298346 -0.01173918
0.015578113 -0.07235188 -0.009031426 -0.02801084 0.073455125 0.032066923 -0.08863577 -0.05014711
0.17143 0.07892963 -0.008488285 0.034041658 -0.05289894 0.037140917 0.11907872 0.006213986

conv1.bias f4 [32]
00000000: 3f31 443c 16a0 883b 3da1 38bb 3b9f f93a
00000010: 5a47 8fba 631a 62bb bf0f e63b 1e1f 11bc
00000020: 52cc 0b3c cfc0 29bb 7947 c8bc 0dbd 963c
00000030: 8e55 90ba 918a 353c a5c6 35bc 0d3e 25bc
00000040: d3ee 8d3c ef78 2bbc f26a 86bc 46eb a9bc
00000050: 5376 be3c e6d7 a93c a198 063a 2a5e 0abc
00000060: 83eb 46bc 98b8 31bc c7af c1ba 5627 303b
00000070: 8e7e 9ebc e995 a7ba 46a7 5e3c 7b6e c23b
0.011974632 0.0041694744 -0.0028172277 0.0019044647 -0.0010931299 -0.003450059 0.00702092 -0.008857517
0.0085326005 -0.0025902276 -0.024448143 0.018400693 -0.0011011825 0.0110804 -0.011094724 -0.010085595
0.017325794 -0.0104658445 -0.016408417 -0.02074207 0.02324978 0.020732831 0.0005134438 -0.008445302
-0.012141111 -0.010847233 -0.0014777117 0.0026878915 -0.019347455 -0.0012785766 0.013589686 0.0059335805

conv2.weight f4 [32, 1280, 1]
00000000: 248f b1bc fc19 cf3c 68e6 f83d c89a 813d
00000010: 990f 02be 6e3d 873d 6702 ddbd 695d d7bc
00000020: fab6 a43d 9efa 39be 7921 063e fbb6 c53d
00000030: 4405 a03d eda4 ecbd 5ceb 80bc e4f1 243d
00000040: 5831 1f3e 4690 853d 68d3 573d 7455 403c
00000050: bbad bfbd eeb8 eabc 0f15 453e 128e 063e
00000060: 3904 5e3d 6bbe 9cbb 82d1 843d 391a 61bd
00000070: 30c5 1bbe 06d0 843c 2532 e73c 527c fc3c
00000080: 78d8 91bd c09b 80bd 1d61 fdbd 393e 96be
00000090: 4ee5 c4ba cdf5 723d 1226 983d 70f6 3fbe
000000a0: 6915 9fbd 37be d03c f04d c33d e0a6 8bbc
000000b0: 8db7 6f3d 5927 033e e9b1 5d3e d624 ef3b
000000c0: 80fa 313d 6648 26bd 9e46 fdbd 7fdf f53d
000000d0: 49e5 9a3e 9ef6 e3bd 25b5 7d3e b023 8dbd
000000e0: 3b85 c53d e2dc 1b3d 0ff7 69bd 4ad3 a6be
000000f0: 4246 6ebd 44cd 853e 34e9 883d 22ce 883d
00000100: d986 dcbd de46 403c 055d d23d c51f 093e
00000110: 6ee5 8abd 2c9f 113a 35f8 353d 71b6 b73c
00000120: 49b2 2cbe c24c 9b3d 95fc 5d3c 74e6 ee3c
00000130: e62e 333d 16cc b2bd 83c7 273d 497e 853c
00000140: fbef 1fbe f35a eabd 6502 f5bc 12b6 93bd
00000150: a72c 98bd 5af5 cdbd 355c 723c 99d8 82bd
00000160: 57d9 bc3c 2a69 443e bc15 fabd 5ee7 edbd
00000170: cf4b 233d d6cc 4c3d c574 813b 0375 e03d
00000180: 6858 eabd 1b23 973d 6fc9 d3bd 8a9d a13e
00000190: d4f1 fbbd 2990 043d a4f5 a8bd 4d4b 2d3e
000001a0: e05a 92bd 0d59 ed3d e288 34bb 6f45 2a3e
000001b0: 564c 2abd 3c89 d3bd 01c4 38bc f312 0cbe
000001c0: 823c 14be 3530 5fbe 5649 b3bb 91f0 b5bc
000001d0: 413f f73d 44b9 6dbd 3f94 f73c 59a0 ad3d
000001e0: 89a5 303d d889 b83d e8dc 56bd cdcd c9bc
000001f0: b72f a1bd b03e 003e 3193 133e 7560 183d
00000200: 2e35 ea3d 1e39 0bbe eab9 323d 5302 773d
00000210: ab27 83be 4dc4 d8bc 4c2a 76bd 6d26 b63d
00000220: 1a16 23be 5c0a 0bbe 8652 7e3d 69a5 be3d
00000230: bfa7 5d3e cf13 66bb 79cb b8bd 8ec4 623d
00000240: b60a 9ebd b481 4c3c bd0e bfbd 65f5 ff3c
00000250: b51b dabc fe56 183d 5d5c 213d a8c0 a33d
00000260: 4282 4c3d c466 47bd bfcf bdbd 23f3 cd3c
00000270: cfe8 0fbe 2ed9 03bd b324 d9bd 081b 18be
00000280: 7fa0 76bd 13b8 37be 47d8 063c b913 a8bd
00000290: b67e aabe 1ddc 173e 5225 f8bd 7dc6 0fbd
000002a0: dfa9 cebd 895a 9fbb 1ea8 a0ba 2a40 88be
000002b0: b9dc 133e ccc1 7c3d 658c a93e d8b5 10bd
000002c0: 0ccd 28bd 1add a53b 8b4b aabd d362 7ebd
000002d0: dd7f 70bc da3f 943d 8367 efbd fc8b b7bd
000002e0: 2cc0 14be 7858 86bc eaf4 013e 4863 27bc
000002f0: 58f3 03be 1e3d 963c e821 273e 282b 6a3d
00000300: dc5f c3bd 31d4 afbd ff7c ff3d 80d6 4e3b
00000310: c01d 9fbe aca3 0ebd caa3 02bc 34c4 d33c
00000320: 77fa 07bc 58be 3abe 9551 1fbc c090 bfbc
00000330: 1c0f 63be 0bee 633e c097 2c3c 684f fcbc
00000340: 3f4b 0e3e 1148 173e 5c48 e1bd a98d ba3d
00000350: 6e18 bdbc e3f3 f8bd 4050 443e a557 403c
00000360: eb4d 043d 59ca 153e a63b 98bd f02e 4abd
00000370: 0225 0a3d d67f b9bd 4c9b aa3d 4156 e73c
00000380: 9d89 f03d 6979 3b3d 6fa2 1039 01f7 bdbd
00000390: 0bd5 4cbd d2ff 9d3c e2d1 573c 7732 ab3d
000003a0: 3e9d 2d3d 9a13 733d c792 3ebe 8e54 50bd
000003b0: 6c10 93bd c4b1 0ebd 4106 11be 8619 373e
000003c0: c461 7fbe 779d 2a3e 1594 06be 810d 2e3e
000003d0: 956e b23d 1bad f2bd eb75 9fbc 017e 21bd
000003e0: d272 1ebe 0e84 8cbc a419 3ebd 5212 45be
000003f0: 57d2 b63d 5ba6 60bc a872 a6bd 344f 94bd
-0.0216747 0.025280945 0.121533215 0.0632835 -0.12701263 0.06603514 -0.10791474 -0.026289659
0.080427125 -0.18162009 0.13098706 0.096540414 0.07813504 -0.115548946 -0.015737228 0.040269747
0.15546167 0.065216586 0.052691847 0.011739124 -0.09359308 -0.028652634 0.19246314 0.13140133
0.054203246 -0.004783442 0.06485273 -0.05495665 -0.1521194 0.016212475 0.028222153 0.030821
-0.07121366 -0.06279707 -0.123720385 -0.29344347 -0.0015021951 0.059316445 0.07429136 -0.18746352
-0.077677555 0.025481327 0.0953635 -0.017047346 0.058524657 0.12807979 0.21649899 0.0072980924
0.043451786 -0.04059639 -0.12366985 0.12005519 0.30253056 -0.11131023 0.24776132 -0.068915725
0.09644552 0.038052447 -0.05712038 -0.32583076 -0.05817247 0.26133168 0.06685105 0.06679942
-0.10767908 0.011735646 0.10271648 0.13391025 -0.067820415 0.00055550295 0.04442616 0.022425862
-0.16864885 0.07583 0.01354899 0.029162623 0.043745898 -0.087303326 0.040961754 0.016295569
-0.15618889 -0.114431284 -0.029908368 -0.072124615 -0.07430392 -0.10056563 0.014792492 -0.06388969
0.023052854 0.19180742 -0.12211177 -0.116163954 0.03986722 0.050000034 0.0039506876 0.10959818
-0.114426434 0.07379743 -0.10341155 0.31565505 -0.123019844 0.032364044 -0.08249977 0.16923256
-0.07146239 0.11589251 -0.0027547409 0.1662805 -0.041576706 -0.1032891 -0.0112772 -0.13679104
-0.14476207 -0.21795733 -0.005471389 -0.022209438 0.120726116 -0.05803801 0.030222056 0.084778495
0.043126617 0.090106666 -0.052456766 -0.024634266 -0.07870429 0.12523913 0.14411618 0.037201364
0.114359245 -0.13596007 0.043634333 0.06030495 -0.25616202 -0.026460791 -0.06009893 0.08894048
-0.159264 -0.1357817 0.06209042 0.09308893 0.21646021 -0.0035107022 -0.09023184 0.05536323
-0.07716887 0.0124820955 -0.09328983 0.031244943 -0.02662454 0.037192337 0.039394725 0.07995731
0.04992891 -0.04868199 -0.0926814 0.02514035 -0.14053653 -0.03218954 -0.10602703 -0.14854062
-0.060211655 -0.17941312 0.0082302755 -0.08206887 -0.33299798 0.1483006 -0.12116493 -0.035101403
-0.10090994 -0.0048630876 -0.0012257134 -0.26611453 0.14439668 0.061708257 0.33114925 -0.03532967
-0.041211173 0.0050617578 -0.0831519 -0.062105965 -0.0146789225 0.07238741 -0.11689665 -0.08962247
-0.14526433 -0.016399607 0.12691084 -0.010216542 -0.12885797 0.01833969 0.16321528 0.057170063
-0.09539768 -0.08585394 0.12475013 0.0031560957 -0.31077385 -0.03482406 -0.007973621 0.025850393
-0.008299462 -0.18236673 -0.0097240405 -0.023384452 -0.22173733 0.22258775 0.010534227 -0.030799583
0.13895892 0.14773585 -0.110001296 0.09109051 -0.023082938 -0.12155893 0.19171238 0.011739646
0.03230087 0.14627971 -0.07433252 -0.04936117 0.0337267 -0.09057586 0.08330402 0.028239371
0.11744998 0.045770083 0.00013793421 -0.09275628 -0.05000786 0.019287024 0.013172599 0.08359235
0.042386286 0.059344865 -0.18610679 -0.050861888 -0.071808666 -0.0348375 -0.14162542 0.1788083
-0.24939638 0.1666163 -0.13142426 0.16997339 0.08712498 -0.118494235 -0.019465407 -0.039426807
-0.15473488 -0.017152812 -0.04641117 -0.1924527 0.08926838 -0.013711537 -0.08127338 -0.07241669

conv2.bias f4 [32]
00000000: ce30 83bc 6763 d63b 420c 463b 16f2 f43c
00000010: 4bfb 0e3c faa6 79bd 56a8 503c b547 ee3b
00000020: f45f 7cbb ac1a c83c 57f6 303c 5c2f 8c3b
00000030: eaa7 af3a 37d7 b6bb bbfb e9bc a9f2 60bc
00000040: a14e 4f3c 27f5 edbb 462c fd3c bbc2 06bd
00000050: 1b51 49bc fbd5 463c f7e7 703a d5c5 3b3c
00000060: 1cc5 74bc 2dfc 473c 896b fb3b dca0 a83c
00000070: 4564 4d3c d60d 113d 01f5 1bbc d3c7 473b
-0.016014483 0.0065426114 0.0030219709 0.029900592 0.008726905 -0.060950257 0.012735447 0.0072717317
-0.003850934 0.02442678 0.0108009195 0.0042781066 0.0013401483 -0.005579855 -0.028562417 -0.01372973
0.012653024 -0.0072618905 0.0309049 -0.032900553 -0.012287403 0.012135978 0.0009189839 0.011460741
-0.014939573 0.0122061195 0.0076727313 0.020584516 0.012536113 0.035413586 -0.009518863 0.0030484095

prob_conv1.weight f4 [32, 20, 1]
00000000: 432d 1c3e 21ae 273d 2945 aa3d 4a20 6cbd
00000010: 18f3 cb3d f9a4 413e da01 403d a4b6 72be
00000020: 0ed3 6cbe 34c1 043e 2540 703c 5622 243e
00000030: 1729 3abe f7e8 343e b32c 97bd d21a 593c
00000040: 11f7 b73d aa93 eebd 3663 c7bb dddb 6cbe
00000050: 734b 0e3d 5d1a f3bd 3d6c 2d3d 1b88 9ebd
00000060: 6a69 d4bd 8d63 863d a793 ffbd 11f9 36bc
00000070: 3be0 653e 2687 01be 5fd0 313d 06d4 08be
00000080: dda8 583d f471 7b3d 8fab 01be bc05 ffbd
00000090: 9db2 80bc e266 6f3e 10de ea3d cc91 a53d
000000a0: 079f a73d 601f 6fbd 57e8 03be 6f0e 0f3d
000000b0: fcf9 cfbc 729c 473e ee16 e33c 8447 1e3e
000000c0: f7a8 70ba bd39 21be ac86 14be c72a 283e
000000d0: e14e 3ebe 2624 883d 09f9 f73c 31bf 9abd
000000e0: 7b04 b03d d260 993c 573d 893d 9389 e6bd
000000f0: 6cb8 7abd 46c5 4abe 4050 163d 1ecf 58be
00000100: 37a4 383e 4623 2dbe 203d a53d e11e f23c
00000110: af1f 3c3e fdb2 9b3d 0b56 0fbe c8cf 943d
00000120: b02f dd3d 9a95 f3bd 9acd 833d 5690 883c
00000130: dd65 803d 2671 26be 471c cfbc e861 a43d
00000140: a6c5 3abd 8248 293d 011a 3e3e 7f3e cdbc
00000150: 0932 073e c13f 273e 00c2 04be 7b98 aa3c
00000160: 11fb d5bd df1b 15be 943f 493e 834d e2bd
00000170: c7ed 1c3e 1b85 38be 43b0 83bd 7f1f 1abe
00000180: defc 65bc f9d3 4e3b 1bd1 c23d 7196 d2bd
00000190: b6d3 163e 06e7 023d b79e 243e f4a5 8c3d
000001a0: d7f0 71be 326d 84bd cf8a 0a3e 2378 183d
000001b0: 486c d13d 2985 d6bc 21a6 96bd bd1b 80bd
000001c0: b770 8dbd 1038 1ebe c494 89be a0c2 ef3d
000001d0: d78a 513c 8d0f 253e 98af b2bd 1da1 183e
000001e0: 30ac d53b c6de 02be 75b0 1a3e 0007 3f3e
000001f0: de0e 0bbe d23c fcbd 89f4 a6bc ae90 8bbc
00000200: dc5f 253e 08d7 02be 837a 753d 8ed2 af3d
00000210: 96ea 033e 850e 8fbd bd3b 313e 5b7e 24be
00000220: ff9e 6c3d 369f 41be 32ad b23d 27bb 4fbe
00000230: c3d1 c73d e408 b8bd 9107 14be b417 90bd
00000240: 771e 62be 0e00 3ebd c1f2 3e3e 1ce2 b43d
00000250: 2364 f93d 441d 9b3c 278e 273e 07e5 69bd
00000260: 54d2 da3d c670 b1bc 0b22 1e3e 9563 503d
00000270: 7611 093e a573 02be 1122 bfbd 92a8 54be
00000280: d57a 2c3e fc3f b1bd 37bd abbb dafd debd
00000290: 2cde 783e 6170 a2bd ccad aabd 4623 5f3d
000002a0: e406 acbd ba98 9d3d 1370 12be 98ac 533e
000002b0: b558 c7bd 660c 2d3e a9e4 c9bc 2eb7 f5bd
000002c0: 0566 56bc dcbb c23d 532c a9bd 2731 23bd
000002d0: 84fd 31bd e8aa c53d 73ac 793d c311 553d
000002e0: dcdd de3d 7433 f8bd 3154 a93d e828 41be
000002f0: c3a9 4abe ca0a 3b3e a50a 5fbd efb3 debd
00000300: f849 0dbd 1408 29be 35e4 0b3e 04f2 49bc
00000310: a324 8e3c d7e1 283c 214c 093e 36c9 d4bb
00000320: bacd 41be 6d12 1b3e 7e9c 103e 4e96 13be
00000330: 6380 0e3e 1e4e 66be 5617 bcbd ce28 b83d
00000340: 7762 e03d 3792 a83d 8a57 083e 8997 08bd
00000350: d87e 5ebe 4b6e 083d 61a2 1f3e 6c16 fe3d
00000360: 122b 10be a542 f53d fe0d 20be c29d 73bd
00000370: 8543 b63d 8597 1abe 4ece 15be 9c1b bcbd
00000380: 5f22 0f3e 3e44 153e c6a0 27be 443f 623e
00000390: 22ef 12be c11b 07be 29e3 a13d cd68 ccbc
000003a0: 31cc a5bd 3e10 e8bd bd87 043c 9c99 4ebe
000003b0: a8fe 593e 62c8 1b3e fd69 2bbd 6b41 6c3e
000003c0: 4362 bfbc 02a9 243e 573c b8bd d869 26be
000003d0: a9e5 bfbd ba9f 393e 7832 333e 5169 8a3b
000003e0: 5875 7cbd 66f8 1b3d d32b c33d 528b c33d
000003f0: 273a 17be cfad 3bbe 5a41 48be e165 383c
0.15251641 0.040937547 0.083139725 -0.05764798 0.09958476 0.18910588 0.046876766 -0.23702484
-0.23127386 0.12964326 0.014663731 0.16028723 -0.18179737 0.17666994 -0.073815726 0.013251023
0.08982671 -0.116492584 -0.006084825 -0.23130746 0.034739923 -0.11870263 0.042339552 -0.07740804
-0.10371669 0.065619566 -0.12479334 -0.0111677805 0.22448818 -0.12649211 0.04341161 -0.1336213
0.052895416 0.06138797 -0.126631 -0.124522656 -0.01571017 0.2337909 0.11468136 0.08084449
0.08184629 -0.05837953 -0.128816 0.034925874 -0.025387757 0.19493273 0.027720895 0.15456969
-0.0009180451 -0.15744682 -0.14504498 0.16422568 -0.18584777 0.0664752 0.030270116 -0.07555998
0.085946046 0.018722925 0.06701153 -0.11256709 -0.061211035 -0.19801816 0.036697626 -0.21172759
0.18031393 -0.16907987 0.08068299 0.02955574 0.18371461 0.07602499 -0.13997667 0.07266194
0.10800111 -0.118937686 0.064357 0.016670387 0.06269429 -0.162541 -0.025282038 0.08026487
-0.04559865 0.041328914 0.18564607 -0.025054215 0.1320268 0.16332914 -0.1296463 0.020824661
-0.10448278 -0.14561413 0.1965316 -0.110499404 0.1532508 -0.18019526 -0.06430104 -0.15051077
-0.014037339 0.003155945 0.0951254 -0.10282601 0.14729199 0.031958602 0.1607617 0.068675905
-0.2362703 -0.0646614 0.13529514 0.037223946 0.10225731 -0.026186543 -0.07355905 -0.06255291
-0.06906264 -0.15451074 -0.26871312 0.11707044 0.01278945 0.16119213 -0.08724898 0.1490521
0.0065207705 -0.12780294 0.15106376 0.18655014 -0.1357989 -0.12316288 -0.020380275 -0.017036762
0.16149849 -0.1277734 0.05993129 0.08585082 0.12882456 -0.06985191 0.17307945 -0.16063826
0.057768818 -0.1890839 0.08724441 -0.20286237 0.09756806 -0.08986071 -0.14456011 -0.07035771
-0.22081934 -0.04638677 0.18647291 0.088321894 0.12177303 0.018934853 0.1636282 -0.057103183
0.10684648 -0.02166022 0.15442674 0.05087622 0.13385567 -0.12739427 -0.093326695 -0.2076743
0.16843732 -0.08654782 -0.005241062 -0.10888262 0.24303502 -0.07931591 -0.083339304 0.054477
-0.08399752 0.07695146 -0.14300565 0.20671308 -0.097337164 0.16899261 -0.024645166 -0.119978294
-0.013085847 0.095084876 -0.08260407 -0.039841797 -0.043454662 0.096517384 0.060955476 0.052018892
0.1088216 -0.12119189 0.08268011 -0.18863261 -0.19791321 0.18265834 -0.05445351 -0.10874163
-0.03449437 -0.16506988 0.13661273 -0.012325767 0.017351454 0.010307751 0.13407947 -0.006493713
-0.18926135 0.15143748 0.14122197 -0.14412805 0.13916163 -0.22490737 -0.091841385 0.08992158
0.10956281 0.08231013 0.13314644 -0.03334764 -0.21728075 0.03330831 0.15589286 0.124066204
-0.1407893 0.11975602 -0.15630338 -0.05947662 0.08899597 -0.15096863 -0.1462948 -0.091849536
0.13977955 0.14576814 -0.16369924 0.22094446 -0.14349034 -0.13194181 0.079046555 -0.024952317
-0.08095587 -0.11331223 0.008089003 -0.20175785 0.2128855 0.15213159 -0.041849125 0.2307183
-0.023362285 0.16080096 -0.08995884 -0.16251314 -0.09369976 0.18127337 0.17499721 0.0042239805
-0.061635345 0.038078688 0.09529843 0.095480576 -0.14768277 -0.18328021 -0.1955618 0.011254759

prob_conv1.bias f4 [32]
00000000: f95c d23c 97b4 56be 615c 11bc f880 10be
00000010: 914b b83d 030b efbb ff8d e3bd 7625 8d3d
00000020: f35f 893b ccc9 6dbd e630 19bd 98e9 82be
00000030: 0379 1f3e 6d96 d43c 40ce ecbd ce92 e93b
00000040: 73f8 3fbd dc9f 943d 0410 883d b0e5 a73d
00000050: 5279 67bd 0df6 b73d 2aa5 033e 5940 363e
00000060: 8174 20bd 101c 2e3e 8171 21bd ee70 43bd
00000070: bb0a b8bd bf7b 08be 720b 573d d775 213e
0.025679098 -0.20967327 -0.0088721225 -0.14111698 0.08998788 -0.007295014 -0.11111068 0.06891911
0.0041923462 -0.058053777 -0.03740015 -0.25568843 0.15573506 0.025950635 -0.115627766 0.007128096
-0.0468678 0.07257053 0.0664368 0.08198106 -0.056512184 0.08982477 0.12855974 0.17797984
-0.039173607 0.17002892 -0.039414886 -0.04771512 -0.08986422 -0.13328455 0.05250115 0.15767609

prob_conv2.weight f4 [32, 20, 1]
00000000: e562 88bd a36d ab3d 2168 d23b f38a d9bc
00000010: a42e 30bc 52b4 c5bd 029d 0abe a54f 06bd
00000020: 6cf6 313e 083d f33d cd89 52bd f3a4 4bbc
00000030: 4367 c2ba c42b 173e 0ac6 45bd bff9 4fbd
00000040: caa1 20be 2ec4 123e 5e05 e6bd 3b4d fc3d
00000050: d1eb ca3d 8fa6 9ebd f87e 263b 57e0 a5bd
00000060: 607e 053d 922c cbbd 1a70 bebc db68 1e3d
00000070: 421b 623c 5673 11bd 2bb0 88bd 9b28 01bd
00000080: 57d8 fd3d 02e0 bc3c cc74 9bbd a106 5fbd
00000090: 7753 fb3d 7470 6ebd b33c 573e b3a7 3cbe
000000a0: 69b8 8cbd cd6f adbd 2b38 033d eec9 523e
000000b0: 5b1b d43d 3910 35bd 14fa dabc 49c0 a03d
000000c0: e47d 16be c31c 393d 9fa8 0f3e 4020 6abd
000000d0: 942a b0bd e50e dfbd b749 d43d 42e7 283e
000000e0: 322b c0bc 7eb2 8ebd a302 9dbd 157e b7bc
000000f0: ab77 11bd e4d8 f73d d9f9 00bd 247a 95bd
00000100: 59d7 0dbe d62e 383d 3caa 523d b2c6 643d
00000110: facb 56bc f99b 04be 763c 7f3d 5171 a7bd
00000120: 8eb6 3a3d 4114 dd3d a69c ca3b 681b f3bc
00000130: cfb3 17bd c3bd 293d 8c7b 35bc dc22 6f3d
00000140: 5244 41be 68f7 113e 5daa 593d 1a70 563c
00000150: 5b30 3bbe 761a e53c c8c1 a03d 7ab9 463a
00000160: d82f ddbc f1c8 7a3d f522 c1bd 7bb8 bebb
00000170: 0037 303d 846c 10bd acb9 993d 5a9a c13d
00000180: d64b 663c bd5f 083d bb9b 193c 3bd0 a1bd
00000190: 44f8 0bbe 93e9 453e a58c ef3d 0658 d4bd
000001a0: dff4 19be 5416 333c 6aaf afbd 1f57 1a3e
000001b0: 90d0 11be f114 95bd f8ae a9bc de65 00be
000001c0: 3a88 c2bc a450 833e 272c 413d b24c 193e
000001d0: bbd4 d0bd 996b 5a3c 77df 943b fa6b 8c3c
000001e0: b3ab e63c e803 ddbc 6a39 f13c 04af 033c
000001f0: 4a0f afbc 9275 d1bd 6f60 f1bd 1108 ffbd
00000200: a60f 4a3d 1578 583e a4ec 773d fb24 be3d
00000210: ead9 eebc 26d4 ee3c 45a7 07bb 2ac2 d53b
00000220: 97b3 763d 3b76 c8bd f91e 8c3c e9b1 88bd
00000230: fb2c 943d 9a57 d4bd b2c7 debd a37b ecbc
00000240: 93c2 b4bd e4b0 dc3d ec36 17be 38e3 2c3e
00000250: 160e e93d 4069 fcbd 816c 093e 42b1 f33d
00000260: 132a 003d ce94 56bc 4780 ccbc 0987 a93d
00000270: 6c73 dfbd 968e 31bd 2f0a a3bd 8ffe 803d
00000280: f89a 89bc 5074 413d 69a0 9f3c c249 a13c
00000290: cf8a af3d 6d5d 013d 9b80 6cbd d94b f03d
000002a0: 226b 0cbd e2fd 8f3d b01b 09be ed48 513e
000002b0: 1b13 b3bd 49fd c8bd 28bd 0d3d 5b79 f6bb
000002c0: b911 cfbd 243f 55bd 754a a9bd d98b 4b3d
000002d0: 5f65 81bd e86e 09be b969 4cbd cbd7 633b
000002e0: 0ec5 a7bd 5056 d53d 3247 dc3d 4f67 a93c
000002f0: 8844 993d 3f75 973d 338a 243e e24d 91bd
00000300: 08ce 55bc f2b7 de3d acb7 813c 0b79 90bd
00000310: 4ba0 033d 5b2f aabb a559 96bd d2b9 d2bd
00000320: 25fa 66bd bfe8 413d dd76 62bd bf82 d1bd
00000330: a464 4ebe eefa 943d 8bfa 133d deb2 b8bc
00000340: f83c 8c3d 0512 023e e4be fe3d 9a1f 613c
00000350: d71a b93d 365e 853c 86e7 473d 1f5d 9ebc
00000360: 3b39 48bb 6a50 efbd 00ab 743c dda2 1cbd
00000370: d2e8 48bd 2994 e63d f8b2 e23d 2487 ebbd
00000380: 7f26 d1bc d414 03bd fafc f6bd 2f16 2e3d
00000390: 1ac8 53bd 11fc b73d a850 debd cdf3 ce3c
000003a0: a368 9d3d 797c 213e a8a6 553d 32dc 003e
000003b0: fa87 42be 5774 473d 7df0 a9bd 3d82 62bd
000003c0: 4058 d1bd bf3e 233e 671c 1e3d dd59 6fbd
000003d0: c7f5 dfbd 1921 953d 4a40 36bd 1b3f 52bd
000003e0: 645b 9ebd a891 453d ecc4 2fbe 3797 20bd
000003f0: 0fc1 893d ade0 203e 25b0 323d e4ee 06be
-0.06659488 0.08370521 0.0064211045 -0.026555514 -0.0107533075 -0.09653534 -0.13536456 -0.0327908
0.17379159 0.11876875 -0.05140095 -0.012429464 -0.00148318 0.14762789 -0.048284568 -0.050775286
-0.15686718 0.14332649 -0.112314925 0.12319418 0.0990826 -0.07746612 0.002540527 -0.0809943
0.032591224 -0.099206105 -0.023246814 0.038674217 0.013800444 -0.035510384 -0.066742264 -0.031532865
0.12394779 0.023056034 -0.075906366 -0.05444968 0.12271779 -0.058212712 0.21019249 -0.18423347
-0.06871111 -0.0846859 0.032035988 0.20584843 0.1035678 -0.044204924 -0.026730575 0.078491755
-0.14696461 0.045193445 0.14029168 -0.057159662 -0.08601871 -0.10891513 0.103656225 0.16494468
-0.023458097 -0.069676384 -0.076665185 -0.022398988 -0.035514515 0.121019155 -0.031488273 -0.07298687
-0.1385168 0.04496654 0.05143188 0.055853553 -0.013110155 -0.12950124 0.06231352 -0.0817591
0.045584254 0.10794879 0.0061832247 -0.029676154 -0.037036713 0.041440737 -0.011076819 0.058382854
-0.18873718 0.14254534 0.053140987 0.0130882505 -0.18280165 0.02796672 0.07849461 0.0007580739
-0.027000353 0.06122679 -0.09430496 -0.0058203316 0.043021202 -0.03525974 0.07506117 0.09453268
0.014056167 0.03329443 0.009375508 -0.07901045 -0.13668925 0.19327383 0.11696748 -0.10368352
-0.15034817 0.010930616 -0.085783795 0.15072297 -0.14239717 -0.07279385 -0.020713314 -0.12538859
-0.023746599 0.2564746 0.047161248 0.14970663 -0.10196825 0.013331317 0.0045432406 0.017141331
0.028158044 -0.026979402 0.029446322 0.008037332 -0.021369595 -0.10227503 -0.117859714 -0.124527104
0.04933133 0.21139558 0.060528412 0.09284397 -0.029156644 0.029153895 -0.0020699066 0.0065233903
0.060229864 -0.09788176 0.017104613 -0.06674559 0.07235142 -0.10368271 -0.108779326 -0.028867548
-0.088261746 0.10775927 -0.14767045 0.16883552 0.1137964 -0.12324762 0.13420297 0.118990436
0.031290125 -0.013097001 -0.024963511 0.08277709 -0.10910687 -0.04334887 -0.07960927 0.06298553
-0.016797528 0.047230065 0.01948567 0.01968849 0.085713975 0.03158324 -0.057739835 0.11733217
-0.034281857 0.07030846 -0.13389468 0.20437975 -0.087438785 -0.09813935 0.03460422 -0.007521791
-0.10110802 -0.05206217 -0.08266155 0.049693916 -0.06318163 -0.13421214 -0.049905512 0.0034766074
-0.08191882 0.104168534 0.10755767 0.020679144 0.074837744 0.0739541 0.16068344 -0.07094933
-0.01304961 0.108749285 0.015834652 -0.07054337 0.03213529 -0.0051936335 -0.07341317 -0.10289349
-0.0563909 0.047341105 -0.055289138 -0.10230016 -0.20155579 0.072744235 0.03612761 -0.022546228
0.06847566 0.12702186 0.12438753 0.013740445 0.090383224 0.016280275 0.048804782 -0.019331513
-0.003055169 -0.1168526 0.014933348 -0.038241256 -0.04905016 0.11258728 0.11069292 -0.115003854
-0.025531052 -0.032002285 -0.1205997 0.042501625 -0.051704504 0.08983625 -0.10855228 0.025262738
0.076859735 0.15770139 0.05216089 0.12583998 -0.18997183 0.048694935 -0.082978226 -0.055299986
-0.102219105 0.15941904 0.038601305 -0.05843531 -0.1093555 0.072817035 -0.044494905 -0.051329713
-0.07732275 0.04823461 -0.17164963 -0.03920671 0.06726276 0.15710707 0.043625016 -0.13177067

prob_conv2.bias f4 [32]
00000000: b3e9 833d 9464 77be 7eea fa3d 6c1d 8b3e
00000010: 3835 ab3b af01 3c3e 43a9 afba 3a14 97bd
00000020: 6f88 c5bd 8700 b3bc bafe 763e c3e8 52be
00000030: ad8c a63d 62f8 3e3e 54b5 e73c 3a02 f03d
00000040: f894 4bbd a0bc 5a3e 2edd afbd 3a1a 7a3e
00000050: 717b 433e 2e38 a6bd a377 6dbe 9101 123e
00000060: 842e 5cbe cc30 17be 87f9 debd 3ff7 29bd
00000070: 0a55 31be 2ff9 cbbd ff10 41bd 7dab 00be
0.06441059 -0.24159461 0.12251757 0.27170885 0.00522485 0.18360017 -0.0013401884 -0.07376905
-0.09645163 -0.021850837 0.24120608 -0.20596604 0.081323005 0.18649438 0.028284706 0.11719175
-0.049702615 0.21361017 -0.085871086 0.24424067 0.19090058 -0.08116184 -0.23190169 0.1425841
-0.2150212 -0.14764708 -0.10887437 -0.041495558 -0.17317596 -0.099596374 -0.04713535 -0.12565418

fc1.weight f4 [27, 1543]
00000000: 6163 783d 3228 c1bb 045a 093c aa7a 563d
00000010: 901f 953d 1454 393d 5f7e 263c 268d a73c
00000020: cf06 5d3d 9061 483d fb2e adbc fea5 b83d
00000030: dc6b fe3a 6095 073c 63df 023d a911 98bb
00000040: e31e 4fbc 840c 61bc c149 30bd 028c 103d
00000050: bf3d caba 7a5d b7bb 179a 033d 9e4d 23bd
00000060: 1089 5ebb 2608 3e3d 512b eabc 30c2 c93c
00000070: b7e9 72bc 27a5 273b eb98 b93c 7587 2cbc
00000080: f48c bebc e3a4 1bbd c773 9cbb da92 093d
00000090: 361d 073e d128 723b a9e7 843d 8b38 ab3d
000000a0: 345d 4f3d e751 a33d 3ddf 633d f1ca 103e
000000b0: ed0d 043e 45fb a73d 133c 353d ed59 c83c
000000c0: d408 98bc 7eae 083d f4fc 2c3d 1cf6 b83b
000000d0: 2ab6 063c 4e88 0b3d 3c74 c9bc 2ef4 9e3c
000000e0: 6bb1 c93c 5284 9ebc 56a0 d63c 0de0 5b3c
000000f0: b4ed 92bc 5579 1abd 566c 963c c622 cebc
00000100: 706e 4abd 6ec1 9dbb e4e6 46bd 01ba 64bd
00000110: d1e7 42bd 1efb b7ba 4515 63bc d9fb 1cbd
00000120: 4cd7 d33c bf32 173c 03f8 703c ecf5 6c3d
00000130: af4c dd3c de13 a63c 00a7 993c 027a 1dbc
00000140: fc47 c6bc 3afc 903c 787a f3bc 45cb abbc
00000150: dd34 14bd 59e7 52bd b47b 12bc c4be cebc
00000160: d32c 82bc bd80 c4bc 4e00 33bd 8ae1 bb3c
00000170: 1ccc 313c a1a9 01ba ffa9 4c3b 3ecb 4bbd
00000180: e7ae cd3c 6391 a6bb b4d2 ecba e2b3 243c
00000190: 09aa 8bbd 6667 6abd 46d9 bebb 35a7 f6ba
000001a0: b0ec a83c 0a99 2d3d 03a9 f93a 6f2a e1bc
000001b0: 4659 a9bd 9220 81bd 1bab e6bc e1cb 9bbc
000001c0: d49c 073d 89aa febc 1732 fabc bd98 83bc
000001d0: 200a acbc 3d4b fbbc 59a1 75bd 45d7 2bbd
000001e0: b8d8 f9bb 0e7d 933c 2cf5 773b 83c3 eebc
000001f0: d77e d2bc 2db8 1bbd 5908 553a 5290 1cbc
00000200: 72b4 7dbc 7ba9 963c c62a 39bd a238 89bd
00000210: f64b 0a3d 80ec b83d 7900 4f3d c7c7 82bd
00000220: aab6 02bd 5f02 8abd 9045 09bd 25f6 5ebc
00000230: 329e 133d a121 b43d 0381 85bc 023a 4ebc
00000240: 33bd 48bd ead7 efbd 7cd6 03bd 1a9a d1bc
00000250: 65ca 59bd 5720 0f3c 54e2 9bbb 6ba1 a73c
00000260: 57a1 eebb 307c 9fbc dd0b 4dbb 47d5 6bbd
00000270: 6640 233c ea2c e0bc 35da cf3c 53b5 f43b
00000280: 0704 e7bc 5c11 85bd 9197 dbbc a66e 2abd
00000290: eb17 bb3c f057 36bc de20 423d 0f29 763d
000002a0: 271f adbd 5f99 eebc c469 a6bc e240 dbbc
000002b0: c491 3ebd 41af 96bd 77c0 b6bd fb4d a8bd
000002c0: 3d82 953b 7df3 8abb 997f 97bc 625a a63c
000002d0: faf5 29bd 7d5d 41bc 8ebd 86bc eb12 1dbd
000002e0: a50c 1cbd 863a 9f3b 94dc 4aba 8802 133a
000002f0: 5304 e63a a8df eabc a572 81bd f7dd d2bd
00000300: e683 ab3d e299 943c ee09 453c f92e b53b
00000310: 976f 3bbc 300c 733d 8607 8e3d 64b8 e13d
00000320: 0b51 133d 2c57 b13d 00c7 013d 0ed1 1cbc
00000330: 0f8e 473c 52e0 81bc 3909 f1bc 2fb2 79bb
00000340: 95c1 bf3c dbdc 34bd aaee 88bc 2a01 4c3d
00000350: d2fa 2f3b 2d39 b1bc 93f2 5fbc 3f7c 68bd
00000360: bbc5 0abd cfff 9f3c 0cca f53a d9b0 f13c
00000370: 3729 643c 0adb 743c 2dac 2f3d fc5d 5f3c
00000380: 8ff8 37bd 0e31 d63b 5186 e4bc a9a8 a53b
00000390: 2125 603d e421 2cba 4ee2 59bd 352b 253c
000003a0: 1723 0ebc a6b4 003d c8c0 4c3d e122 8a3d
000003b0: 5967 9d3d 30b2 973d 6a4c 27ba 3c96 5dbd
000003c0: 64e0 8bbb 5aca 8abc b137 12bd 744d 6abc
000003d0: 3369 19bd e91c 48bd 1686 4abb 4778 f23a
000003e0: cbca 163d 97a1 003c aa15 bd3c fda2 75bd
000003f0: 6fe0 89bc da14 fc3c 4ae0 883d 7ffc 06bd
0.06064165 -0.005894684 0.008383278 0.052363075 0.07281411 0.0452462 0.010161965 0.020453047
0.05396157 0.048921168 -0.021140566 0.090160355 0.0019410807 0.00827536 0.03195132 -0.004640777
-0.012641641 -0.013735894 -0.043039087 0.03528977 -0.0015429779 -0.00559586 0.032129373 -0.039868943
-0.0033956207 0.04639449 -0.028585108 0.024628729 -0.01482623 0.0025580616 0.022655925 -0.010530342
-0.023260571 -0.037999045 -0.004774544 0.033587314 0.13194737 0.0036950598 0.06489498 0.08360394
0.050625995 0.07974606 0.05563282 0.14139916 0.12895937 0.08202223 0.044246744 0.024456942
-0.018558897 0.033369534 0.042233422 0.005644573 0.008222142 0.034065537 -0.024591558 0.019403543
0.024620732 -0.019350205 0.026199501 0.013420117 -0.017935611 -0.037713367 0.018362205 -0.025163066
-0.049421728 -0.0048143184 -0.04856004 -0.05584145 -0.04758436 -0.0014036631 -0.0138600515 -0.03832612
0.025859497 0.009228407 0.014707568 0.057851717 0.027014105 0.020273145 0.01875639 -0.009611608
-0.024204247 0.017698396 -0.029721484 -0.02097095 -0.036183227 -0.05149016 -0.008940626 -0.025237449
-0.015890514 -0.023987168 -0.043701462 0.022934694 0.010851886 -0.0004946236 0.0031229255 -0.049754374
0.025107814 -0.0050832494 -0.0018068166 0.010052653 -0.06819541 -0.057227515 -0.005824241 -0.0018818142
0.020620674 0.042382278 0.0019047562 -0.027486054 -0.08268981 -0.063050404 -0.028157761 -0.019018115
0.033108547 -0.031087177 -0.030541463 -0.016064042 -0.021000922 -0.030675525 -0.059968326 -0.041953344
-0.007624712 0.018003967 0.0037835343 -0.029145962 -0.025695248 -0.03801744 0.0008126549 -0.009555893
-0.015484916 0.018391361 -0.045206808 -0.06700255 0.03376385 0.09029484 0.05053756 -0.06385761
-0.031912483 -0.067387335 -0.033513606 -0.01360849 0.03603954 0.08795477 -0.01629687 -0.012587072
-0.04900856 -0.11711104 -0.03218697 -0.025586177 -0.053171534 0.008735738 -0.004757205 0.020462712
-0.007282417 -0.019468397 -0.0031287589 -0.057576444 0.009964084 -0.027365167 0.025372604 0.0074679046
-0.028200163 -0.06497452 -0.026805671 -0.04160943 0.022838553 -0.011129364 0.047394626 0.06009775
-0.084532075 -0.029125867 -0.020314105 -0.026764337 -0.04652573 -0.07357646 -0.089234285 -0.082179986
0.0045626448 -0.004240452 -0.01849346 0.02030677 -0.041494347 -0.0118020745 -0.016447809 -0.03834812
-0.038097996 0.0048592715 -0.0007738557 0.0005607982 0.0017548896 -0.0286711 -0.06320695 -0.10296243
0.08374767 0.018139783 0.012026293 0.005529281 -0.011440179 0.059337795 0.06935029 0.11021498
0.03596596 0.08659205 0.03168392 -0.009571327 0.0121798655 -0.015854035 -0.029423343 -0.003810059
0.023407737 -0.044155937 -0.016715366 0.049805798 0.0026852381 -0.021633709 -0.013668674 -0.056759115
-0.033879977 0.019531159 0.0018752231 0.029503273 0.013925842 0.014944801 0.04288881 0.013633247
-0.04491478 0.0065366095 -0.027896078 0.0050555062 0.05472291 -0.00065663294 -0.053194337 0.010081102
-0.008675358 0.03142228 0.049988538 0.06744934 0.076857276 0.074070334 -0.0006381931 -0.054098353
-0.004268693 -0.016942192 -0.035697643 -0.014300693 -0.03745384 -0.048855696 -0.0030902675 0.001849898
0.036814492 0.007851026 0.02308162 -0.05996989 -0.016830651 0.030771662 0.06683405 -0.032955643

fc1.bias f4 [27]
00000000: fa71 67bc 3aed 48bb 8f5b 87bc 2884 65bc
00000010: 769c 183c 4d7e 0bbc 94f2 78bc 35fc f5ba
00000020: da8f 86bc 0cd3 c6bc 206d b9bc 8ae5 f8bc
00000030: c4dc 9fbc 13e5 ab3b 8555 d1bc 2a6d 783b
00000040: e119 b3bc 02fd 9cbc 5c55 17bd 55c7 4f3c
00000050: 7069 f1bc 591c ffbc ddb2 0cbc 7a23 6e3c
00000060: 31a0 5ebc 25fc d73c d5b5 25bd
-0.014126295 -0.0030658976 -0.01652315 -0.014008559 0.009314647 -0.008513999 -0.015194554 -0.001876718
-0.016426016 -0.024270557 -0.022635043 -0.03038289 -0.019514449 0.0052458136 -0.025553474 0.0037906864
-0.021862926 -0.019163612 -0.03694664 0.012681802 -0.029469222 -0.031141447 -0.008587566 0.014534825
-0.013587997 0.02636535 -0.04045661

fc2.weight f4 [15, 27]
00000000: d1d1 56bf 21b1 ba3d 96e6 bebd 5786 47be
00000010: 3bcc 74be efdc 933d 3abd 5b3d a373 743e
00000020: 680d 003e 4ae2 8bbe 5732 1abe b784 c13d
00000030: 60e5 1dbd d252 b0bc 15d6 83be df3c 68bd
00000040: e658 4abd 95b5 fd3d 0ef8 55be 4344 08be
00000050: fdf3 1f3c 0531 68bd 3955 04be 77c0 1dbd
00000060: a4c2 31bf f83c fdbc c23b c3bd 700b a2be
00000070: c7ad 1a3e 56a7 11be 5b61 96be 4b66 10bd
00000080: 9b9f 763d 9f80 613e d49d 893e 8514 083e
00000090: f874 92bd 8dce 27be 5a2d d5bd 648c 0a3e
000000a0: 28d6 48be 1f92 3cbd 631d 3b3e da8b c9bd
000000b0: b819 65bc 5a38 2a3e b617 5fbd d323 98bd
000000c0: 3ff0 fd3c 2c85 2abd 26ab 5fbe d243 5abe
000000d0: ee9b bbbd 605b 763d 052d 3a3f 4605 883d
000000e0: d441 f7bc 872f 88bd a836 ecbc 56c4 4b3e
000000f0: a969 cabd ac5a d23d 2176 14bd e884 a73e
00000100: fcae 113c 1da8 dc3c f823 df3d d0ca 11be
00000110: a71d 0b3f 2b48 acbd f5b1 c03d 90df f2bd
00000120: 6460 22bd 2aac 233e 1a04 b53d e210 d03d
00000130: 864d c2bd c3f5 593c d36a e03e f7f7 643e
00000140: e868 ca3d 377c a33e b04d 7dbc ca71 983d
00000150: 451d d3bd 3c04 8ebe 39c2 90bd d3eb 92be
00000160: 0052 93be b1dc 22bd 16f4 a53e 3d37 06be
00000170: 10e4 983d 8c00 cebb aba0 14bd b0e8 753e
00000180: d43d f23d 1143 fa3d 2989 40be 55fa 05bd
00000190: b5ed 093e c515 2e3e 6f98 9d3c 8c63 8ebd
000001a0: 7cbe 033d 7207 0a3d 3f07 a93d 8b61 513e
000001b0: 05c5 abbe eec2 d83d 2a00 80bd adc0 0d3e
000001c0: 4152 873e d3e2 f6bb 844a 763c 6e88 21bf
000001d0: f5d1 123e b60f b5bd 505b 1f3e 6896 a03b
000001e0: c310 77bc 36d8 143e 1247 97be 5f83 233e
000001f0: 6ffa 9abd d315 d13c cc27 c5bd 1200 c33d
00000200: 7329 92bd be66 9c3d 0dcb 33be bef7 143e
00000210: 3366 afbe 2549 b1bd 852c a0be 19e3 583d
00000220: 1d73 da3d 897a e8ba f27d 883d 8149 69be
00000230: 9e3d 2ebc 5845 87be f465 5bbd 716c 18be
00000240: d6a6 87be f69f 1dbe 9b12 38be 1d3f 13be
00000250: 4eb0 1cbe 51f1 e5be 5cdc db3d 2575 49be
00000260: c35b 213e dc51 38be aa88 d3bd 23d7 15be
00000270: bc95 fb3d 3580 1a3e 7604 19be 93cf 1a3d
00000280: a59e b5bd 583a 43bd 0274 91bf a026 973c
00000290: 8132 a2bd b581 d9be f7a2 213f 6705 e3bd
000002a0: 72e7 0d3f b072 dcbd b4ba f3bd 6e51 efbd
000002b0: e9ec 2c3e 3bfd 073d c773 1bbe 360c 923d
000002c0: eb4c 06bf 4282 31be 3440 8c3d dd64 adbd
000002d0: 814c 5bbe e0a5 c1bd c54e 2abe 2b22 f0bd
000002e0: 3e5c 91bc 6d36 4d3d 3a0f 21bf 57d9 a73c
000002f0: dd11 07be 127a 0d3f 034f 22be d9ec 07bd
00000300: 8138 cc3e 1e4e cebc 3b39 403e edd1 de3d
00000310: 6540 babe a7c2 acbd 0b1d 033f d3df 2b3e
00000320: efdc cb3d 4b71 1bbe db34 10bb e2e4 25bd
00000330: c799 e83d f6eb edbc 46d3 89bd df21 f0bc
00000340: 9d49 ffbd 9f54 d6bd c7c2 84bd 63f1 0a3d
00000350: 4814 c63e 9138 483e c86a 6b3e 4540 0abe
00000360: ec96 1cbf a14d 92bd a75e 77bd 4ba6 e2bd
00000370: 7035 e3be eb96 2abe 3d51 fd3e 8d35 a13d
00000380: 43ab 0abe 986e 43be c02f 433e c941 143e
00000390: 5549 203e bd92 d2bd 413e 00bf a95e a4bd
000003a0: 3628 583d c8bd 063e 3ac1 30be ccb3 1d3e
000003b0: 7c2f 0e3c 3ac1 343d 3705 2bbd 1efe 48ba
000003c0: dfc0 b5be 5da1 02bc daf4 b1bd da8d 543e
000003d0: 4f8d 0dbe 4a5b aabd 63ff 4ebd 015d 313e
000003e0: 68af a53d 8c5e 12bd 3097 ba3e f5a6 92bc
000003f0: c426 393d c09d f63d 3ac5 0ebe 5542 2ebe
-0.83913904 0.09115816 -0.093213245 -0.1948484 -0.23906033 0.07219874 0.053647257 0.23872237
0.12505114 -0.27321082 -0.15058266 0.094491415 -0.038548827 -0.021523867 -0.2574927 -0.056698676
-0.049401186 0.1238815 -0.20895407 -0.1330729 0.009762761 -0.056687374 -0.12923135 -0.038513627
-0.69437623 -0.030912861 -0.09532882 -0.3164935 0.15105353 -0.1422399 -0.2937115 -0.035253804
0.060210805 0.22021721 0.26878226 0.13289078 -0.07151216 -0.16387387 -0.10409041 0.13530117
-0.19612944 -0.04603779 0.18272929 -0.09841128 -0.013983183 0.16623059 -0.054465972 -0.07428708
0.030998347 -0.04163091 -0.21842632 -0.21314934 -0.091606006 0.060145736 0.72724944 0.06641631
-0.030182756 -0.0664969 -0.028834656 0.19899115 -0.09883434 0.102712005 -0.03624547 0.32718587
0.008891817 0.026935631 0.10895532 -0.14237523 0.5434212 -0.084122024 0.094089426 -0.118590474
-0.039642707 0.15983644 0.08838673 0.1015947 -0.09487443 0.013303223 0.438315 0.22360216
0.098832905 0.31930706 -0.015460417 0.074435785 -0.10308317 -0.27737606 -0.07068295 -0.28695545
-0.287735 -0.03976125 0.32412785 -0.13107009 0.074653745 -0.0062866863 -0.036286037 0.24014544
0.11828199 0.12219823 -0.18802322 -0.03270944 0.13469584 0.17000492 0.019237725 -0.06952581
0.032164082 0.033698507 0.08253335 0.20447366 -0.3354875 0.10584055 -0.06250031 0.13843031
0.26429942 -0.007534364 0.015032414 -0.630988 0.14337905 -0.08840887 0.15562177 0.0049007423
-0.01507968 0.14535603 -0.2954641 0.15968083 -0.07567298 0.025523102 -0.09626731 0.09521498
-0.07136812 0.07636784 -0.17557926 0.14547631 -0.3425766 -0.08656529 -0.31283966 0.052950952
0.10666487 -0.0017736714 0.06664647 -0.22781946 -0.010634808 -0.26420093 -0.053564027 -0.14885117
-0.26494473 -0.15393052 -0.17975847 -0.14379545 -0.1530163 -0.44910672 0.107353896 -0.19673593
0.1575766 -0.17999977 -0.10328801 -0.1463285 0.12284419 0.1508797 -0.14943108 0.037795614
-0.0886815 -0.047663063 -1.1363528 0.018451035 -0.07919789 -0.4248177 0.6313929 -0.11085015
0.5543128 -0.107640624 -0.11900845 -0.11685453 0.16887249 0.033200484 -0.15180884 0.07131235
-0.5246112 -0.17334846 0.06848183 -0.08466504 -0.21415903 -0.09455466 -0.1663161 -0.11725267
-0.01774418 0.050100733 -0.6291386 0.020489378 -0.13190408 0.5526439 -0.15850453 -0.03318486
0.3988686 -0.025183734 0.18771832 0.10879884 -0.36377254 -0.084355645 0.5121619 0.16784601
0.09954249 -0.15179937 -0.002200416 -0.040501483 0.11357456 -0.029043179 -0.0672975 -0.029313026
-0.124652125 -0.10465359 -0.06482463 0.03392161 0.38687348 0.19552828 0.22989953 -0.1350108
-0.6116779 -0.07143713 -0.060393002 -0.11066874 -0.44376707 -0.16659133 0.49476042 0.07871542
-0.13541894 -0.19085157 0.19061184 0.1447822 0.15652974 -0.10281894 -0.5009499 -0.080258675
0.052772723 0.13158333 -0.1726121 0.15400618 0.008678313 0.044129588 -0.04175302 -0.0007667261
-0.3549871 -0.007973042 -0.0868928 0.20757237 -0.13823436 -0.08318193 -0.050536525 0.17320634
0.08090097 -0.0357347 0.36443472 -0.017901877 0.045202985 0.12041807 -0.13942423 -0.17017491

fc2.bias f4 [15]
00000000: dca7 cc3e e908 96be bd4a 143e 0c5e a83e
00000010: 3d9f ae3d 4919 4b3f 4888 573d 3093 e23e
00000020: 7714 2e3e 207c c9be 462d b03e 0443 2f3f
00000030: 32b2 20be 138c 1e3c 2099 813f
0.39971817 -0.29303673 0.14481635 0.32884252 0.08526466 0.7933546 0.052620202 0.4425292
0.16999994 -0.39352512 0.3440954 0.6846163 -0.15692976 0.009676951 1.0124855

task_specific_layers.activity_greater_than_neg_control.weight f4 [1, 15]
00000000: a765 84bf 5f58 a6be ad99 0ebe 11bc aabe
00000010: eb64 9b3d 487f 4bbf c53a a739 18de 0a3f
00000020: ab8d 5cbe 2c5f 21bf f624 76bf a330 a83e
00000030: 0b5a bfbe 87c0 64bd f14d 89bf
-1.0343522 -0.32489297 -0.1392581 -0.33346608 0.07587608 -0.7949109 0.0003189651 0.5424514
-0.21538417 -0.63035846 -0.9615015 0.32849607 -0.37373385 -0.05584767 -1.0726911

task_specific_layers.activity_greater_than_wt.weight f4 [1, 15]
00000000: 5677 39bf 478d 7bbe 64fe 9e3e d766 05be
00000010: ec0f d9be cc56 14be b36e 1abe f38b 903e
00000020: c46c 92be ffa4 af3d 8a43 473f 7a04 883f
00000030: 2033 ee3e 53c9 08be 49f5 78bf
-0.7244772 -0.24565612 0.3105346 -0.13027512 -0.4239496 -0.14486235 -0.15081291 0.28231773
-0.28598607 0.085763924 0.7783743 1.0626366 0.4652338 -0.13358049 -0.97249275

task_specific_layers.activity_greater_than_a73r.weight f4 [1, 15]
00000000: 76d5 f6be ce31 67bd e965 8c3e d39d 043f
00000010: 3b89 62be ea00 51be cd0a 6ebf da65 503e
00000020: ef2f 52bf e6dc fabd 37cb 1c3f 5c3d 9f3e
00000030: 1092 94be d759 23bf 4236 71bd
-0.48209733 -0.05644398 0.274215 0.5180332 -0.22122662 -0.20410505 -0.9298523 0.20351353
-0.8210439 -0.12249164 0.6124758 0.311015 -0.29017687 -0.6380896 -0.058889635
