trained_models/Seq2Fitness_AAmylsase_DEMLPaper__modelrank_1_epoch_45_val_loss_0.5990.pt (torch, 546223 bytes, 14 tensors)

conv1.weight f4 [32, 1280, 1]
-0.009069221 -0.074904464 0.075177774 0.021984454 -0.08551195 -0.07106679 -0.06822691 0.0109327445
0.013910518 -0.026697578 -0.079143435 -0.03142448 -0.132979 0.19058527 0.032253012 0.111676164
-0.058354963 0.037320722 0.07032313 -0.079544544 -0.032631896 -0.055565204 0.096851125 -0.013820323
0.03243571 -0.11855431 0.0711438 0.09216548 -0.04898289 -0.066309035 0.038426213 -0.030917468
-0.10135456 -0.016982997 0.02707251 -0.014957096 0.027511202 -0.09719488 -0.03254896 -0.027219804
0.068130285 -0.085310444 0.028657136 -0.048182208 -0.037142865 -0.043715417 -0.13562995 -0.18878782
-0.009896255 0.0018413151 0.006444528 0.020116588 -0.104872696 -0.0039740214 -0.09112411 -0.106325656
0.043323353 0.006295176 0.07880827 -0.06283838 0.037803564 -0.017088808 -0.12279541 0.053457882
0.031994376 -0.030179264 0.0073305806 0.07713397 0.046849344 0.0067659416 -0.016374014 -0.061041333
0.04557305 -0.069938496 -0.09518209 0.04072765 0.11887339 0.004996604 0.078391396 -0.08212247
-0.033577375 -0.018617008 0.06610609 -0.0041748486 -0.0070898263 0.00832978 0.036692984 0.054797243
-0.025934113 -0.110843815 0.0897757 0.15090625 0.05001954 -0.1276239 -0.021487754 -0.032392405
0.017533714 -0.0053454973 -0.028879646 -0.06494415 0.08979572 -0.028728226 -0.034871846 -0.13530743
-0.057320837 -0.058285914 -0.08668 -0.048163183 -0.024925364 -0.080080315 -0.06971178 0.08663622
0.06924364 -0.0799335 0.096107595 -0.14454585 -0.03875434 -0.032361362 -0.0535919 0.0069865007
-0.014821047 -0.00986531 0.12785503 -0.019655209 0.09039989 -0.008233419 0.044233438 -0.033870824
-0.032224454 0.10260164 0.002311461 -0.023562547 -0.02680632 0.00988476 -0.06696274 -0.07897693
-0.06862345 0.12077201 0.00095175975 -0.11217125 -0.040304426 -0.0048531513 0.07151149 0.07201302
0.023127796 0.038630262 -0.07281559 0.1542154 -0.02729504 0.04010306 -0.06185005 -0.015301527
0.07684777 0.06993306 -0.087536186 0.04742203 -0.05950364 0.09407312 0.018460657 -0.12241269
-0.15599567 0.05782954 -0.002809872 -0.19530672 -0.14140385 0.012563713 0.024358543 0.0092569105
-0.029949535 -0.08012262 0.03315878 -0.06664965 0.12790334 -0.059661403 -0.05949799 0.04207791
0.047332607 -0.061345685 -0.12048082 -0.0011070563 -0.0025473263 0.051796388 0.021132339 0.016770812
-0.042636473 0.08278211 -0.010832628 0.09411868 -0.0013673445 0.040392455 -0.047143202 0.027905153
0.019031862 -0.07483476 -0.08905609 0.0544663 -0.009334888 0.085240684 0.15027669 0.12983876
0.107901126 0.055550948 -0.07534433 -0.06541571 -0.001277973 0.08579119 -0.0008242838 0.010197
-0.010299866 -0.06958555 -0.13619621 0.008722835 0.12883186 0.015746722 -0.21101667 0.024369832
0.039572928 0.07850566 0.10380703 -0.09683684 0.047460917 -0.024928063 -0.13492936 -0.01806405
0.034319285 0.060088105 -0.005399837 0.013041033 -0.13295078 -0.08738577 0.015433079 -0.012209291
0.05263045 -0.069127485 -0.08907209 -0.02422253 0.04856019 0.03317955 0.024713116 -0.019763652
0.07399033 -0.047185227 0.05219673 0.042059276 -0.008940342 -7.476459e-07 0.02383254 -0.012361039
0.050098177 -0.041342374 0.011749422 -0.1727021 -0.03498504 0.030618971 -0.02387714 -0.0019473125
00000000: 1297 14bc 8367 99bd cef6 993d be18 b43c
00000010: e420 afbd 778b 91bd 8dba 8bbd 411f 333c
00000020: f1e8 633c e1b4 dabc f415 a2bd f5b6 00bd
00000030: a62b 08be c928 433e bc1b 043d 79b6 e43d
00000040: 9d05 6fbd 9ddd 183d 9305 903d 40e8 a2bd
00000050: 06a9 05bd 5798 63bd e259 c63d a36e 62bc
00000060: 4fdb 043d 9acc f2bd d7b3 913d 41c1 bc3d
00000070: 48a2 48bd 08cd 87bd ce64 1d3d a146 fdbc
00000080: fb92 cfbd ed1f 8bbc 2bc7 dd3c 9c0e 75bc
00000090: 2c5f e13c 1c0e c7bd 0f52 05bd 11fc debc
000000a0: e487 8b3d 3eb7 aebd 5fc2 ea3c b55a 45bd
000000b0: 1e23 18bd f00e 33bd 94e2 0abe 9851 41be
000000c0: e723 22bc 4858 f13a 9e2c d33b 8bcb a43c
000000d0: 7fc7 d6bd 8238 82bb 479f babd 44c1 d9bd
000000e0: d473 313d c447 ce3b 3b66 a13d 69b1 80bd
000000f0: e9d7 1a3d d4fd 8bbc 297c fbbd a7f6 5a3d
00000100: 890c 033d 813a f7bc 5e35 f03b 6af8 9d3d
00000110: 19e5 3f3d d5b4 dd3b cc22 86bc 7a06 7abd
00000120: ceaa 3a3d ea3b 8fbd d4ee c2bd 09d2 263d
00000130: e473 f33d 8dba a33b ab8b a03d d32f a8bd
00000140: 6e88 09bd b282 98bc a162 873d 2bcd 88bb
00000150: c651 e8bb a179 083c 624b 163d 1373 603d
00000160: c773 d4bc 1502 e3bd 52dc b73d 2b87 1a3e
00000170: 4ae1 4c3d d7af 02be 1607 b0bc e6ad 04bd
00000180: dda2 8f3c 4829 afbb 0295 ecbc 7001 85bd
00000190: d2e6 b73d 7557 ebbc c8d5 0ebd 088e 0abe
000001a0: 41c9 6abd 36bd 6ebd 4985 b1bd c246 45bd
000001b0: 4730 ccbc 2601 a4bd 0dc5 8ebd 556e b13d
000001c0: 9ccf 8d3d 2db4 a3bd 0fd4 c43d d403 14be
000001d0: dfbc 1ebd 598d 04bd 2e83 5bbd 04ef e43b
000001e0: fad3 72bc 1ca2 21bc 6eec 023e f603 a1bc
000001f0: 9423 b93d 76e5 06bc 1f2e 353d 22bc 0abd
00000200: cafd 03bd cf20 d23d e17b 173b 3e06 c1bc
00000210: ed98 dbbc b0f3 213c c323 89bd a8be a1bd
00000220: 748a 8cbd 5157 f73d 847f 793a 0aba e5bd
00000230: 4116 25bd 2f07 9fbb 9e74 923d 907b 933d
00000240: 8176 bd3c c43a 1e3d 5720 95bd a4ea 1d3e
00000250: d999 dfbc 1b43 243d 7a56 7dbd 42b3 7abc
00000260: 5d62 9d3d 1039 8f3d 2c46 b3bd 9a3d 423d
00000270: 17ba 73bd 68a9 c03d ce3a 973c 81b3 fabd
00000280: 54bd 1fbe abde 6c3d d425 38bb 7cfe 47be
00000290: 2ccc 10be 08d8 4d3c 918b c73c 4caa 173c
000002a0: ba58 f5bc 5417 a4bd 80d1 073d 9d7f 88bd
000002b0: 18f9 023e 845f 74bd 2ab4 73bd e359 2c3d
000002c0: d6df 413d 9d45 7bbd a6be f6bd a51a 91ba
000002d0: 0bf1 26bb 7328 543d ba1d ad3c f162 893c
000002e0: 95a3 2ebd ab89 a93d 567b 31bc 4bc1 c03d
000002f0: 7838 b3ba 8f72 253d 3b19 41bd 5999 e43c
00000300: b5e8 9b3c f742 99bd 0a63 b6bd 0e18 5f3d
00000310: 5cf1 18bc ab92 ae3d 22e2 193e 74f4 043e
00000320: 44fb dc3d 6489 633d 214e 9abd acf8 85bd
00000330: a881 a7ba 4bb3 af3d c014 58ba 5111 273c
00000340: c5c0 28bc de82 8ebd 0577 0bbe 39ea 0e3c
00000350: 80ec 033e 45ff 803c c114 58be 3ea3 c73c
00000360: 3917 223d 93c7 a03d c898 d43d 6552 c6bd
00000370: 6166 423d f035 ccbc ec2a 0abe 0ffb 93bc
00000380: 6192 0c3d f21e 763d 1ef1 b0bb 0faa 553c
00000390: 4024 08be 50f7 b2bd 06db 7c3c 7a09 48bc
000003a0: 0793 573d b692 8dbd 6e6b b6bd 546e c6bc
000003b0: 0de7 463d 48e7 073d 2973 ca3c 62e7 a1bc
000003c0: 3e88 973d 4c45 41bd 3dcc 553d 5946 2c3d
000003d0: 837a 12bc d6b1 48b5 753c c33c f585 4abc
000003e0: bf33 4d3d 9f56 29bd a680 403c d2d8 30be
000003f0: 794c 0fbd a3d4 fa3c fe99 c3bc f73c ffba

conv1.bias f4 [32]
0.0005209851 -0.009366435 -0.012744619 -0.0057901996 -0.013035179 -0.008212869 0.029444791 0.0019371656
-0.00567026 0.01322641 -0.006736814 0.0024572618 0.015755199 -0.004569169 -0.010019753 0.008616688
-0.012550019 -0.0204447 0.021405803 -0.017035238 -0.0040641506 0.01477778 0.00861256 -0.0031607028
0.00025304098 -0.00031481733 -0.0065724975 0.011959071 0.023316117 -0.010042102 0.001888117 0.0019112447
00000000: b892 083a ad75 19bc cece 50bc b7bb bdbb
00000010: 8191 55bc 458f 06bc 3436 f13c 7ee8 fd3a
00000020: 97cd b9bb 96b3 583c 7ec0 dcbb 030a 213b
00000030: 0c11 813c f8b8 95bb e429 24bc 022d 0d3c
00000040: 989e 4dbc a57b a7bc 395b af3c 7c8d 8bbc
00000050: 912c 85bb 801e 723c b21b 0d3c cb23 4fbb
00000060: 96aa 8439 110e a5b9 1b5e d7bb fbef 433c
00000070: 7101 bf3c a187 24bc b27a f73a bb82 fa3a

conv2.weight f4 [32, 1280, 1]
-0.8403986 -0.15055557 -0.43844345 -0.74977547 0.59098876 0.19737305 -0.5340748 0.44338164
-0.41651338 0.6370754 0.39162967 -0.30913198 -0.5826828 0.40988275 0.06599538 0.6684084
0.4277474 -0.26789176 0.20202874 0.2637816 -1.0730804 -0.32401404 -0.2777132 -0.110993095
-0.4060936 -0.10904346 -0.3519406 0.028988972 0.33462733 0.6350952 0.382183 0.17221798
-0.36107746 0.36109307 -0.42627272 0.75965255 0.3404815 -0.4274585 -0.7247968 0.03150206
-0.2668331 0.03823652 -0.006620279 0.3636578 0.28392002 0.37898716 0.4072225 0.04816732
0.035525065 -0.12890008 -0.5721191 -0.16001296 -0.307865 0.1152999 -0.2001913 0.121451296
0.35911405 0.15482034 -0.348727 0.028361006 0.5375446 0.31848297 1.0285808 -0.021994373
0.55435836 -0.8925236 -0.30529606 0.6133209 0.3101059 0.42673564 -0.4468381 -0.89587504
-0.3995842 0.1763373 -0.21192667 0.42237142 0.1380162 0.20299806 -0.101515725 -0.010024478
-0.32572475 -0.7356243 0.40009648 -1.2200938 0.18196648 0.44003788 -0.395589 0.050200958
0.40553036 -0.4289094 0.01048528 0.27010924 0.04536507 0.045547687 0.77149147 0.18724741
0.41003853 -0.5606581 0.8033431 0.11654302 -0.6342055 0.109812684 -0.1793721 -0.73190874
-0.24824591 -0.2678546 0.106389105 0.61326903 0.6080406 0.6090973 -0.719523 -0.14401771
0.03541706 0.15443258 0.009971024 0.37439212 -0.02840416 -0.71426165 -0.08190404 -0.42699718
-0.14235671 -0.46596926 0.39249945 0.114338554 0.36011153 0.44686532 0.33217138 -0.13395587
-0.10283438 -0.19998978 0.9529757 0.39047012 -0.07834368 -0.021582043 -0.00178345 -0.43252775
-0.18024412 -0.15642288 0.16059248 -0.4329383 0.5953443 -1.0490885 -0.23904154 -0.12245858
-0.06541913 -0.027115358 -0.37519875 0.019306447 -0.08436857 0.15384151 -0.6497518 0.37355465
0.10137681 0.18097235 -0.1515603 0.21518107 0.13673267 0.103279926 0.0606155 -0.45081678
-0.26861975 0.49730635 0.47091943 -0.7227776 0.06770098 0.15556575 0.1292041 -0.015906386
0.23475166 -0.4748984 -0.030857878 0.24314056 0.41245952 -0.40889794 -0.2835723 0.26952714
0.38624486 0.18811767 -0.08570766 0.27035394 0.54352856 0.20428008 0.26380038 -0.06443791
0.805011 -0.28494513 -0.79807454 0.07876446 0.3210898 -0.015671283 0.039025508 -0.52670205
-0.15830684 -0.3950398 0.5341915 -0.34765404 -0.23541269 -0.39330998 -0.053278863 0.19066723
0.10918663 0.2878978 -0.05363928 -0.45315433 0.4023397 0.16856706 -0.52158743 -0.3618652
0.73291236 0.3999966 -0.31543985 0.16610858 0.1165059 -0.4288019 0.53972375 0.16431902
-0.03919871 0.33458868 0.7190093 -0.3563956 0.5951354 -0.057144344 -0.7498061 0.00088087976
0.24356863 0.68066645 0.5513157 -0.6087865 -0.0660996 -0.1354203 0.4249303 0.111827016
-0.2283845 -0.29134685 -0.14659527 -0.2816806 -0.2187442 -0.26679748 0.082208924 0.11320282
0.43760625 -0.5020111 -0.31713656 -0.27126208 -0.0049497117 0.21708573 0.0056064385 0.15350567
-0.25267732 -0.32272294 0.11098646 -0.7308952 0.37348098 -0.2824588 -0.050785493 0.15861502
00000000: 5d24 57bf 3d2b 1abe a97b e0be 49f1 3fbf
00000010: 0a4b 173f 291c 4a3e 20b9 08bf eb02 e33e
00000020: 3e41 d5be 6017 233f af83 c83e 8c46 9ebe
00000030: b32a 15bf 27dc d13e 9628 873d d01c 2b3f
00000040: b501 db3e 1c29 89be 9fe0 4e3e 620e 873e
00000050: b35a 89bf 2be5 a5be 6d30 8ebe 5950 e3bd
00000060: 80eb cfbe 2d52 dfbd 8f31 b4be 487a ed3c
00000070: 4654 ab3e 9995 223f 7dad c33e e959 303e
00000080: 25df b8be 31e1 b83e 6b40 dabe 9778 423f
00000090: 9753 ae3e d7db dabe 488c 39bf 4e08 013d
000000a0: 599e 88be e69d 1c3d edee d8bb 5b31 ba3e
000000b0: f75d 913e 9b0a c23e 787f d03e 194b 453d
000000c0: bb82 113d 62fe 03be 6676 12bf 70da 23be
000000d0: 7ba0 9dbe 5b22 ec3d f3fe 4cbe 75bb f83d
000000e0: ccdd b73e 3989 1e3e 588c b2be 5755 e83c
000000f0: 869c 093f 3310 a33e 89a8 833f 8b2d b4bc
00000100: 6eea 0d3f 6d7c 64bf c44f 9cbe 9902 1d3f
00000110: 33c6 9e3e 187d da3e f7c7 e4be 1158 65bf
00000120: 4d96 ccbe c491 343e 4e03 59be 1141 d83e
00000130: 1e54 0d3e b9de 4f3e 7ae7 cfbd b53d 24bc
00000140: 65c5 a6be e051 3cbf 72d9 cc3e 092c 9cbf
00000150: 6c55 3a3e a54c e13e a48a cabe 859f 4d3d
00000160: ada1 cf3e 039a dbbe 74ca 2b3c c24b 8a3e
00000170: b9d0 393d 3690 3a3d 7780 453f c9bd 3f3e
00000180: 92f0 d13e 4a87 0fbf e5a7 4d3f 1bae ee3d
00000190: 4b5b 22bf 79e5 e03d 52ad 37be 5f5e 3bbf
000001a0: 2d34 7ebe 3d24 89be 88e2 d93d 33ff 1c3f
000001b0: 8ca8 1b3f cded 1b3f a932 38bf 6179 13be
000001c0: 7b11 113d 9323 1e3e 815d 233c 53b0 bf3e
000001d0: d7af e8bc dad9 36bf 4ebd a7bd 609f dabe
000001e0: f5c5 11be 8693 eebe b0f5 c83e 552a ea3d
000001f0: 8a60 b83e 88cb e43e 5e12 aa3e ba2b 09be
00000200: d59a d2bd 1fca 4cbe 37f6 733f b3eb c73e
00000210: a772 a0bd d3cc b0bc a7c2 e9ba 4774 ddbe
00000220: ea91 38be 522d 20be 5b72 243e 17aa ddbe
00000230: 7c68 183f 8848 86bf 4ec7 74be 90cb fabd
00000240: 77fa 85bd 0721 debc 0d1a c0be 8e28 9e3c
00000250: 6ec9 acbd a188 1d3e 2256 26bf 8e42 bf3e
00000260: a59e cf3d d150 393e a032 1bbe 6d58 5c3e
00000270: a603 0c3e 6d84 d33d f547 783d 75d1 e6be
00000280: 8788 89be f09e fe3e 5a1c f13e f407 39bf
00000290: d0a6 8a3d a14c 1f3e 144e 043e 1c4e 82bc
000002a0: bd62 703e e225 f3be a9c9 fcbc d7f9 783e
000002b0: e52d d33e 125b d1be 6330 91be 76ff 893e
000002c0: e3c1 c53e eba1 403e 7f87 afbd d56b 8a3e
000002d0: b024 0b3f cc2e 513e d810 873e 06f8 83bd
000002e0: 3315 4e3f 54e4 91be 9d4e 4cbf 434f a13d
000002f0: e265 a43e 1061 80bc 36d9 1f3d f2d5 06bf
00000300: 301b 22be a842 cabe c6c0 083f b6ff b1be
00000310: 0610 71be ed5f c9be f03a 5abd 453e 433e
00000320: 3d9d df3d 5767 933e ddb4 5bbd d803 e8be
00000330: 78ff cd3e d89c 2c3e c186 05bf 6546 b9be
00000340: 25a0 3b3f 5bcc cc3e 5581 a1be 5e18 2a3e
00000350: a59a ee3d ec8b dbbe 562b 0a3f 3f43 283e
00000360: d48e 20bd 354f ab3e fe10 383f 7c79 b6be
00000370: cb5a 183f 3010 6abd 4bf3 3fbf d7ea 663a
00000380: 0e6a 793e 2840 2e3f 0723 0d3f 6fd9 1bbf
00000390: 3a5f 87bd 9eab 0abe 7790 d93e 9005 e53d
000003a0: a0dd 69be 6a2b 95be 121d 16be 7138 90be
000003b0: 7bfe 5fbe ae99 88be 275d a83d e1d6 e73d
000003c0: ed0d e03e cd83 00bf b95f a2be dde2 8abe
000003d0: 3131 a2bb b94b 5e3e 37b6 b73b 9730 1d3e
000003e0: ec5e 81be f13b a5be de4c e33d f31b 3bbf
000003f0: e638 bf3e 719e 90be 7304 50bd fa6b 223e

conv2.bias f4 [32]
-0.1048151 -0.0031902601 -0.012477516 0.014278301 0.122958034 0.0015484092 -0.38045493 0.09898672
-0.04817193 -0.036942773 0.19755186 -0.013734707 -0.20524727 0.020169001 -0.2499602 -0.020208731
-0.19198957 -0.049342077 0.057024423 -0.0073928274 0.061129723 -0.010065055 0.12944475 -0.1230806
0.04387827 -0.12095157 -0.11473081 -0.22679365 -0.18328173 0.2278956 0.26278242 -0.2686288
00000000: 4da9 d6bd af13 51bb 7f6e 4cbc 89ef 693c
00000010: 6cd1 fb3d fef3 ca3a fdca c2be 8db9 ca3d
00000020: ee4f 45bd 4e51 17bd 094b 4a3e 8907 61bc
00000030: 572c 52be 7639 a53c 91f5 7fbe c88c a5bc
00000040: ea98 44be eb1a 4abd 7192 693d 883f f2bb
00000050: 2963 7a3d e7e7 24bc 2a8d 043e ae11 fcbd
00000060: b3b9 333d 75b5 f7bd fdf7 eabd 983c 68be
00000070: 35ae 3bbe 775d 693e 6b8b 863e b789 89be

prob_conv1.weight f4 [32, 20, 1]
0.18805052 0.016666066 0.03821761 0.13179615 0.16776253 -0.2374277 -0.060585562 0.021135062
-0.1555806 -0.10790765 0.106670894 -0.0017864059 -0.15988146 0.13908729 0.19131951 -0.17807415
0.09182942 0.093053095 -0.07566734 -0.14476173 -0.021595865 0.20686899 0.2044043 0.028812818
-0.061857034 0.18062931 0.2263138 0.005049844 -0.15394422 -0.17568254 -0.17973664 -0.062447537
-0.18702054 -0.009342005 -0.1825551 0.17809916 0.21950993 0.05500301 -0.17074132 0.0019086098
0.025245812 -0.017409654 -0.15492427 -0.064043015 -0.15987284 0.044212103 0.027886555 -0.10642656
0.02581192 0.13556533 0.11492275 0.16949335 0.22840567 -0.1419755 0.15263525 -0.16359107
-0.114476666 0.09433865 -0.008672428 -0.17604464 -0.010452124 0.04864132 -0.003167963 -0.009511371
-0.03458979 -0.07326026 0.13353343 -0.13580252 -0.118338704 -0.17904264 0.09263437 0.01861041
-0.057270963 -0.014215719 -0.06997272 -0.023149908 0.17135096 0.064171106 -0.02273536 0.22036088
0.07097921 -0.057613973 -0.026770266 -0.053406626 0.04890993 0.06990749 0.12099871 0.038314596
0.1049764 -0.20077254 0.074544944 0.13183047 0.007947724 0.054631665 0.00887463 0.024173891
-0.096163765 -0.017171971 -0.19097307 -0.08446964 -0.1725564 0.020004021 -0.07043539 0.090969495
0.13192785 -0.19329517 0.07857219 0.13532116 0.03336677 0.15227638 0.08128832 -0.10588506
-0.020489601 0.015592525 -0.011792862 -0.15864906 -0.21650407 0.14179963 0.02778226 -0.092477016
-0.0963056 0.12566309 -0.11134359 0.10709545 0.07828751 -0.053084277 0.07795312 -0.040237233
-0.1798669 -0.05583152 0.089032695 0.21267381 -0.15917324 -0.13952416 -0.12757485 -0.14850087
0.032945823 0.16116261 -0.10501015 -0.092821434 0.21111684 0.17579807 -0.1669959 -0.16269909
0.16694805 -0.105480894 0.21520963 0.045968406 -0.14808269 -0.16130364 0.1334226 0.02892555
-0.006616425 0.05958692 -0.1239315 -0.19176093 0.24448325 -0.08850368 -0.02451158 -0.15538174
-0.1430094 -0.028449278 0.20247144 0.12196078 0.16180028 0.19424924 -0.15987821 -0.12759854
0.085960425 0.028349735 -0.15203407 -0.075352974 -0.113285564 -0.21196093 0.040791694 -0.1559806
0.0653077 0.002348222 0.03179392 0.22222619 -0.009287402 -0.008270175 -0.1199651 0.04324329
0.035859484 -0.030062178 0.17861766 -0.14123233 0.05606153 0.045413833 0.23840977 -0.07741402
-0.090045385 0.07532908 -0.111329086 -0.12350391 -0.114441544 0.106376484 -0.020440187 -0.1031031
0.115223765 -0.05012913 0.115349285 0.111260116 -0.15461855 -0.10783786 0.09031171 0.026206942
0.004486945 -0.1017499 -0.17336428 0.11782786 0.12750922 -0.17261721 -0.09225537 0.11041383
-0.017833225 -0.12455469 0.113482036 0.05407462 0.23543194 -0.073594995 0.15296999 0.10592509
0.14407907 0.20832807 -0.14632703 0.017793462 0.044808213 -0.1375044 0.19180658 -0.1669622
-0.078640975 -0.13718005 -0.17877479 -0.079335324 -0.104599506 -0.18910666 0.055761106 0.12161981
-0.0031405394 0.020118149 -0.07852773 -0.043315746 0.062373664 0.12060842 -0.0678415 -0.23140201
0.00029150367 -0.13401859 -0.07258662 -0.01881967 -0.07035806 0.13490754 0.09560666 0.17193136
00000000: 5190 403e 4687 883c 128a 1c3d 92f5 063e
00000010: f1c9 2b3e 3f20 73be 9128 78bd 7023 ad3c
00000020: 8550 1fbe b0fe dcbd 4576 da3d d625 eaba
00000030: f7b7 23be e66c 0e3e 43e9 433e 1259 36be
00000040: 1011 bc3d 9f92 be3d 7af7 9abd 6b3c 14be
00000050: d0e9 b0bc 77d5 533e 5c4f 513e dc08 ec3c
00000060: cd5d 7dbd e4f6 383e cebe 673e 2979 a53b
00000070: 8ea3 1dbe 20e6 33be e20c 38be fdc8 7fbd
00000080: 5082 3fbe 350f 19bc b9ef 3abe a05f 363e
00000090: 36c7 603e d64a 613d d0d6 2ebe 512a fa3a
000000a0: 4ed0 ce3c b19e 8ebc 78a4 1ebe fc28 83bd
000000b0: b5b5 23be c017 353d 5872 e43c 2bf6 d9bd
000000c0: 8573 d33c a3d1 0a3e 9e5c eb3d aa8f 2d3e
000000d0: 2de3 693e 0762 11be 6a4c 1c3e 6b84 27be
000000e0: be72 eabd 9f34 c13d cd16 0ebc 0c45 34be
000000f0: 633f 2bbc 1f3c 473d 999d 4fbb 95d5 1bbc
00000100: 06ae 0dbd 7a09 96bd fdbc 083e d10f 0bbe
00000110: 905b f2bd f456 37be 17b7 bd3d dc74 983c
00000120: f594 6abd 0ce9 68bc dc4d 8fbd e0a4 bdbc
00000130: a076 2f3e 246c 833d 813f babc 48a6 613e
00000140: 8c5d 913d a1fc 6bbd 514d dbbc e8c0 5abd
00000150: c755 483d a82b 8f3d 2cce f73d c4ef 1c3d
00000160: defd d63d 5197 4dbe 05ab 983d 91fe 063e
00000170: 2c37 023c 74c5 5f3d e566 113c 5308 c63c
00000180: 82f1 c4bd 3cac 8cbc 728e 43be 6bfe acbd
00000190: a0b2 30be 79df a33c 6e40 90bd 374e ba3d
000001a0: 1818 073e 2bef 45be 75ea a03d a191 0a3e
000001b0: 98ab 083d 57ee 1b3e 7e7a a63d 44da d8bd
000001c0: cfd9 a7bc ca77 7f3c d936 41bc e674 22be
000001d0: 3eb3 5dbe ec33 113e 9f97 e33c 9764 bdbd
000001e0: df3b c5bd d3ad 003e 1c08 e4bd dc54 db3d
000001f0: 3455 a03d e66e 59bd e3a5 9f3d cccf 24bd
00000200: 072f 38be 98af 64bd c656 b63d 2ac7 593e
00000210: 4ffe 22be 6cdf 0ebe fba2 02be 9d10 18be
00000220: 33f2 063d d007 253e 900f d7bd 2a19 bebd
00000230: 032f 583e 6904 343e f900 2bbe 979a 26be
00000240: 6ef4 2a3e 5e06 d8bd ea5f 5c3e 5e49 3c3d
00000250: fda2 17be c82c 25be ef9f 083e 46f5 ec3c
00000260: 98ce d8bb 6a11 743d cccf fdbd fa5c 44be
00000270: d159 7a3e 6b41 b5bd 82cc c8bc 641c 1fbe
00000280: 0e71 12be 760e e9bc ac54 4f3e 93c6 f93d
00000290: f9ae 253e 46e9 463e 1db7 23be 31a9 02be
000002a0: 050c b03d b43d e83c d2ae 1bbe a952 9abd
000002b0: 4302 e8bd 490c 59be 3115 273d 61b9 1fbe
000002c0: 0bc0 853d a1e4 193b 573a 023d 438f 633e
000002d0: 302a 18bc a17f 07bc 43b0 f5bd e01f 313d
000002e0: 65e1 123d f544 f6bc 8ce7 363e 359f 10be
000002f0: c6a0 653d db03 3a3d b121 743e 3e8b 9ebd
00000300: b769 b8bd 2246 9a3d 8100 e4bd 9eef fcbd
00000310: 5460 eabd eadb d93d 2e72 a7bc b827 d3bd
00000320: 70fa eb3d 3454 4dbd 3f3c ec3d 58dc e33d
00000330: 5354 1ebe 19da dcbd 59f5 b83d f1af d63c
00000340: 3907 933b 4062 d0bd 6886 31be bc4f f13d
00000350: c791 023e 91c2 30be 62f0 bcbd a520 e23d
00000360: fc16 92bc 8816 ffbd 4569 e83d 597d 5d3d
00000370: 1215 713e f9b8 96bd 2aa4 1c3e 41ef d83d
00000380: 7789 133e f453 553e c1d6 15be 98c3 913c
00000390: d188 373d f4cd 0cbe f268 443e 24f8 2abe
000003a0: 850e a1bd ed78 0cbe bd10 37be 8f7a a2bd
000003b0: 4438 d6bd 2da5 41be c265 643d cf13 f93d
000003c0: 82d1 4dbb d1ce a43c 26d3 a0bd da6b 31bd
000003d0: 877b 7f3d 8c01 f73d 7cf0 8abd a6f4 6cbe
000003e0: f6d4 9839 2b3c 09be 4ba8 94bd b52b 9abc
000003f0: e317 90bd 3425 0a3e 6dcd c33d c60e 303e

prob_conv1.bias f4 [32]
0.08223331 0.03849433 0.13832398 -0.004153607 -0.05413576 -0.101270795 0.19391814 0.07149171
0.17080823 -0.031496383 -0.089949034 -0.17604493 0.004238015 0.18127221 0.12502927 -0.14013539
-0.07038127 0.12643065 0.23652117 0.23967803 0.024433518 -0.25648528 -0.1993485 0.024669942
0.13192327 0.10036753 -0.055975236 -0.05528042 0.035304733 -0.034057286 -0.07584147 0.1357758
00000000: f069 a83d 3bac 1d3d cda4 0d3e fb1a 88bb
00000010: 75bd 5dbd 1067 cfbd 7a92 463e 3f6a 923d
00000020: 5ae8 2e3e 5a02 01bd 3337 b8bd 1f45 34be
00000030: 0cdf 8a3b 6c9f 393e ac07 003e a77f 0fbe
00000040: 0e24 90bd 0977 013e 9b32 723e 286e 753e
00000050: cd28 c83c 0a52 83be 0322 4cbe 9e18 ca3c
00000060: e516 073e 7e8d cd3d 4a46 65bd b96d 62bd
00000070: b29b 103d a77f 0bbd c652 9bbd d008 0b3e

prob_conv2.weight f4 [32, 20, 1]
-0.020052819 0.19703431 -0.016372507 0.060188696 -0.097314976 0.04929328 0.1301088 -0.06819508
0.20407183 -0.17016698 0.021110592 -0.097451344 -0.10329372 -0.19513954 0.11249105 -0.15609904
-0.1465304 -0.05434403 -0.11722172 0.16353554 0.010626639 -0.006112885 -0.11697742 -0.06685534
-0.17768346 0.07792787 -0.07892413 0.029925918 0.0359118 0.038457528 -0.023596354 -0.071903706
0.14272483 0.08427183 -0.0025330463 0.12677842 0.1748701 -0.20916112 0.048777923 0.17223567
-0.037038047 0.20404345 -0.08923659 0.06590341 -0.017933771 -0.15328094 0.017413666 -0.07598589
0.11359276 -0.09607102 -0.04025041 -0.11630955 -0.16212557 -0.07314916 0.100319035 0.1027162
0.17356315 -0.022768859 -0.12975629 0.16966668 -0.096097395 -0.11390718 -0.15354362 0.035392806
0.04661834 0.104091525 0.16750887 0.13497992 0.15398349 -0.13313697 0.1251877 -0.10974706
0.020246608 0.08002918 -0.12561859 -0.041117627 -0.06610164 -0.18057354 -0.061289977 0.028292118
-0.005690568 -0.09159239 0.16354604 -0.073364735 0.1353312 -0.098736025 0.20178354 -0.043157965
-0.08695573 -0.08112178 0.08395818 -0.021442745 0.17847764 -0.12955774 0.06443849 -0.11086092
-0.055899568 0.16626705 -0.18174522 0.05441593 0.16033824 0.13682435 -0.22300072 -0.11247585
0.10957527 0.15966305 0.019549746 -0.13102306 0.075749174 0.06196806 -0.038839642 -0.11849668
0.0027892306 0.13278899 0.053083807 -0.18555243 0.08063594 -0.03727002 0.077458754 -0.11355502
-0.0445599 -0.21896753 -0.055736825 -0.15349519 0.118443415 0.11755006 0.06682063 0.035032246
0.055748794 0.14592446 -0.15784265 0.087055124 0.17537801 -0.13921687 -0.024482395 0.08574141
0.12891075 0.015209197 -0.0019914736 -0.040177546 0.11989278 0.07719233 -0.14039436 0.061066914
0.11852226 -0.10530816 0.038367234 -0.0021182038 -0.15243933 -0.1893186 0.1909335 -0.12317467
0.019180875 0.19157575 -0.021581933 -0.049438775 -0.14152959 -0.13415231 0.005997946 -0.033370443
0.045803208 -0.20818128 -0.24059126 0.1496778 0.11129277 0.14721082 0.14109859 0.009291916
-0.0577902 0.13778591 -0.2085509 0.06229441 -0.0578695 -0.05523811 -0.061055757 0.14803451
-0.0837734 0.06338222 0.17376702 0.1381303 -0.071068615 0.060863513 0.12312248 -0.10126789
-0.00886791 0.019882562 -0.023125445 0.077625774 0.0023686183 0.12829024 0.0724297 -0.05352815
0.029146684 0.0015803836 -0.025095897 0.20709111 -0.112406716 -0.123175636 -0.1513843 0.06389716
-0.120362595 0.04226396 -0.2125262 0.17946534 -0.023719542 0.1885872 0.09063981 0.14317758
0.053271174 -0.22129998 -0.112711556 0.13003443 -0.13156529 0.07898198 -0.16229376 -0.21740986
-0.17228477 0.056875676 0.10663307 0.09167477 -0.12027694 -0.199324 -0.0495583 0.2068605
-0.08224084 -0.07195179 -0.044169575 -0.04060439 0.07194311 -0.085872136 0.11853898 -0.005199562
-0.07243515 -0.06871671 0.13773829 -0.02998713 -0.060521398 0.18386243 -0.11498173 0.14599924
-0.18215807 -0.14099944 -0.13323869 -0.00084332627 0.1364666 0.047798432 0.1782611 0.1750795
0.11007598 -0.20698565 0.18133184 0.09699649 -0.1865608 0.06933716 -0.06571996 -0.06618081
00000000: cf45 a4bc 5dc3 493e a31f 86bc 6c88 763d
00000010: 134d c7bd c0e7 493d 3e3b 053e dda9 8bbd
00000020: 35f8 503e 4140 2ebe 1ff0 ac3c 9294 c7bd
00000030: a88b d3bd a9d2 47be b561 e63d 6dd8 1fbe
00000040: 110c 16be d897 5ebd f111 f0bd dc75 273e
00000050: 5b1b 2e3c 994e c8bb dc91 efbd 74eb 88bd
00000060: a7f2 35be a698 9f3d f9a2 a1bd 3327 f53c
00000070: 4018 133d a485 1d3d 244d c1bc 4042 93bd
00000080: 7526 123e b696 ac3d 7701 26bb 34d2 013e
00000090: 2611 333e 552e 56be 5ccb 473d 8c5e 303e
000000a0: 35b5 17bd c4f0 503e acc1 b6bd 5ef8 863d
000000b0: d8e9 92bc aef5 1cbe 1ba7 8e3c 7e9e 9bbd
000000c0: 52a3 e83d e2c0 c4bd 9ddd 24bd b433 eebd
000000d0: 3f04 26be 3acf 95bd 1174 cd3d df5c d23d
000000e0: 8aba 313e c285 babc d5de 04be 1abd 2d3e
000000f0: b6ce c4bd 2b48 e9bd 8a3a 1dbe 0cf8 103d
00000100: dff2 3e3d f02d d53d 7287 2b3e 2d38 0a3e
00000110: d9ad 1d3e 0f55 08be 3431 003e 11c3 e0bd
00000120: 37dc a53c 57e6 a33d 29a2 00be f56a 28bd
00000130: 4c60 87bd 45e8 38be 330b 7bbd dfc4 e73c
00000140: f277 babb ca94 bbbd 9d78 273e 4040 96bd
00000150: 4394 0a3e 1d36 cabd 58a0 4e3e 68c6 30bd
00000160: d915 b2bd 2d23 a6bd 44f2 ab3d b2a8 afbc
00000170: d8c2 363e c9aa 04be 54f8 833d 0d0b e3bd
00000180: f2f6 64bd e941 2a3e 6b1b 3abe 3de3 5e3d
00000190: b52f 243e af1b 0c3e 4d5a 64be bd59 e6bd
000001a0: 0069 e03d b67e 233e ca26 a03c e92a 06be
000001b0: 6222 9b3d 38d2 7d3d 5116 1fbd 63ae f2bd
000001c0: 86cb 363b d6f9 073e 686e 593d 7501 3ebe
000001d0: 7524 a53d 73a8 18bd b2a2 9e3d 898f e8bd
000001e0: 7184 36bd 0639 60be 4c4c 64bd d82d 1dbe
000001f0: 7692 f23d 16be f03d 41d9 883d f97d 0f3d
00000200: d958 643d 396d 153e 81a1 21be f549 b23d
00000210: 4b96 333e de8e 0ebe 4e8f c8bc 3199 af3d
00000220: 2e01 043e ff2f 793c 6283 02bb 3691 24bd
00000230: 598a f53d 0317 9e3d 8ac3 0fbe 4d21 7a3d
00000240: ccbb f23d ceab d7bd f626 1d3d 90d1 0abb
00000250: 0e19 1cbe bcdc 41be 1284 433e 0043 fcbd
00000260: 3621 9d3c 6f2c 443e 98cc b0bc 5080 4abd
00000270: 22ed 10be 395f 09be 6b8a c43b 72af 08bd
00000280: 259c 3b3d 792d 55be 8e5d 76be 2345 193e
00000290: 77ed e33d 6fbe 163e 267c 103e 1f3d 183c
000002a0: 6bb5 6cbd c017 0d3e 5e8e 55be 6c28 7f3d
000002b0: 9208 6dbd 5b41 62bd 9a15 7abd 5c96 173e
000002c0: 6391 abbd 8ace 813d fbef 313e 0872 0d3e
000002d0: 6c8c 91bd 054c 793d a427 fc3d 8a65 cfbd
000002e0: b64a 11bc c1e0 a23c 9371 bdbc 43fa 9e3d
000002f0: d23a 1b3b 845e 033e 0656 943d 5540 5bbd
00000300: 07c5 ee3c e024 cf3a e995 cdbc b10f 543e
00000310: 7e35 e6bd 8243 fcbd 7c04 1bbe 84dc 823d
00000320: aa80 f6bd f91c 2d3d 78a0 59be c3c5 373e
00000330: 7c4f c2bc 011d 413e 5da1 b93d 259d 123e
00000340: e032 5a3d 769c 62be 51d5 e6bd bf27 053e
00000350: 0db9 06be 4ec1 a13d 5630 26be b1a0 5ebe
00000360: 6b6b 30be 78f6 683d 7062 da3d fbbf bb3d
00000370: c253 f6bd 971b 4cbe a5fd 4abd 3dd3 533e
00000380: e36d a8bd 765b 93bd 28eb 34bd ca50 26bd
00000390: e956 933d bbdd afbd 91c4 f23d 1661 aabb
000003a0: e158 94bd 59bb 8cbd 440b 0d3e 92a7 f5bc
000003b0: 49e5 77bd 6f46 3c3e 8b7b ebbd d380 153e
000003c0: a587 3abe 2862 10be b96f 08be ab12 5dba
000003d0: e6bd 0b3e 4ac8 433d 148a 363e 0a48 333e
000003e0: 846f e13d 0cf4 53be 0eaf 393e 19a6 c63d
000003f0: cb09 3fbe a400 8e3d 3098 86bd ce89 87bd

prob_conv2.bias f4 [32]
0.15332659 -0.0062874025 0.015083293 -0.13108134 0.19592698 0.21120934 -0.18065572 0.017303599
-0.11024683 0.12716612 -0.20721477 -0.11875596 -0.08502596 0.20963258 0.001901502 -0.03283443
0.03819121 -0.13080205 0.12538244 -0.019403607 -0.121457145 0.07553465 0.14579725 -0.13369876
0.013281447 0.012131863 0.11715137 0.0063496004 -0.043775942 -0.013468708 -0.1609744 0.17472427
00000000: a501 1d3e 8e06 cebb eb1f 773c 303a 06be
00000010: 15a1 483e 4347 583e d0fd 38be 47c0 8d3c
00000020: 17c9 e1bd d637 023e 1c30 54be 5336 f3bd
00000030: 1722 aebd eca9 563e d23b f93a 657d 06bd
00000040: 636e 1c3d f9f0 05be 4164 003e 50f4 9ebc
00000050: 86be f8bd e9b1 9a3d e04b 153e 54e8 08be
00000060: 6d9a 593c b9c4 463c 0fed ef3d 4f10 d03b
00000070: 674e 33bd dbab 5cbc 79d6 24be ebea 323e

fc1.weight f4 [27, 1543]
0.041074533 0.00011427484 0.009923783 -0.0690931 0.06873151 0.062560804 0.0530996 0.043124307
0.062502064 0.0033789214 -0.020781018 -0.0024564925 -0.0047474224 0.008139484 0.036977142 0.09110012
0.06658812 0.08374528 0.13375185 0.04057953 -0.0060666716 -0.08723387 -0.0039131762 0.036125172
0.06485458 0.083017476 0.05319276 0.0793839 0.075980924 -0.008091035 0.050143316 0.011062442
-0.0028602644 -0.044503704 -0.0124435425 -0.05328174 0.12812336 0.042717226 0.06928662 0.07696556
-0.03618338 0.06925081 0.08707445 -0.05750346 0.019728148 0.03147882 -0.06655548 -0.07732334
0.05715411 -0.08054036 0.0041807075 -0.089877695 0.011269727 -0.08596869 0.07710852 0.07503929
0.08474367 0.07705978 0.05618898 0.056798838 0.027757265 0.082714885 0.044782586 0.06790349
0.06936915 0.08773933 0.0038159278 0.023387183 0.02394182 -0.00035504907 0.015447121 0.011482694
0.09659757 0.030293075 0.00996426 -0.03531429 0.041721415 -0.07227945 -0.026628895 0.06105967
0.06944937 0.06596441 -0.026244754 -0.036466576 0.09419916 -0.021999175 0.054016463 0.053077728
0.063815944 0.056078743 0.11400799 0.07787076 0.100020945 -0.01158457 0.013791624 0.019019358
0.010932779 -0.018495347 -0.004376807 -0.017086815 -0.008305295 -0.002473322 -0.076144405 -0.08863219
0.0042933454 -0.0919154 -0.01130059 0.016853344 0.07494131 0.007729372 -0.07853159 0.0016038487
-0.013128654 0.029070511 0.037826072 -0.0150188925 0.06306271 0.06282935 0.013875279 0.07861735
0.019244278 -0.07939269 -0.061027464 -0.05275045 -0.07245382 -0.07606147 -0.060108516 -0.038204126
0.032455593 0.015489401 -0.022051502 -0.008964847 0.020727066 0.025273008 -0.046520915 -0.070534974
-0.009461501 -0.07927205 -0.09202473 0.06896824 0.0019637935 -0.0005482736 -0.004549977 0.009004308
-0.021479275 -0.052326012 -0.060173847 0.008170954 -0.06676975 0.011556357 -0.0517554 0.08464794
-0.017601237 0.011166694 0.0056405775 0.018423911 -0.026308225 -0.05554122 -0.08042934 -0.05693086
-0.06879758 -0.07916083 -0.023284344 0.07030099 -0.014993821 0.03274049 0.050556034 0.042040676
0.016688649 0.07158189 0.08722536 -0.011017231 0.017456058 0.08471197 0.12346489 0.036393806
0.0038045992 -0.09064552 -0.061682504 -0.061829764 0.05159247 0.09637593 0.0074028852 0.05291788
0.062530525 0.06616601 0.016630923 0.023450334 -0.05833926 0.007126365 -0.0016778563 -0.016640624
-0.067041986 -0.01539401 0.08313647 0.034271557 0.039777637 0.10121676 0.010016618 0.007488421
0.0022858358 0.0025616547 -0.05593278 0.020703096 0.09480567 0.100326605 -0.008082457 0.06255379
0.052861456 0.06689034 0.083438 0.015972693 0.019955138 0.009652492 -0.018595241 -0.0713057
0.06280346 -0.001878135 -0.021200297 0.0247152 -0.05107096 0.0051856893 0.06257164 0.07015801
-0.021536196 0.079797775 0.049929254 0.02294544 0.0966314 -0.040289894 -0.061905652 -0.04656122
0.0117133465 9.0296606e-05 0.062194645 0.05178459 0.052019186 0.08396774 0.01408477 0.047991175
0.000570675 0.016490467 -0.020188922 -0.039981265 0.03490006 0.0707456 0.051059987 0.036603447
0.048490196 0.06588211 0.06568893 0.032158434 -0.101715565 -0.09470679 -0.055143673 -0.086906165
00000000: c53d 283d d6a6 ef38 5d97 223c af80 8dbd
00000010: 1bc3 8c3d e11f 803d f77e 593d 1da3 303d
00000020: 1501 803d e570 5d3b f43c aabc 1bfd 20bb
00000030: 4490 9bbb 785b 053c 5875 173d b392 ba3d
00000040: 5a5f 883d a582 ab3d 3ff6 083e b936 263d
00000050: eeca c6bb aca7 b2bd 1a3a 80bb fdf7 133d
00000060: 7ad2 843d 1105 aa3d a7e0 593d 0794 a23d
00000070: e39b 9b3d 4390 04bc 1463 4d3d 3f3f 353c
00000080: 4673 3bbb 8449 36bd 00e0 4bbc f43d 5abd
00000090: c532 033e 42f8 2e3d 25e6 8d3d 1fa0 9d3d
000000a0: 0635 14bd 5ed3 8d3d 1754 b23d c088 6bbd
000000b0: ed9c a13c efef 003d 3d4e 88bd b35b 9ebd
000000c0: 6e1a 6a3d 58f2 a4bd 51fe 883b cc11 b8bd
000000d0: a9a4 383c 5a10 b0bd 12eb 9d3d 33ae 993d
000000e0: 178e ad3d 85d1 9d3d 6a26 663d e6a5 683d
000000f0: 3463 e33c 6c66 a93d f26d 373d fc10 8b3d
00000100: 6a11 8e3d aeb0 b33d a514 7a3b 7a96 bf3c
00000110: a321 c43c e125 bab9 ec15 7d3c e921 3c3c
00000120: f2d4 c53d 2f29 f83c 2341 233c b8a5 10bd
00000130: 13e4 2a3d 4007 94bd d724 dabc b419 7a3d
00000140: 793b 8e3d 5918 873d 3dff d6bc fa5d 15bd
00000150: 7deb c03d 9d37 b4bc 5e40 5d3d 0868 593d
00000160: efb1 823d d3b2 653d 057d e93d b47a 9f3d
00000170: c8d7 cc3d 35cd 3dbc 44f6 613c 7cce 9b3c
00000180: 661f 333c 8e83 97bc 516b 8fbb a6f9 8bbc
00000190: ef12 08bc 7517 22bb 99f1 9bbd cb84 b5bd
000001a0: 31af 8c3b 243e bcbd 1c26 39bc 0610 8a3c
000001b0: d47a 993d ac46 fd3b 2cd5 a0bd 3b38 d23a
000001c0: 9119 57bc 4825 ee3c 83ef 1a3d cd11 76bc
000001d0: 0627 813d adac 803d 2355 633c 2202 a13d
000001e0: 2da6 9d3c a298 a2bd eff7 79bd db10 58bd
000001f0: ab62 94bd 1ec6 9bbd 5934 76bd ee7b 1cbd
00000200: 28f0 043d 42c7 7d3c 5aa5 b4bc 4be1 12bc
00000210: cfcb a93c 5709 cf3c b78c 3ebd a474 90bd
00000220: 6904 1bbc 6259 a2bd 7677 bcbd 383f 8d3d
00000230: fdb2 003b 05ba 0fba f917 95bb ce86 133c
00000240: 4ef5 afbc cd53 56bd da78 76bd 77df 053c
00000250: 94be 88bd e056 3d3c 78fd 53bd e65b ad3d
00000260: 7830 90bc 82f4 363c 98d4 b83b beed 963c
00000270: 5984 d7bc 317f 63bd 23b8 a4bd 5530 69bd
00000280: bfe5 8cbd 131f a2bd cfbe bebc f7f9 8f3d
00000290: a5a8 75bc e41a 063d d813 4f3d d832 2c3d
000002a0: a2b6 883c 8799 923d 36a3 b23d 9e81 34bc
000002b0: 0200 8f3c 787d ad3d 29db fc3d ac11 153d
000002c0: 9556 793b 5ca4 b9bd cba6 7cbd 3541 7dbd
000002d0: a052 533d be60 c53d e793 f23b 6bc0 583d
000002e0: 0110 803d 0c82 873d 933d 883c ea1a c03c
000002f0: 26f5 6ebd 4884 e93b 84eb dbba eb51 88bc
00000300: 4f4d 89bd 2837 7cbc 7443 aa3d 5560 0c3d
00000310: e0ed 223d bc4a cf3d be1c 243c 6e61 f53b
00000320: f6cd 153b 6fe1 273b c519 65bd 8a99 a93c
00000330: 7a29 c23d 0978 cd3d 486c 04bc 341c 803d
00000340: 4185 583d cdfd 883d 8be1 aa3d 2ad9 823c
00000350: f578 a33c 7c25 1e3c 0c55 98bc b908 92bd
00000360: 1a9f 803d c12b f6ba 3fac adbc 8877 ca3c
00000370: c82f 51bd b7ec a93b 8f25 803d 01af 8f3d
00000380: ad6c b0bc 046d a33d 9e82 4c3d 13f8 bb3c
00000390: afe6 c53d 0407 25bd c890 7dbd fab6 3ebd
000003a0: 56e9 3f3c 9f5d bd38 d0bf 7e3d 141c 543d
000003b0: 1212 553d 47f7 ab3d cfc3 663c 6592 443d
000003c0: 5a99 153a 0417 873c 3d63 a5bc 65c3 23bd
000003d0: 5ef3 0e3d 12e3 903d 4724 513d 7fed 153d
000003e0: a89d 463d 33ed 863d eb87 863d 90b8 033d
000003f0: 4050 d0bd a2f5 c1bd 55de 61bd dcfb b1bd

fc1.bias f4 [27]
-0.02883754 -0.07247068 -0.016456738 -0.06731209 -0.079954416 -0.012254979 -0.043446247 -0.058773067
-0.07856533 -0.04777894 -0.079696245 0.034087513 0.04230033 0.016338568 -0.08046813 -0.105633676
-0.11536814 -0.06432181 -0.08104215 -0.06829844 -0.08878893 -0.06823264 -0.11593272 -0.11515854
0.030150536 -0.02757391 -0.032267675
00000000: b43c ecbc 826b 94bd 48d0 86bc ecda 89bd
00000010: 24bf a3bd 1cc9 48bc b1f4 31bd 07bc 70bd
00000020: dce6 a0bd dab3 43bd c937 a3bd 599f 0b3d
00000030: 1c43 2d3d 76d8 853c 7acc a4bd 7856 d8bd
00000040: 2246 ecbd 27bb 83bd 6df9 a5bd 0de0 8bbd
00000050: f8d6 b5bd 8ebd 8bbd 226e edbd 3ed8 ebbd
00000060: 42fe f63c aee2 e1bc 1c2b 04bd

fc2.weight f4 [15, 27]
0.106572434 0.12412132 -0.022487793 -0.15035953 -0.039479014 0.004025766 -0.06582633 -0.031042458
0.014798971 -0.08785864 -0.21190313 0.1530404 0.010018155 -0.13115057 -0.055782475 0.08138306
-0.08466787 -0.17541769 0.048310503 -0.08790272 -0.16014673 0.14053676 0.009041055 0.029963212
0.09718079 0.09686959 -0.25013867 -0.016912686 0.14956014 -0.036232773 0.11327217 -0.070464395
-0.10536527 -0.00027628624 0.16967018 0.09349197 -0.19841535 -0.029679287 -0.18675388 -0.002792519
-0.01988172 0.016472774 -0.109214514 0.1000278 -0.038088933 -0.009151936 -0.006617811 -0.18918851
-0.16107401 -0.082857035 0.03788907 -0.062434886 0.12672158 0.16996188 -0.0067849793 0.03517192
0.21837921 0.02500962 0.042077698 0.17328852 0.012414923 -0.10098355 0.12549071 0.009372626
0.097892486 -0.2574389 -0.054229982 0.015714338 -0.17615387 0.1757556 -0.24149545 0.008652729
-0.060574766 -0.14792219 0.09198652 0.11669945 0.04793867 0.15596128 0.1575992 -0.1976282
-0.09146558 0.04627401 0.01937127 0.12039625 0.116650164 -0.01349008 0.088576645 -0.056218393
-0.1846957 0.015634498 0.122639194 0.06511958 -0.040601607 -0.27659485 -0.1208497 0.10173218
-0.15692613 -0.03882914 0.10427384 0.14331387 -0.07748194 -0.1756044 0.0006517636 0.15129629
0.00992278 -0.17349243 -0.074328616 0.09855424 -0.06558598 0.02367695 -0.0824435 -0.21063615
-0.0033737887 0.09425981 -0.16028027 -0.029547418 0.030116733 0.06918427 -0.025441052 -0.4971312
-0.0654753 -0.030410985 -0.06934577 0.09425857 0.1916524 0.02559584 -0.23216428 0.08709394
0.1843964 -0.013072478 0.086260796 0.1237877 0.078784265 0.0788402 -0.031302698 -0.052434802
-0.122959554 -0.21850769 0.048792817 -0.20500867 0.006978682 -0.13742769 -0.2329931 -0.03097003
-0.16680261 -0.010123929 0.18479209 -0.051555682 -0.17373624 0.2493797 -0.16673447 0.1226984
-0.23211417 -0.09071716 0.06412567 -0.061776586 0.0357117 0.05620022 -0.034907807 -0.11819062
-0.085896775 -0.08593294 0.12351189 0.047571916 -0.06276889 -0.10029648 -0.04393627 0.09823154
0.0063355444 -0.05833998 -0.107335225 0.055112127 -0.19026925 -0.14205247 -0.044422872 -0.20920724
-0.094604984 -0.056729738 -0.020687982 -0.08582898 0.1011684 -0.12239267 0.081060015 -0.23094602
-0.18916857 0.10053963 -0.17149025 -0.010838138 -0.01770401 -0.115606844 -0.13847537 0.097909614
0.0832711 -0.27170095 -0.23987715 0.17215928 -0.14030877 -0.16184433 0.13153596 0.04638046
0.028759722 -0.32788774 -0.18638694 -0.02877562 0.07983001 0.18423411 -0.0026136518 0.0052454215
0.09576198 0.15864986 -0.022620328 -0.03466402 -0.06308038 0.049145006 -0.0041519473 -0.18941922
-0.054292012 -0.06813169 -0.047134627 0.14537205 0.06792481 -0.15783258 0.0070311236 -0.010644054
0.09365881 -0.07291746 0.07317083 0.23919544 -0.10001904 -0.046866115 -0.09277965 -0.14610359
0.14105208 0.05197508 -0.042602517 -0.14563958 -0.0981009 -0.13798156 0.109664686 0.066718556
0.015562507 0.04006824 0.15397497 -0.1887574 -0.019474652 -0.15798762 -0.13737047 0.16197762
-0.08977419 -0.15806249 -0.05507192 -0.01684498 -0.1521357 0.05475866 0.0037075025 -0.15630737
00000000: a642 da3d 5233 fe3d 5238 b8bc d9f7 19be
00000010: bfb4 21bd 93ea 833b f4cf 86bd c14c febc
00000020: 6277 723c 3bef b3bd 22fd 58be 9fb6 1c3e
00000030: 3023 243c 564c 06be 2a7c 64bd 29ac a63d
00000040: 5966 adbd b2a0 33be 3ce1 453d 5706 b4bd
00000050: 81fd 23be dee8 0f3e ef20 143c 6975 f53c
00000060: b906 c73d 9063 c63d 2d12 80be 798c 8abc
00000070: 4b26 193e d168 14bd 3dfb e73d a34f 90bd
00000080: bfc9 d7bd 83da 90b9 05be 2d3e b878 bf3d
00000090: 652d 4bbe fa21 f3bc 693c 3fbe b202 37bb
000000a0: fdde a2bc e9f1 863c dcab dfbd 60db cc3d
000000b0: 2403 1cbd 00f2 15bc 39da d8bb a2ba 41be
000000c0: 96f0 24be f3b0 a9bd 9231 1b3d b9bb 7fbd
000000d0: 4dc3 013e 7d0a 2e3e 8854 debb 6e10 103d
000000e0: cd9e 5f3e f9e0 cc3c aa59 2c3d 8c72 313e
000000f0: f667 4b3c 77d0 cebd a380 003e a58f 193c
00000100: db7b c83d 08cf 83be 4220 5ebd 5bbb 803c
00000110: ae61 34be 47f9 333e 954a 77be 2dc4 0d3c
00000120: 3f1d 78bd ea78 17be 6e63 bc3d 1f00 ef3d
00000130: 575b 443d 50b4 1f3e af61 213e 0c5f 4abe
00000140: 4e52 bbbd d189 3d3d 7fb0 9e3c 4f92 f63d
00000150: 48e6 ee3d 7f05 5dbc ac67 b53d 4245 66bd
00000160: df20 3dbe eb13 803c 422a fb3d 6a5d 853d
00000170: df4d 26bd d79d 8dbe 0c80 f7bd f658 d03d
00000180: 3eb1 20be 4e0b 1fbd 868d d53d dfc0 123e
00000190: daae 9ebd a4d1 33be 1ddb 2a3a 6aed 1a3e
000001a0: 2893 223c 00a8 31be 9a39 98bd ced6 c93d
000001b0: f151 86bd 2af6 c13c 23d8 a8bd 01b1 57be
000001c0: c81a 5dbb 4a0b c13d 8320 24be 6d0d f2bc
000001d0: 5eb7 f63c 7cb0 8d3d c169 d0bc fb87 febe
000001e0: ea17 86bd 7520 f9bc 2805 8ebd a30a c13d
000001f0: 8740 443e 5eae d13c 79bc 6dbe 4f5e b23d
00000200: 69d2 3c3e f22d 56bc 80a9 b03d 6884 fd3d
00000210: a559 a13d f976 a13d 4237 00bd e0c5 56bd
00000220: 38d2 fbbd 7bc0 5fbe fada 473d cbed 51be
00000230: 6dad e43b d8b9 0cbe be95 6ebe dcb4 fdbc
00000240: 4ece 2abe d6de 25bc 233a 3d3e 0d2c 53bd
00000250: eae7 31be 645d 7f3e 71bc 2abe 4c49 fb3d
00000260: 56af 6dbe ebc9 b9bd 5254 833d 7209 7dbd
00000270: 6e46 123d 3432 663d 7dfb 0ebd ec0d f2bd
00000280: a6ea afbd 9cfd afbd cdf3 fc3d c5da 423d
00000290: fa8c 80bd 3e68 cdbd 85f6 33bd 9e2d c93d
000002a0: 669a cf3b e7f5 6ebd 92d2 dbbd 41bd 613d
000002b0: f1d5 42be 3476 11be c2f4 35bd 6c3a 56be
000002c0: 42c0 c1bd 715d 68bd d879 a9bc 1bc7 afbd
000002d0: 6131 cf3d 02a9 fabd cb02 a63d 1d7d 6cbe
000002e0: 68b5 41be b9e7 cd3d 249b 2fbe 7292 31bc
000002f0: 0008 91bc 48c3 ecbd 7dcc 0dbe d684 c83d
00000300: 0a8a aa3d 631c 8bbe 5ba2 75be 864a 303e
00000310: 1aad 0fbe 85ba 25be 5db1 063e 70f9 3d3d
00000320: 8299 eb3c e7e0 a7be 38dc 3ebe d9ba ebbc
00000330: eb7d a33d dea7 3c3e cd49 2bbb c9e1 ab3b
00000340: db1e c43d 1c75 223e 444e b9bc dcfb 0dbd
00000350: 4930 81bd 464c 493d 0f0d 88bb 1df7 41be
00000360: 4d61 5ebd a188 8bbd 3d10 41bd 69dc 143e
00000370: 2a1c 8b3d dd9e 21be 5765 e63b 6664 2ebc
00000380: 31d0 bf3d c055 95bd 97da 953d a6ef 743e
00000390: c8d6 ccbd aff6 3fbd 4203 bebd 2e9c 15be
000003a0: f56f 103e d2e3 543d fa7f 2ebd 8b22 15be
000003b0: 20e9 c8bd 0a4b 0dbe e197 e03d bda3 883d
000003c0: e3f9 7e3c 981e 243d 9dab 1d3e 9f49 41be
000003d0: 4e89 9fbc 82c7 21be d8aa 0cbe 76dd 253e
000003e0: 88db b7bd 22db 21be 1893 61bd 7cfe 89bc
000003f0: 76c9 1bbe 9e4a 603d 92f9 723b 0a0f 20be

fc2.bias f4 [15]
-0.05228027 0.2723392 -0.013246019 0.12623022 -0.015683785 0.1372574 0.09627786 -0.14812115
-0.25744873 0.071034625 0.076520614 -0.14354387 -0.009139154 1.1362281 -0.030176979
00000000: d623 56bd 0b70 8b3e d505 59bc 7f42 013e
00000010: 487b 80bc 348d 0c3e 542d c53d 12ad 17be
00000020: 52d0 83be 9a7a 913d d7b6 9c3d 2afd 12be
00000030: 64bc 15bc ec6f 913f b635 f7bc

task_specific_layers.fitness_dp3_activity.weight f4 [1, 15]
0.059003033 -0.19892474 0.21406265 -0.1045992 0.12477841 0.12496154 0.007719705 0.03459665
0.23157018 -0.015417689 -0.032550845 0.023896584 -0.034000963 -0.0940873 0.06226772
00000000: 2aad 713d edb2 4bbe 3d33 5b3e 1b38 d6bd
00000010: d38b ff3d d6eb ff3d 94f5 fc3b 38b5 0d3d
00000020: bc20 6d3e 7a9a 7cbc 0954 05bd c5c2 c33c
00000030: 9844 0bbd d8b0 c0bd 700c 7f3d

task_specific_layers.fitness_stain_removal.weight f4 [1, 15]
0.10939818 0.026580526 0.13114728 0.089053854 0.07421827 0.32273373 0.019190714 -0.18238288
0.061217777 0.14266519 0.13568476 -0.025709772 -0.1272243 -0.53673637 0.07837332
00000000: 270c e03d 67bf d93c 794b 063e de61 b63d
00000010: c0ff 973d 5b3d a53e d835 9d3c 94c2 3abe
00000020: 7ebf 7a3d d316 123e f2f0 0a3e 4d9d d2bc
00000030: 1647 02be 8e67 09bf 3182 a03d
