trained_models/Seq2Fitness_AAmylsase_DEMLPaper_AugmentedDataset__final_model_epoch_80_val_loss_0.8209.pt (torch, 547446 bytes, 14 tensors)

conv1.weight f4 [32, 1280, 1]
0	0xbb835b2d	-0.0040086717
1	0x3deaed63	0.11471059
2	0xbd816c3d	-0.06319473
3	0x3cb6b389	0.022302406
4	0xbd5d90ed	-0.05409329
5	0xbd6115d5	-0.05495246
6	0x3cdccc78	0.026952967
7	0x3d9fbe34	0.0779995
8	0x3c2d3849	0.010572501
9	0x3dc1cda2	0.094630495
10	0xbc72fee0	-0.014831275
11	0x3d29c954	0.041451767
12	0x3d48861b	0.048956018
13	0x3d5b97d8	0.053611606
14	0x3d5b85f0	0.05359453
15	0xbdbbd828	-0.09172088
16	0xbcebec09	-0.028799074
17	0xbbe13aad	-0.00687345
18	0x3c590af9	0.013247245
19	0x3e1e94db	0.15486471
20	0xbcae9f6c	-0.021316253
21	0x3dc7b5ca	0.097514704
22	0xbd3b66e3	-0.045752417
23	0x3d41447c	0.047184452
24	0x3cc8ed59	0.024527239
25	0x3e1fe90b	0.15616243
26	0x3d98f6ec	0.074689716
27	0xbdaa984e	-0.08329831
28	0xbcc58bde	-0.024114545
29	0xbe0688ac	-0.13138074
30	0xbdbcdcfc	-0.09221837
31	0xbc50cc77	-0.012744061
32	0x3d4be04c	0.049774453
33	0x3dbd94b5	0.09256879
34	0x3d2060ba	0.039154746
35	0x3d55c628	0.05219093
36	0x3c8191af	0.015816538
37	0x3d20f37e	0.039294712
38	0x3c6ad191	0.014332191
39	0x3b84f543	0.004057558
40	0xba7f05d9	-0.00097283494
41	0xbd6c1d76	-0.057645284
42	0x3debde6d	0.11517034
43	0xbc7ad063	-0.015308472
44	0xbd20998f	-0.039208945
45	0xbd528147	-0.05139282
46	0x3bd21e21	0.006412283
47	0x3d7e262c	0.062048122
48	0xbce90802	-0.028446201
49	0x3cf56753	0.029956495
50	0xbc2e2034	-0.010627795
51	0x3d79ced8	0.060988277
52	0x3a636e33	0.0008675784
53	0xbd3ef4cc	-0.046620175
54	0x3ccfa352	0.025346432
55	0x3d90c993	0.07069697
56	0x3cea9fb0	0.028640598
57	0xbd8cc1df	-0.068729155
58	0x3e038af2	0.12845972
59	0x3d520f61	0.051284198
60	0xbb830adf	-0.0039990987
61	0x3c71f587	0.014768011
62	0xbd2a23e7	-0.041538145
63	0xbcaf6707	-0.021411432
64	0x3d759353	0.059954952
65	0x3d4d2506	0.050084136
66	0x3c0cafa4	0.008586798
67	0xbd6add3a	-0.057339884
68	0x3dfc389b	0.12315484
69	0xbd6b2c91	-0.05741555
70	0x3d85a07c	0.065247506
71	0x3b639b98	0.0034730192
72	0x3d38da4b	0.045130055
73	0x3bbd9051	0.005785026
74	0x3d8e8d16	0.06960504
75	0x3c78c843	0.015184465
76	0x3dd213df	0.10257696
77	0x3e13967b	0.14412872
78	0xbd902965	-0.070391454
79	0x3ad7d729	0.0016467321
80	0xbd854204	-0.06506732
81	0x3db9e7ec	0.09077439
82	0xbcdd4faf	-0.027015535
83	0x3e12118f	0.1426451
84	0xbd7f4d15	-0.06232937
85	0xbd2f5ce4	-0.042813197
86	0x3df807db	0.12110873
87	0x3c9d51f3	0.019204115
88	0xbd81ac4a	-0.0633169
89	0x3e2fd7bd	0.17172141
90	0x3d99c2c4	0.07507852
91	0x3dae5f24	0.085142404
92	0xbd2095ba	-0.03920529
93	0xbd38b536	-0.04509469
94	0x3d099b85	0.03359558
95	0x3d3f685b	0.04673038
96	0xbcaf10ac	-0.021370254
97	0xbd3ab5b9	-0.04558346
98	0x3daaa06b	0.083313785
99	0x3d8b4f7b	0.06802269
100	0xbba687cc	-0.005082106
101	0xbd15f25b	-0.03660808
102	0x3caeac0c	0.021322273
103	0x3d71f980	0.059075832
104	0xbc913158	-0.017723724
105	0x3b9d9d94	0.0048100445
106	0xbd0102ab	-0.031496685
107	0x3d9bc37d	0.07605646
108	0x3c722565	0.014779423
109	0x3d9d76df	0.076886885
110	0x3d8ffc6c	0.070305675
111	0x3dc7c0c0	0.09753561
112	0xbcaed488	-0.021341577
113	0x3d80b796	0.06285016
114	0xbd0a70a5	-0.033798832
115	0x3c4b2076	0.012397876
116	0x3d7f0862	0.062263854
117	0xbd41fbbe	-0.04735922
118	0x3cd6784d	0.02618041
119	0xbdba3b2f	-0.090933196
120	0xbb6392e0	-0.0034724995
121	0x3bed935b	0.007250232
122	0x3dcdd709	0.1005078
123	0x3d886042	0.06658985
124	0x3c382396	0.011238953
125	0x3c271406	0.010197645
126	0x3d71527d	0.058916558
127	0x3c7817c9	0.01514239
128	0x3cb534e2	0.022119943
129	0xbd24bdd2	-0.04022009
130	0x3d288514	0.04114254
131	0x3d00cc13	0.03144462
132	0x3df18f4d	0.117949106
133	0xbcbbccdd	-0.022924835
134	0xbdad770c	-0.08469972
135	0x3da1bfdb	0.07897922
136	0x3c8cd24c	0.017190121
137	0x3c545d16	0.012961647
138	0x3d02a711	0.03189761
139	0x3cfdcbfd	0.030981058
140	0x3def2221	0.116764314
141	0x3ce050b2	0.027382229
142	0x3d95704b	0.07296809
143	0x3d9b17fb	0.07572933
144	0x3daa5565	0.08317069
145	0x3cf4fb1e	0.029904898
146	0x3d9c4e1d	0.076320864
147	0x3ce74570	0.028231353
148	0x3d33f2c2	0.043932684
149	0x3d87cd6f	0.0663098
150	0x3c560d28	0.01306466
151	0x3d53b324	0.051684514
152	0x3d2dbe62	0.04241789
153	0x3c041687	0.008062012
154	0x3c0161dd	0.007896868
155	0xbd250c02	-0.040294655
156	0x3b97a75d	0.0046281056
157	0xbc4b000e	-0.01239015
158	0x3d46b3e5	0.048511405
159	0x3bae38e9	0.005316843
160	0xbcdedf7d	-0.027206177
161	0xbd02d896	-0.031944834
162	0x3d1cb7a2	0.038261063
163	0xbc11b1d0	-0.008892491
164	0x3d5d3c2e	0.05401247
165	0x3d69bfcc	0.057067677
166	0x3d4153d0	0.04719907
167	0x3c649f0f	0.013953938
168	0x3d820027	0.06347685
169	0x3d1014e0	0.035176158
170	0x3cc66401	0.024217607
171	0xbca13cc0	-0.019682288
172	0x3c8c517f	0.017128704
173	0x3d8d411e	0.06897186
174	0xbd0f0ca9	-0.034924183
175	0x3bdc20f9	0.006717798
176	0x3c3c2ee6	0.011485791
177	0x3e58df30	0.2117889
178	0x3d17ae69	0.037031565
179	0x3df86b93	0.12129893
180	0xbcabc28b	-0.020966789
181	0xbd45f22b	-0.048326652
182	0x3de233bf	0.11045026
183	0x3d36ef0e	0.044661574
184	0xbcf91204	-0.030404098
185	0xbbea94a7	-0.007158834
186	0xbc7a9fd6	-0.015296897
187	0xbbd68899	-0.0065470454
188	0xbc880f62	-0.016608898
189	0x3d4d66be	0.05014681
190	0x3da47a9a	0.08031197
191	0x3e072e13	0.1320117
192	0x3cc53b21	0.024076046
193	0x3d5b317d	0.053513993
194	0xbce76dd1	-0.028250607
195	0x3cdf216a	0.027237613
196	0xbd52dbbb	-0.051479083
197	0x3d64c417	0.05585107
198	0x3c931bdf	0.017957626
199	0xbd07030e	-0.032961898
200	0x3d931bba	0.07183023
201	0x3dcd0164	0.10010031
202	0x3cfeb0d8	0.031090185
203	0x3ca3fc35	0.020017723
204	0x3d66c87a	0.056343533
205	0xbbf9069e	-0.007599666
206	0xbd443933	-0.047906112
207	0x3d89c94d	0.06727848
208	0xbc836e96	-0.016043942
209	0x3c9df95e	0.019283947
210	0x3d253f38	0.040343493
211	0xba862b8e	-0.0010236369
212	0xbcf23a3d	-0.029568786
213	0x3a81217f	0.0009851902
214	0xbd06cace	-0.032908253
215	0x3e4262d4	0.18983012
216	0x3da70ff1	0.081573375
217	0xbd491b06	-0.049098037
218	0x3da12184	0.07867721
219	0xbd05e81b	-0.032692056
220	0x3d39f520	0.045399785
221	0x3dc146b2	0.09437312
222	0x3d33cfb5	0.043899257
223	0xbb0e7321	-0.0021736103
224	0x3ce4487c	0.027866594
225	0xbd5f1908	-0.05446723
226	0x3bff346a	0.0077882307
227	0xbd3ed32d	-0.04658811
228	0xbd464b5c	-0.048411712
229	0x3d8048e0	0.062639
230	0xbc1b9e2d	-0.009498161
231	0xbbddbf7a	-0.0067672106
232	0xbd3bf7be	-0.045890562
233	0x3d4b9c1b	0.04970942
234	0x3e2860ce	0.16443178
235	0x3dc5fdef	0.096675746
236	0x3e0dcbd6	0.13847288
237	0x3ce98911	0.028507741
238	0xbcb98c24	-0.022649832
239	0x3d3bfc57	0.045894947
240	0xbc4d1766	-0.012517786
241	0xbb8a7d12	-0.0042263353
242	0x3c9d96f5	0.019237021
243	0x3db20958	0.086931884
244	0xbb73fc1a	-0.0037229122
245	0x3d96701b	0.07345601
246	0x3a973309	0.0011535595
247	0xbd57ae3d	-0.0526564
248	0xbcda37e8	-0.026637986
249	0x3da7fea1	0.082028635
250	0xbcbf1608	-0.023325935
251	0x3d6b6c20	0.057476163
252	0x3d6431d2	0.055711575
253	0x3da2c61d	0.07947943
254	0x3c23bc5f	0.009993642
255	0xbd825fb9	-0.06365914

conv1.bias f4 [32]
0	0xbad00c86	-0.0015872873
1	0xbc172121	-0.009224207
2	0x3c63016e	0.013855321
3	0xbc7f0552	-0.015565233
4	0x3b0d1297	0.0021525973
5	0x3cb8d2df	0.022561489
6	0xbcf525f7	-0.02992533
7	0x3a829a7f	0.0009964256
8	0x3c1e27b8	0.009653024
9	0xbc8d5ea5	-0.017257044
10	0x3c18efe0	0.009334534
11	0x3a8fc4e2	0.001096871
12	0xbd0c4866	-0.034248732
13	0xbb63fc71	-0.0034787918
14	0x3c249dac	0.0100473575
15	0xbb3cf364	-0.0028831596
16	0xbc224b92	-0.009905713
17	0x3cccbc84	0.024992235
18	0xbbbd9e36	-0.0057866825
19	0xbc9d52b3	-0.019204473
20	0x3d596537	0.05307504
21	0x3ca683b9	0.020326482
22	0x3c184177	0.009292952
23	0x3b736da0	0.00371442
24	0xbd1621e0	-0.0366534
25	0xbaf26b84	-0.0018495177
26	0xbc7f25d9	-0.015572988
27	0x3cd18797	0.02557735
28	0xbc11f736	-0.008909037
29	0xbbf06778	-0.007336553
30	0xbc82f9b4	-0.015988208
31	0x3b7c4cab	0.0038497846

conv2.weight f4 [32, 1280, 1]
0	0xbe29f580	-0.16597557
1	0x3e8458db	0.2584904
2	0x3f872e53	1.0561012
3	0x3ec81ea9	0.39085892
4	0xbe02a9d3	-0.12760095
5	0x3e4bd30b	0.19904725
6	0x3e475429	0.19465698
7	0x3e7d43e6	0.24732932
8	0x3e9daa61	0.3079405
9	0xbda0aa41	-0.07844973
10	0xbefb0827	-0.49029657
11	0xbefa027a	-0.48830014
12	0xbec4f850	-0.38470697
13	0xbe40fac8	-0.18845665
14	0x3cc314d5	0.023813644
15	0xbf4c8329	-0.79887635
16	0xbf18fac1	-0.5975762
17	0x3e9c0358	0.304713
18	0x3d6eef54	0.05833371
19	0xbe805a10	-0.25068712
20	0x3e5f3a04	0.21799475
21	0xbe7aa1ba	-0.24475756
22	0x3b988bf4	0.0046553556
23	0x3a82b871	0.0009973181
24	0x3ed2b91d	0.41156855
25	0xbea7df6a	-0.3278764
26	0x3e9b4614	0.30326903
27	0xbf0c3589	-0.5476919
28	0x3f220629	0.6329065
29	0xbebe24ab	-0.3713735
30	0x3f3d33d8	0.7390723
31	0xbed7d3f9	-0.4215391
32	0xbde123bb	-0.10993143
33	0xbc1d3c32	-0.009596871
34	0xbd5c020b	-0.053712886
35	0x3e8b20ec	0.27173555
36	0xbbe6687f	-0.0070315
37	0x3efb0564	0.4902755
38	0xbdc6c3a6	-0.09705286
39	0x3f345478	0.7044139
40	0xbe906095	-0.28198686
41	0xbef0311a	-0.46912462
42	0x3e8f0ee7	0.27941057
43	0x3e31cc05	0.17362984
44	0xbeaec0d6	-0.34131497
45	0xbe8bae0f	-0.27281234
46	0xbf64ae6a	-0.89328635
47	0xbecdea9b	-0.40218052
48	0x3ee1bdd9	0.44090155
49	0x3e2f192e	0.17099449
50	0xbf56cf62	-0.8391019
51	0xbf321aad	-0.69571954
52	0x3f35a025	0.70947486
53	0x3e437140	0.1908617
54	0xbcbfae20	-0.023398459
55	0xbdb07920	-0.08616853
56	0x3e42e8a1	0.19034053
57	0x3e0d5805	0.13803108
58	0x3f36eeef	0.71458334
59	0xbca7a9f8	-0.02046679
60	0xbf241da1	-0.6410771
61	0xbe63dda3	-0.22252516
62	0xbeb3f98d	-0.3515133
63	0xbe6b4a48	-0.22977555
64	0xbf68f175	-0.90993434
65	0x3e97c2ab	0.29640707
66	0x3f835864	1.026135
67	0xbee802bc	-0.45314586
68	0x3eacc6d6	0.3374545
69	0xbf578ff1	-0.8420401
70	0x3e7b0e20	0.24517107
71	0xbe81b74e	-0.25335163
72	0x3e2d7b59	0.16941585
73	0xbf173b10	-0.590745
74	0xbe2628ac	-0.16226453
75	0x3e8c9c55	0.27463022
76	0x3e1a6b28	0.1507994
77	0xbf4d563a	-0.80209696
78	0x3e855cf9	0.26047495
79	0xbf4045c3	-0.7510645
80	0x3e618804	0.22024542
81	0x3ec7ed06	0.39048022
82	0x3f817e50	1.0116673
83	0xbee012d2	-0.4376436
84	0xbf15cb82	-0.58513653
85	0xbefe9311	-0.49721578
86	0x3d251a4c	0.04030828
87	0xbed89e41	-0.42308238
88	0xbf2dab48	-0.6783948
89	0x3e650b00	0.22367477
90	0x3e3edbd9	0.18638553
91	0x3e1a98ae	0.15097305
92	0x3ea7b884	0.32757962
93	0x3f02a4a0	0.5103245
94	0xbe789a01	-0.24277498
95	0xbebd3298	-0.36952662
96	0xbe60ffa9	-0.21972527
97	0xbe5b624f	-0.2142422
98	0xbea330db	-0.3187321
99	0x3e983107	0.29724905
100	0x3ec065ac	0.3757757
101	0xbe06b6ab	-0.1315562
102	0x3e8451f0	0.25843763
103	0x3e9cf33c	0.30654323
104	0xbed819dd	-0.42207232
105	0xbd961e16	-0.07329957
106	0xbf01ca1f	-0.5069904
107	0x3f15f452	0.5857593
108	0xbee7699e	-0.45197767
109	0x3ea4a8a9	0.32159927
110	0x3ec7152d	0.38883343
111	0x3e8ff29d	0.28114787
112	0xbee4beab	-0.44676718
113	0x3ead73f6	0.33877534
114	0xbfc61aae	-1.5476892
115	0xbe5bc745	-0.21462734
116	0xbe193b9f	-0.1496415
117	0xbd5a760d	-0.05333524
118	0x3e964da2	0.29356104
119	0x3e80359e	0.25040907
120	0xbef73ec7	-0.48290083
121	0x3e8bd15f	0.27308175
122	0x3f0c026d	0.546912
123	0x3e3979d2	0.18112877
124	0xbe438f65	-0.1909767
125	0xbdb0ef68	-0.08639413
126	0xbebf2906	-0.37335986
127	0xbea11a10	-0.31465197
128	0xbc2d84d4	-0.010590751
129	0x3eba60bd	0.3640193
130	0xbf026e8e	-0.50949943
131	0x3e88bae9	0.267051
132	0x3eae612b	0.34058508
133	0x3e91f51f	0.28507325
134	0x3e30b7d8	0.17257631
135	0x3d925d18	0.071466625
136	0x3df05563	0.11735036
137	0x3f28a680	0.6587906
138	0x3ee0fca7	0.43942758
139	0x3e6fc8bf	0.23416422
140	0x3bb74f9e	0.005594208
141	0x3e327e25	0.17430933
142	0x3ef77a1e	0.48335356
143	0x3d93fbea	0.07225783
144	0x3ed1490b	0.4087604
145	0x3f4d6219	0.8022781
146	0xbf6ba657	-0.9205069
147	0x3f5aec11	0.8551646
148	0xbdf0d2bb	-0.11758944
149	0xbe8f43c4	-0.2798139
150	0x3f57ddff	0.84323114
151	0xbe828b35	-0.25496832
152	0x3d1a5707	0.037680652
153	0xbf3d194a	-0.73866713
154	0xbf7280ed	-0.94727975
155	0xbd3a7cea	-0.045529284
156	0x3f34a4dd	0.7056406
157	0x3d8b2597	0.06794279
158	0x3f21ac58	0.631536
159	0x3efa5188	0.48890328
160	0x3d884911	0.06654561
161	0xbe98a543	-0.29813585
162	0xbf781f1e	-0.9692248
163	0xbe16ca33	-0.1472557
164	0xbf3ef2f3	-0.7458946
165	0x3f2487fd	0.6427
166	0xbe2d654b	-0.16933171
167	0xbe09bee4	-0.13451725
168	0x3eb1fe6d	0.34764424
169	0x3edd2624	0.4319316
170	0xbf134f2d	-0.5754269
171	0xbea38e79	-0.31944636
172	0x3de5eb5c	0.11226532
173	0x3f6a5c62	0.91547215
174	0x3d836463	0.064156316
175	0xbe985eb1	-0.29759744
176	0xbdce7a5d	-0.10081933
177	0x3ce799d5	0.028271595
178	0x3d2631b7	0.040574756
179	0x3f0384d8	0.5137458
180	0x3d5fe55b	0.05466209
181	0x3ef99d87	0.48752996
182	0x3d35bb21	0.044367913
183	0x3e1e697e	0.1546993
184	0xbed1c0b8	-0.40967345
185	0x3ea0390c	0.31293523
186	0xbf17cd50	-0.59297657
187	0x3f3e77d6	0.74401605
188	0xbeaa9b35	-0.3332154
189	0x3f1db2ce	0.6160096
190	0x3e2b62cf	0.16736911
191	0xbf15066b	-0.5821292
192	0x3ef091e3	0.46986303
193	0x3dd51e6d	0.10406194
194	0x3ddf8c47	0.10915428
195	0x3ea50c57	0.32235977
196	0x3ed0c818	0.4077766
197	0x3e53e637	0.20693289
198	0x3f867509	1.0504466
199	0xbede860a	-0.4346164
200	0xbb54f182	-0.0032492583
201	0x3e94a0ae	0.2902884
202	0xbeb859a7	-0.360059
203	0x3ecbcc2e	0.39804214
204	0xbe0442f1	-0.12916161
205	0x3f12f8fb	0.57411164
206	0x3f532ec5	0.8249324
207	0x3daa7880	0.08323765
208	0xbf23feee	-0.64060867
209	0xbca42dc6	-0.020041358
210	0xbe1b7838	-0.15182579
211	0x3f19ca01	0.6007386
212	0x3f2dc654	0.6788075
213	0x3e845fff	0.2585449
214	0xbedb2413	-0.4280096
215	0x3e0cebdc	0.13761848
216	0x3de5b58f	0.1121627
217	0xbf71fb35	-0.94523937
218	0xbeaa7002	-0.3328858
219	0x3d473ef1	0.04864401
220	0xbe86c3df	-0.26321313
221	0xbe9381c8	-0.28809953
222	0x3f1618ab	0.5863139
223	0xbe5b8a7f	-0.21439551
224	0x3d616111	0.05502421
225	0x3db8ac26	0.0901721
226	0xbe919f55	-0.28441873
227	0x3f122285	0.5708392
228	0x3ed26e17	0.41099617
229	0xbe2f6ba6	-0.17130908
230	0xbf29791c	-0.66200423
231	0x3f3d448b	0.73932713
232	0xbdf9fbf2	-0.12206258
233	0x3edf4bd9	0.43612555
234	0xbd0bc3a7	-0.034122135
235	0x3ea34f34	0.31896365
236	0xbeb9d1ee	-0.36292976
237	0x3e0c711d	0.13715024
238	0x3e700361	0.23438789
239	0x3ee0853d	0.43851653
240	0xbe9965c3	-0.2996045
241	0xbf7b1817	-0.98083633
242	0x3eeb575b	0.45965084
243	0x3f15f134	0.5857117
244	0x3ea1e714	0.3162161
245	0x3ed69b06	0.41915148
246	0xbe17d81d	-0.14828534
247	0xbe377fa6	-0.17919788
248	0x3e1b6917	0.15176807
249	0xbe826bc3	-0.2547284
250	0xbbfe6995	-0.007764051
251	0x3e2a58f2	0.16635492
252	0xbf195c8c	-0.5990684
253	0x3e638a1d	0.22220655
254	0xbf465d0a	-0.77485716
255	0x3e3b3aed	0.18284197

conv2.bias f4 [32]
0	0x3a9e9745	0.0012099525
1	0x3ceefd1a	0.029173423
2	0x3c9cfa0d	0.019162202
3	0x3b2fbfa0	0.0026817098
4	0xbd0fad01	-0.0350771
5	0x3db4fd48	0.08837372
6	0x3a12ac31	0.00055951165
7	0xbd1c9a55	-0.03823312
8	0x3cae8a30	0.021306127
9	0xbd0bd9af	-0.034143146
10	0x3c57d640	0.01317364
11	0x3c81d79a	0.015849877
12	0x3cab4875	0.020908574
13	0x3ccb15c2	0.024790648
14	0x3cb2db07	0.021832956
15	0x3c98c11a	0.018646766
16	0x3cee9a82	0.02912641
17	0x3c5e0322	0.013550552
18	0xbc84ec33	-0.01622591
19	0x3c04441c	0.008072879
20	0x3c8b3696	0.016993802
21	0xbca0293f	-0.019550918
22	0xbca263a0	-0.019822896
23	0xbdd524c7	-0.10407405
24	0x3d039a1a	0.032129385
25	0xbd3385d5	-0.043828804
26	0xbe263634	-0.16231614
27	0x3c9714c2	0.018442515
28	0x3b288c34	0.0025718333
29	0xbc983f6f	-0.018584935
30	0xbb2b9779	-0.0026182814
31	0x3cd2bb24	0.025724001

prob_conv1.weight f4 [32, 20, 1]
0	0x3c91d6cc	0.017802618
1	0xbcdbb5c8	-0.026820078
2	0x3d772c7b	0.060345154
3	0xbd756302	-0.059908874
4	0xbd1eef1f	-0.038802262
5	0x3e59f04e	0.21283075
6	0xbdcd7020	-0.10031152
7	0xbda3351c	-0.07969114
8	0xbe1e2e38	-0.15447319
9	0xbe23eacd	-0.16007538
10	0x3ba67de5	0.0050809258
11	0x3dd98487	0.10620981
12	0x3e21b788	0.15792668
13	0xbcd09707	-0.02546264
14	0xbd5876c6	-0.052847646
15	0x3d4f3dc4	0.050596014
16	0x3db0e7f2	0.0863799
17	0x3d1782e1	0.03699005
18	0xbe176f5f	-0.14788578
19	0x3e12d941	0.14340688
20	0xbe32896b	-0.17435233
21	0xbe3f72e9	-0.18696178
22	0x3d93adf5	0.07210914
23	0x3d3be1bb	0.04586957
24	0xbe312663	-0.172998
25	0xbe1423b3	-0.14466743
26	0xbe2ce427	-0.16883908
27	0x3dd1866d	0.10230718
28	0xbd466e76	-0.048445188
29	0x3e348a03	0.17630772
30	0x3e2d351b	0.1691479
31	0x3e28716a	0.16449514
32	0x3dd4782d	0.10374484
33	0xbe2b8ff5	-0.16754134
34	0x3e297965	0.16550215
35	0x3dea11bb	0.11429163
36	0x3df7f1a8	0.12106639
37	0xbda65faf	-0.08123719
38	0x3db6f148	0.089327395
39	0xbe028be4	-0.12748677
40	0x3d8b9628	0.068157494
41	0x3e39fb10	0.18162179
42	0xbdf33b77	-0.118765764
43	0xbd7355ee	-0.05940812
44	0x3e04e04f	0.12976192
45	0x3dc67471	0.09690178
46	0x3deb955a	0.11503096
47	0x3d6c71cd	0.057725716
48	0xbda5fe6a	-0.08105166
49	0x3db7e458	0.089791
50	0xbe69a4a0	-0.22816706
51	0x3de09f0e	0.10967837
52	0xbdd11a10	-0.10210049
53	0xbe6d438c	-0.23170298
54	0xbd1b4abf	-0.03791308
55	0xbcee6e41	-0.029105308
56	0xbe24d5c9	-0.16097178
57	0x3d3c5fd2	0.04598982
58	0x3d9bec5d	0.07613442
59	0x3ce25a99	0.027631091
60	0x3d7b29c0	0.061319113
61	0x3d378b27	0.04481044
62	0xbd42cdc2	-0.047559507
63	0xbd6cf4aa	-0.057850517
64	0x3e0106e2	0.12600282
65	0xbe7f98c6	-0.24960622
66	0xbe58736f	-0.21137784
67	0x3deafe55	0.11474291
68	0x3d1c21d9	0.038118217
69	0x3e0bf6dd	0.1366839
70	0xbe68f44a	-0.22749439
71	0x3dde3076	0.10849087
72	0xbd992103	-0.074769996
73	0xbd82d188	-0.06387621
74	0xbcefb0c4	-0.029259093
75	0x3bb8f366	0.0056442497
76	0x3e21afc0	0.157897
77	0x3d1c3fc0	0.038146734
78	0xbd1b78c2	-0.03795696
79	0x3e2f8126	0.1713911
80	0x3e0953d2	0.13410881
81	0x3cbb9778	0.022899374
82	0xbd296638	-0.04135725
83	0x3dab7794	0.08372417
84	0xbdf9fee0	-0.12206817
85	0x3e3ac58e	0.18239424
86	0xbe36c971	-0.17850281
87	0xbd4c756d	-0.049916673
88	0xbdcdbfc8	-0.10046345
89	0xbdf4c060	-0.11950755
90	0x3cb362e9	0.02189775
91	0x3e263976	0.16232857
92	0xbe1e98c1	-0.15487958
93	0x3dddde6a	0.10833438
94	0x3e21e3f2	0.1580961
95	0x3e17b6ed	0.14815874
96	0xbe3dc6c4	-0.18532854
97	0xbe01c372	-0.12672213
98	0xbd2c45c8	-0.042058736
99	0x3e0c7c73	0.13719349
100	0x3e00e915	0.12588914
101	0xbc07ec77	-0.008296124
102	0xbc73afaf	-0.014873429
103	0x3dc025e1	0.09382225
104	0xbe46fc34	-0.19432145
105	0x3d78c160	0.06073129
106	0xbcf73f84	-0.030181654
107	0x3e1d1151	0.15338637
108	0x3ddaead7	0.106893234
109	0xbe0bc6e0	-0.13650084
110	0x3d302840	0.043007135
111	0xbda6209f	-0.08111691
112	0x3d94325a	0.07236166
113	0xbe0bbd5d	-0.13646455
114	0x3dd6ae07	0.10482412
115	0xbe2add43	-0.16685967
116	0xbe7c7125	-0.24652536
117	0x3e00b7f6	0.12570176
118	0xbc1cfad0	-0.009581283
119	0x3dabd0c0	0.08389425
120	0x3d509706	0.050925277
121	0xbc66e05a	-0.0140915755
122	0xbd35d0af	-0.04438847
123	0x3d3ade91	0.045622412
124	0xbcc817ed	-0.024425471
125	0xbe1a5431	-0.15071179
126	0x3d6b78ae	0.057488136
127	0xbd8b5f9f	-0.06805348
128	0xbe29c0a9	-0.165774
129	0x3d64ce30	0.0558607
130	0x3e4ef102	0.20209125
131	0xba49a52f	-0.0007692156
132	0xbced88a4	-0.02899582
133	0xbd3af2a6	-0.045641564
134	0xbd19f886	-0.037590526
135	0xbe0582ae	-0.13038132
136	0x3d7867e3	0.06064595
137	0x3dbdac3c	0.09261367
138	0x3d3027b8	0.04300663
139	0x3db7f3cc	0.089820474
140	0xbe45052e	-0.19240257
141	0x3d62dd51	0.055386845
142	0x3e185862	0.14877465
143	0xbcce8e58	-0.02521436
144	0xbc21847f	-0.00985825
145	0x3d8fa830	0.07014501
146	0x3d375164	0.044755355
147	0x3c863274	0.01638148
148	0x3d5a6555	0.053319294
149	0xbe397506	-0.18111047
150	0xbcb1de4a	-0.021712441
151	0x3e5cb4d4	0.21553355
152	0x3cbb8dee	0.022894826
153	0xbd39ae7b	-0.045332413
154	0xbc64c13a	-0.013962084
155	0xbd0bdd88	-0.034146816
156	0x3d8687a5	0.06568841
157	0xbdbebb95	-0.09313122
158	0xbd831c32	-0.06401862
159	0xbd464410	-0.048404753
160	0xbe257ba1	-0.16160442
161	0x3da0d5d7	0.07853287
162	0x3e0c7235	0.13715442
163	0x3e1d2847	0.15347396
164	0x3d270e69	0.040785227
165	0x3df766fc	0.120801896
166	0x3c754a53	0.014971334
167	0xbdfc8cc6	-0.12331538
168	0x3e32d2cc	0.17463225
169	0x3ce82a42	0.028340463
170	0x3bb8a4a7	0.0056348625
171	0xbe5f2124	-0.21789986
172	0xbdc4a9a7	-0.09602671
173	0xbe49271f	-0.1964383
174	0x3b9659a4	0.0045883227
175	0x3d81ff4b	0.063475214
176	0x3d732f4e	0.059371285
177	0xbe0f7c45	-0.14012249
178	0xbde5a0f5	-0.11212341
179	0x3dde05e8	0.1084097
180	0xbe41958a	-0.18904701
181	0x3df3933e	0.118933186
182	0x3c3f4d3f	0.011676132
183	0x3d5863cd	0.052829552
184	0x3bc18c66	0.0059066294
185	0xbb807241	-0.00391987
186	0x3dceb73a	0.100935414
187	0x3dd1a6d9	0.10236902
188	0xbc623955	-0.013807614
189	0xbded2cdc	-0.11580822
190	0x3e30f272	0.17279986
191	0xbd11b7ee	-0.0355758
192	0x3d998ec4	0.074979335
193	0xbe708798	-0.23489225
194	0xbd315781	-0.04329634
195	0xbe0acaf3	-0.13553981
196	0xbdc7375f	-0.09727358
197	0x3e1bccef	0.15214895
198	0xbe55c7a6	-0.20876941
199	0x3e218c2c	0.15776128
200	0xbcecdd56	-0.028914135
201	0x3c9fa088	0.019485727
202	0x398bedf3	0.00026689432
203	0xbd429c0b	-0.047512095
204	0x3cb0cff0	0.021583527
205	0x3d69fe85	0.057127494
206	0xbd7cbfe7	-0.06170645
207	0x3de6725d	0.11252282
208	0xbe03dff1	-0.12878396
209	0x3d79a534	0.060948566
210	0x3e47bec4	0.19506365
211	0xbd780913	-0.06055553
212	0xbdf32e33	-0.11874046
213	0xbdaf6fae	-0.08566223
214	0x3e209823	0.15683036
215	0x3daae714	0.08344856
216	0xbd9e5fd8	-0.077331245
217	0xbd92f3c0	-0.07175398
218	0x3d869312	0.0657102
219	0xbe1f886a	-0.15579382
220	0x3de9d8f6	0.11418335
221	0x3e35d840	0.17758274
222	0xbb046099	-0.0020199178
223	0xbe3da7c4	-0.18521029
224	0xbe47a37e	-0.19495961
225	0x3d69c87f	0.057075974
226	0x3e0c1fd4	0.13684016
227	0xbddc4f9e	-0.10757373
228	0xbdbc9325	-0.09207753
229	0xbe63e09b	-0.22253649
230	0xbe0db0d8	-0.13836992
231	0xbd8bf368	-0.068335354
232	0x3dad8d55	0.084742226
233	0x3e467c12	0.19383267
234	0x3cba29e3	0.022725051
235	0xbd0dcbed	-0.034618307
236	0x3e30ba4f	0.17258571
237	0xbd331ad9	-0.043726776
238	0x3cae266b	0.021258553
239	0xbc9ac22b	-0.018891415
240	0x3ddac318	0.106817424
241	0x3dee5085	0.11636452
242	0x3dd5b60b	0.104351126
243	0xbe325e46	-0.17418775
244	0xbd2f059a	-0.04272995
245	0xbe00bc99	-0.12571944
246	0x3d8925de	0.06696676
247	0xbe41bab1	-0.18918873
248	0xbda0f5d8	-0.07859391
249	0xbe3d0096	-0.18457255
250	0x3e50a5d7	0.20375763
251	0x3e031562	0.12801126
252	0x3e1d910a	0.1538736
253	0x3e0506e2	0.12990907
254	0x3cbec146	0.02328552
255	0xbd780dd9	-0.06056008

prob_conv1.bias f4 [32]
0	0xbe626fb4	-0.22112924
1	0x3d8a914a	0.06765993
2	0x3e5ee177	0.21765696
3	0xbe2296f3	-0.15877895
4	0xbe51948e	-0.20466825
5	0x3df3505d	0.118805625
6	0x3daeb70f	0.085310094
7	0xbc956980	-0.018238783
8	0xbd8c2796	-0.06843488
9	0x3e0fe089	0.14050497
10	0xbe146b7d	-0.14494129
11	0x3e2ffb36	0.17185673
12	0x3d544f95	0.051833708
13	0x3d981bc7	0.07427173
14	0x3e390630	0.18068767
15	0x3e2eb331	0.17060544
16	0xbcb3db34	-0.02195511
17	0x3e0a3c4f	0.13499568
18	0x3e0828dd	0.13296838
19	0x3dad4459	0.08460302
20	0xbddc1902	-0.10746957
21	0x3db0fd79	0.08642096
22	0xbe1f07ef	-0.1553037
23	0x3df44bf2	0.11928548
24	0xbd898695	-0.067151226
25	0x3e273596	0.16329035
26	0x3daa8e28	0.083278954
27	0x3de045e0	0.109508276
28	0x3df75805	0.12077335
29	0xbcec9136	-0.028877836
30	0x3e69af01	0.22820665
31	0x3d834193	0.06408992

prob_conv2.weight f4 [32, 20, 1]
0	0x3c7bfac3	0.0153796105
1	0x3dff490d	0.12465105
2	0x3b93f800	0.004515648
3	0xbe207ffb	-0.1567382
4	0xbda57187	-0.08078294
5	0xbe2e15ca	-0.170005
6	0x3e29a4e3	0.16566806
7	0xbe3d2bba	-0.18473712
8	0x3d93da24	0.072193414
9	0xbcf4be88	-0.029876009
10	0xbce2e04d	-0.027694846
11	0xbe316bf6	-0.1732634
12	0xba2bfa0f	-0.0006560394
13	0xbc530303	-0.012879136
14	0x3e4552b5	0.19269831
15	0x3e2e7f35	0.17040713
16	0xbe4a8be8	-0.19779932
17	0xbda40543	-0.08008816
18	0x3e2d6683	0.16933636
19	0xbc929933	-0.017895317
20	0x3e218e44	0.15776926
21	0x3e5e19d8	0.21689546
22	0xbdd0fe05	-0.102047004
23	0x3d7d0d09	0.06178001
24	0xbe063679	-0.13106717
25	0xbdb4299a	-0.08796997
26	0xbe12ae73	-0.1432436
27	0x3e40ae54	0.18816501
28	0x3d568484	0.05237247
29	0x3d251329	0.040301476
30	0x3decd893	0.11564746
31	0xbe0f7a50	-0.14011502
32	0x3e763ed9	0.24047412
33	0x3e3140f3	0.17309932
34	0x3e16e468	0.14735568
35	0x3d7c1e81	0.06155253
36	0xbd488158	-0.048951477
37	0xbe200b15	-0.15629227
38	0xbe26c199	-0.16284789
39	0x3d5cccc5	0.05390622
40	0xbe36c5cd	-0.17848893
41	0xbd062dd4	-0.03275855
42	0xbc254477	-0.010087124
43	0xbd0f80b5	-0.035034854
44	0x3d0ddd7e	0.03463506
45	0x3daa8319	0.08325786
46	0xbe2d13ab	-0.16902034
47	0x3c87a025	0.016555855
48	0x3d5d7a90	0.054071963
49	0x3d9bcb0f	0.0760709
50	0x3d5d7820	0.05406964
51	0xbe07f5e0	-0.13277388
52	0x3d1ada17	0.037805643
53	0x3e38a0b4	0.18030053
54	0xbe348b74	-0.17631322
55	0x3e345e8c	0.17614192
56	0x3e07b893	0.13254003
57	0x3e16ae52	0.14714935
58	0xbcbfb8fb	-0.023403635
59	0xbdf07f4b	-0.11743029
60	0xbd865d0e	-0.065607175
61	0xbe2063ef	-0.15663122
62	0x3d55347f	0.052052017
63	0x3e1f569e	0.15560386
64	0xbdbf8bba	-0.093528226
65	0x3e2b2b41	0.16715719
66	0xbd3074b4	-0.043080047
67	0xbdddb1e6	-0.10824947
68	0x3d91452b	0.07093271
69	0x3b41e8a5	0.002958813
70	0xbe6262f5	-0.22108062
71	0xbd025367	-0.03181782
72	0x3df0eea3	0.11764266
73	0x3d57f7c2	0.052726515
74	0x3dfce6e2	0.12348725
75	0x3d979ce9	0.07402975
76	0x3e324bbc	0.17411703
77	0x3dd969f9	0.10615916
78	0xbc9142f7	-0.017732127
79	0xbe7d6bdb	-0.24748175
80	0x3dcde68f	0.10053741
81	0x3d4ac36f	0.049502786
82	0xbe326a99	-0.17423476
83	0x3d5b7afa	0.053584076
84	0xbe285f7e	-0.16442677
85	0x3e09bba5	0.13450487
86	0x3e274f88	0.16338933
87	0xbd28258d	-0.041051436
88	0xbe6d16e3	-0.23153262
89	0x3d524e32	0.051344104
90	0xbd2f4c97	-0.04279765
91	0xbc879075	-0.016548375
92	0x3e32637d	0.17420764
93	0x3d632ec2	0.055464514
94	0xbdf97a29	-0.12181503
95	0x3e1e87ab	0.1548144
96	0xbcb41220	-0.021981299
97	0x3d8c7115	0.06857506
98	0xbda7c37f	-0.08191585
99	0xbe50f90a	-0.20407501
100	0x3e271a90	0.16318727
101	0x3d45fa5d	0.04833447
102	0x3b973726	0.0046147285
103	0x3e1f463c	0.15554136
104	0xbe3b627e	-0.1829929
105	0x3db72e1d	0.08944342
106	0x3e141c69	0.14463963
107	0xbe0e1005	-0.13873298
108	0xbe1a11dc	-0.15045875
109	0x3dc5c537	0.09656756
110	0x3cba8a8d	0.022771144
111	0x3dc19e52	0.09454025
112	0x3e1609c4	0.14652163
113	0xbe04326c	-0.1290986
114	0xbe53fded	-0.20702334
115	0x3d9350e1	0.07193161
116	0x3df25cb9	0.11834092
117	0x3d36b49d	0.04460584
118	0xbe019b38	-0.12656868
119	0xbd6760a1	-0.056488637
120	0x3d88d54d	0.06681309
121	0x3e509304	0.20368582
122	0x3da1437c	0.078742
123	0x3d711002	0.058853157
124	0x3d52726c	0.051378652
125	0xbe14cbcd	-0.14530869
126	0xbe1eb8e1	-0.15500213
127	0xbdcf1fbf	-0.10113477
128	0xbe088f47	-0.13335906
129	0xbc2460d5	-0.010032852
130	0xbbc5414a	-0.006019746
131	0xbdfaae3e	-0.12240265
132	0x3cc7f450	0.02440849
133	0xbd6ba893	-0.05753381
134	0x3e559603	0.20858006
135	0x3b8ae262	0.0042384127
136	0x3d3fc36b	0.046817224
137	0xbc312bf1	-0.010813699
138	0xbe03f1e7	-0.12885247
139	0x3e29c2f6	0.16578278
140	0xbdb6a00c	-0.08917245
141	0x3cb8868b	0.022525093
142	0x3dabad54	0.08382669
143	0xbe28785c	-0.16452163
144	0x3dae9310	0.08524144
145	0xbdeb55eb	-0.11490997
146	0xbe0241b5	-0.12720378
147	0x3d8a5b3d	0.067556836
148	0x3e1b3bc4	0.15159518
149	0x3d50f936	0.051018916
150	0xbceaa05f	-0.028640924
151	0x3df304f0	0.11866176
152	0x3e134141	0.14380361
153	0x3da7e0ad	0.081971504
154	0x3d8d1715	0.06889168
155	0xbe0a8511	-0.13527323
156	0x3d979aea	0.074025944
157	0xbdb71208	-0.08938986
158	0xbe35327f	-0.17695044
159	0x3d931365	0.071814336
160	0xbd54b5c2	-0.05193115
161	0x3de728e4	0.11287096
162	0xbd82c8f3	-0.06385984
163	0x3cf66fb3	0.03008256
164	0xbddab63d	-0.106792904
165	0x3e0fff4f	0.14062236
166	0x3d390ccc	0.04517822
167	0xbdd1cb7c	-0.1024389
168	0xbe333b98	-0.17503202
169	0x3dd6422b	0.10461839
170	0xbe3d5060	-0.18487692
171	0xbe1ac9cd	-0.15116043
172	0xbdf1613b	-0.11786123
173	0x3db9af8c	0.09066686
174	0x3dae9911	0.08525289
175	0x3d17f690	0.037100375
176	0x3dd7523f	0.10513734
177	0xbc86be1f	-0.016448079
178	0x3e492e64	0.19646603
179	0x3e35c954	0.17752582
180	0x3e34335c	0.17597717
181	0xbd99492b	-0.07484659
182	0x3e0fe20e	0.14051077
183	0x3e19a0f4	0.15002805
184	0x3e4f4a06	0.20243081
185	0xbe3c92c7	-0.18415366
186	0xbde54ccc	-0.111962885
187	0xbe15ca4b	-0.1462795
188	0xbdd2dd1e	-0.10296081
189	0xbde2dbda	-0.110770896
190	0x3d0769ef	0.03306001
191	0x3e4a6a98	0.19767225
192	0xbd92de27	-0.071712784
193	0x3e311196	0.17291865
194	0x3ca4d669	0.02012177
195	0x3d877b23	0.06615283
196	0xbd93c750	-0.0721575
197	0x3d5fed7d	0.054669846
198	0x3db1f1f2	0.086887255
199	0xbd943a8d	-0.0723773
200	0x3e13a60d	0.14418812
201	0xbc931804	-0.017955787
202	0xbe219601	-0.15779878
203	0x3db5f78f	0.08885109
204	0xbd4cce32	-0.05000133
205	0x3e330b9c	0.17484897
206	0xbdd41f40	-0.10357523
207	0x3d577893	0.052605223
208	0xbc63370d	-0.013868106
209	0xbbfbcd27	-0.007684368
210	0x3c58d3e6	0.013234114
211	0x3e7e5501	0.24837114
212	0x3c1e6ad8	0.009669028
213	0x3a80935c	0.0009809542
214	0xbb9e3e6c	-0.0048292186
215	0x3d627d64	0.055295363
216	0xbe2e5ec4	-0.17028338
217	0x3e763f69	0.24047627
218	0xbdeb829a	-0.1149952
219	0xbde25712	-0.110517636
220	0xbe0990f4	-0.13434201
221	0x3d481486	0.048847698
222	0x3b77a234	0.003778589
223	0x3ddda63a	0.10822721
224	0x3e30d90f	0.17270301
225	0xbdeaae29	-0.11459
226	0x3df46766	0.11933784
227	0xbe208331	-0.15675046
228	0x3d09f61c	0.033681974
229	0xbd22759f	-0.039662953
230	0xbb47f569	-0.0030511266
231	0xbce92df0	-0.028464288
232	0xbe32abfb	-0.17448418
233	0x3e0b0d12	0.13579205
234	0x3d68a476	0.056797467
235	0xbc5d7d4b	-0.013518642
236	0xbb3fcfb2	-0.0029268083
237	0x3e2f2530	0.1710403
238	0x3e162b60	0.14664984
239	0x3d7af3a5	0.061267514
240	0x3e13294b	0.14371221
241	0xbe1fd151	-0.15607192
242	0x3e282950	0.1642201
243	0xbd94098c	-0.072283834
244	0x3e46d1b6	0.19415936
245	0xbe166afa	-0.14689246
246	0x3dc4cf54	0.09609857
247	0xbd5499b5	-0.0519044
248	0x3dd980a6	0.10620241
249	0xbd8d6e12	-0.0690576
250	0xbd1e8ca1	-0.038708333
251	0xbdc0f160	-0.09421039
252	0x3deaf614	0.11472717
253	0xbe0eb55d	-0.13936372
254	0x3df04bfa	0.117332414
255	0xbe6aa1d8	-0.22913301

prob_conv2.bias f4 [32]
0	0x3e5053c2	0.20344451
1	0x3db15a11	0.08659757
2	0xbe6263c2	-0.22108367
3	0x3e446a80	0.19181252
4	0x3e29ab9a	0.16569367
5	0xbd26fa82	-0.040766247
6	0x3d8b0ba8	0.06789333
7	0xbe0f4b26	-0.1399351
8	0xbdbc3b94	-0.09191051
9	0x3e15de53	0.14635591
10	0xbe27240e	-0.16322348
11	0x3dd7eaed	0.105428554
12	0xbe2d09f4	-0.16898328
13	0xbe1c393d	-0.1525621
14	0xbc9718c1	-0.01844442
15	0x3e3bb371	0.1833017
16	0xbce44ef0	-0.027869672
17	0x3d8beb3f	0.06831979
18	0x3d926e41	0.071499355
19	0xbca1b9b5	-0.019741872
20	0x3daa9697	0.08329504
21	0xbe76e3b0	-0.24110293
22	0xbd0a384f	-0.033745106
23	0xbdcd6515	-0.100290455
24	0x3d0e9337	0.034808364
25	0xbd7d4033	-0.061828803
26	0x3e5a99b1	0.21347691
27	0x3c3d45e8	0.0115523115
28	0x3c9548af	0.018223135
29	0xbd449550	-0.047993958
30	0xbdf9e354	-0.122015625
31	0xbe0b2582	-0.13588527

fc1.weight f4 [27, 1543]
0	0xbcdfa151	-0.027298601
1	0x3ca44d57	0.02005641
2	0xbbfa9b6f	-0.0076479237
3	0x3c0386f9	0.008027785
4	0xbc60a5be	-0.013711391
5	0x3bff37aa	0.007788618
6	0x3c2a9bea	0.010413149
7	0xbd13d13a	-0.036088206
8	0xbd6a4901	-0.05719853
9	0xbd94f55e	-0.072733626
10	0xbd55b733	-0.052176666
11	0xbd74819d	-0.05969392
12	0xbc186fce	-0.009304
13	0xbc8a8281	-0.016907932
14	0x3ca29160	0.01984471
15	0x3c1183ee	0.008881552
16	0xbc89b555	-0.016810099
17	0x3ccc29ce	0.024922278
18	0x3c41e78a	0.011834988
19	0x3d30304a	0.043014802
20	0x3d949c21	0.07256342
21	0x3da90879	0.08253569
22	0x3db39353	0.08768334
23	0x3d3c4e5e	0.045973174
24	0x3cc1bc7c	0.023649447
25	0x3ce9c00f	0.028533963
26	0x3c2359db	0.009970154
27	0x3cbcebe9	0.02306171
28	0xbc818ef0	-0.015815228
29	0xbc9ef6f3	-0.019404864
30	0x3c953104	0.018211849
31	0x3b37a4e2	0.0028021862
32	0x3c4387f5	0.01193427
33	0x3c6eca22	0.014574559
34	0xbce1f092	-0.027580533
35	0xbc2b5a22	-0.010458501
36	0x3bf48807	0.007462505
37	0xbd192a73	-0.037394
38	0xbd91f059	-0.07125921
39	0xbd9698ff	-0.073534004
40	0xbda09f37	-0.07842868
41	0xbd9519d5	-0.07280318
42	0xbc97373d	-0.018458957
43	0xbc8406e0	-0.01611656
44	0x3b932b57	0.0044912505
45	0x3b0a7550	0.0021127053
46	0x3c8dd0c4	0.017311461
47	0x3cc12e68	0.023581699
48	0xbcdd6c57	-0.0270292
49	0x3da3c1ce	0.0799595
50	0x3d5a357a	0.053273655
51	0x3d395c64	0.045254126
52	0x3d9bd440	0.07608843
53	0x3d239e38	0.03994581
54	0xbccb24df	-0.024797855
55	0x3c4b3d92	0.012404816
56	0xbcb8e928	-0.022572115
57	0x3b53c23f	0.0032311825
58	0xbc779974	-0.01511227
59	0x3b486f85	0.003058405
60	0xbae3477c	-0.001734003
61	0xbc8cdd51	-0.017195376
62	0x3c98a4b8	0.018633232
63	0xbc3bffde	-0.011474578
64	0xbc2da1de	-0.010597674
65	0x3c6d8960	0.014498085
66	0xbcfc68f1	-0.030811759
67	0x3d72e4f1	0.059300367
68	0x3da1246f	0.07868277
69	0x3da1e3a4	0.07904747
70	0x3d503fb1	0.05084199
71	0x3b1d7267	0.0024024488
72	0x3c235da8	0.00997106
73	0xbd53e6c4	-0.051733747
74	0xbd0ecc66	-0.0348629
75	0xbd9aaa42	-0.07552005
76	0xbd53ad02	-0.051678665
77	0xbca8a041	-0.020584228
78	0x3c441b35	0.011969377
79	0x3c66c834	0.014085818
80	0x3bbe4b0d	0.0058072866
81	0xbc97bc25	-0.018522331
82	0xbce430ec	-0.027855359
83	0x3c3c9930	0.011511132
84	0xbc89cae5	-0.01682038
85	0x3d1f6108	0.038910896
86	0x3d6e26cf	0.05814248
87	0x3d4525ce	0.048131756
88	0x3d62d804	0.05538179
89	0x3d291ed5	0.04128917
90	0xbbc8bb4c	-0.006125843
91	0xbc186d04	-0.009303335
92	0x3ccb6ca6	0.024832081
93	0x3c468920	0.012117654
94	0xbc2f78c3	-0.010709944
95	0x3c3b5db2	0.011435913
96	0x3ce53785	0.027980575
97	0xbcb11c89	-0.021620052
98	0x3ca0dcc8	0.019636527
99	0x3cc3fb69	0.023923593
100	0xb7ecc355	-2.822435e-05
101	0x3c02efcd	0.007991743
102	0x3c63d297	0.013905189
103	0x3d3e9e2b	0.04653756
104	0x3d6dfb44	0.058100954
105	0x3d6932a6	0.056933068
106	0x3d54ba49	0.051935468
107	0x3d574d4e	0.052563958
108	0xbc390bbb	-0.011294301
109	0x3bbc2f73	0.005742961
110	0xbbb4c851	-0.0055170436
111	0x3c32f0e6	0.0109216925
112	0x3bdd8b6d	0.0067610056
113	0xbc3e5694	-0.0116173215
114	0x3ca53ad6	0.020169657
115	0xbd009e13	-0.03140075
116	0xbd4a412e	-0.049378566
117	0xbd920aaf	-0.07130944
118	0xbd7eef33	-0.062239837
119	0xbda1c47b	-0.07898804
120	0xbba2d73d	-0.004969506
121	0xbd966c42	-0.07344867
122	0xbd9a5efb	-0.07537647
123	0xbd3d8047	-0.046264913
124	0xbd80fb7a	-0.06297965
125	0xbd2b886e	-0.041878156
126	0xbcc66bf5	-0.0242214
127	0xbc875509	-0.01652004
128	0xbcf59898	-0.029979989
129	0xbc9c7381	-0.019098045
130	0xbbb26787	-0.0054444703
131	0x3c2c801a	0.010528589
132	0xbd5d2ec1	-0.053999666
133	0x3ca72772	0.020404551
134	0x3c96d954	0.018414177
135	0xbc8e7157	-0.017388029
136	0x3cb3262b	0.021868786
137	0x3cad3d1b	0.021147301
138	0xbd55b453	-0.052173924
139	0x3d8197f0	0.06327808
140	0x3d4e74e8	0.05040446
141	0x3dad1cd5	0.08452765
142	0x3d49bbc0	0.049251318
143	0x3d2c1fb3	0.04202242
144	0x3ce20e97	0.027594848
145	0x398ad6fa	0.0002648158
146	0x3b9cec90	0.0047889426
147	0xbcee8884	-0.02911783
148	0xbcd5c7a9	-0.026096182
149	0x3c7a2470	0.015267476
150	0x3962b314	0.00021619751
151	0xbd8a3b0c	-0.067495435
152	0xbd9614dd	-0.07328198
153	0xbd65ba8f	-0.05608612
154	0xbbbea370	-0.005817823
155	0x3c6a1377	0.014286867
156	0xbd10947a	-0.03529785
157	0xbc51ef51	-0.012813405
158	0xbd7a69b5	-0.061135966
159	0xbd8c67ea	-0.068557575
160	0xbd90876f	-0.07057082
161	0xbd500ce5	-0.050793547
162	0xbd026fca	-0.03184489
163	0xbb1f49cb	-0.0024305459
164	0xbc9c5241	-0.01908219
165	0x3b523a9c	0.003207839
166	0x3c579439	0.013157898
167	0xbc55d3f4	-0.013051022
168	0xbc717376	-0.014737001
169	0xbc86f23f	-0.016472934
170	0xbc8c652e	-0.01713809
171	0x3cb83a74	0.02248881
172	0xbc5387a0	-0.0129107535
173	0xbb92a85e	-0.0044756373
174	0x3b435aa1	0.0029808658
175	0x3d1d373e	0.03838276
176	0x3d3971ed	0.045274664
177	0x3da1fd99	0.07909698
178	0x3d99eb5d	0.07515595
179	0x3d7d2fba	0.061813094
180	0xbcd774d2	-0.026300821
181	0x3c87ebd6	0.016591948
182	0x3ce7600b	0.028244039
183	0xbc7a75ab	-0.015286843
184	0xbca589d0	-0.020207316
185	0xbca156ff	-0.019694803
186	0xb9ac6e7a	-0.00032888708
187	0x3c5425fe	0.012948511
188	0x3d8e8d3d	0.06960533
189	0x3d4dbaf1	0.05022711
190	0x3abb5443	0.001429208
191	0xbcbdc0d1	-0.023163231
192	0xbb2880e6	-0.0025711595
193	0x3c290412	0.010315912
194	0x3ad01273	0.0015874639
195	0xbc5d867c	-0.013520833
196	0xbc58220b	-0.01319171
197	0x3c9cfefb	0.019164553
198	0xbca5dc98	-0.020246789
199	0x3ba6391c	0.005072726
200	0xbdaa5836	-0.08317606
201	0xbd35f5b6	-0.04442378
202	0xbd35a105	-0.044343013
203	0xbda469e7	-0.08028012
204	0x3ba0135a	0.0048851194
205	0x3d6e28b8	0.0581443
206	0x3d3bd0ff	0.04585361
207	0x3d843f20	0.06457353
208	0x3ab3f63b	0.0013729999
209	0xbd03dfd6	-0.03219589
210	0x3c410ff2	0.011783587
211	0xbc1337b3	-0.008985448
212	0xbb234fd6	-0.0024919412
213	0x3cedc4d9	0.029024528
214	0x3d00fe73	0.03149266
215	0x3bdcdab8	0.0067399405
216	0xbc13e8e3	-0.0090276925
217	0x3daabb96	0.083365604
218	0x3d46fd50	0.04858142
219	0x3d8171a8	0.06320506
220	0x3d753c3e	0.059871905
221	0x3d81269d	0.06306193
222	0x3ced58cc	0.028973006
223	0x3cdd3ed7	0.027007503
224	0xbb9eca55	-0.004845897
225	0xbca52e10	-0.020163566
226	0x3c9a226d	0.018815244
227	0x3c487963	0.012235972
228	0x3c835c85	0.016035328
229	0xbc54e3d2	-0.01299377
230	0xbcbb3a5b	-0.022854974
231	0x3cb77b07	0.022397531
232	0xbcb0fc84	-0.021604784
233	0xbcac91ec	-0.021065675
234	0xbc35ee95	-0.011104246
235	0xbd914ab0	-0.07094324
236	0xbd286f14	-0.041121557
237	0xbd91619f	-0.07098698
238	0xbc7d15f2	-0.015447127
239	0x3cacb4cd	0.021082306
240	0xbd730ab5	-0.059336383
241	0x3cad10ad	0.021126116
242	0x3cf7630f	0.030198602
243	0xbc94c3d1	-0.018159779
244	0x3b98d59c	0.004664136
245	0xbdb44c4c	-0.08803615
246	0xbdc85edd	-0.09783719
247	0x3c045182	0.008076074
248	0xbcbf963b	-0.023387065
249	0xbd0cfea1	-0.03442252
250	0xbccfb26a	-0.02535363
251	0xbc9cf273	-0.019158578
252	0xbc90b06e	-0.017662253
253	0x3d806ec9	0.062711306
254	0x3d8e2477	0.06940549
255	0x3d63281f	0.055458184

fc1.bias f4 [27]
0	0xbd80248e	-0.06256972
1	0xbd104fca	-0.035232343
2	0xbd99b097	-0.07504385
3	0xbd0a8d09	-0.033825908
4	0xbd40bc16	-0.047054373
5	0xbd536ec7	-0.051619317
6	0xbd58083c	-0.052742228
7	0xbdc343d4	-0.095344216
8	0xbcee3e33	-0.029082393
9	0xbdba425f	-0.090946905
10	0xbdc1a2f3	-0.09454908
11	0xbdad761c	-0.08469793
12	0xbce830d7	-0.028343601
13	0xbd4d3e0a	-0.050107993
14	0xbda8198f	-0.08208
15	0xbdd0ae05	-0.101894416
16	0xbd58cd26	-0.05293002
17	0x3d0e1a55	0.03469308
18	0xbda5170c	-0.080610365
19	0xbda09787	-0.078414015
20	0xbd21bec1	-0.039488558
21	0xbd4c30a7	-0.049851086
22	0xba4383bc	-0.00074582896
23	0xbd9f5556	-0.077799484
24	0xbdeeba3d	-0.11656616
25	0xbc89be50	-0.01681438
26	0xbcee7514	-0.029108562

fc2.weight f4 [15, 27]
0	0xbd0c85cb	-0.034307282
1	0xbcb8c487	-0.022554649
2	0x3c424fa0	0.011859804
3	0x3e056b6a	0.13029256
4	0xbd5b7aaa	-0.05358378
5	0xbcc843ab	-0.02444633
6	0xbe1cd570	-0.15315795
7	0xbd1b105f	-0.03785741
8	0xbe0f44fd	-0.1399116
9	0xbe091fa4	-0.13390976
10	0x3c4953d4	0.012288053
11	0x3dec3dd0	0.11535227
12	0x3e07ca7c	0.13260835
13	0xbe6de2e3	-0.23231082
14	0xbdfa56ac	-0.122235626
15	0xbe14fd96	-0.1454986
16	0xbe1d0e61	-0.15337516
17	0x3d0b22e5	0.033968825
18	0x3ddf7819	0.10911579
19	0xbd95890c	-0.0730153
20	0x3ca3df81	0.020004036
21	0x3da8d982	0.08244611
22	0xbb0123fd	-0.0019705289
23	0x3df8a114	0.12140098
24	0xbd26141e	-0.04054653
25	0x3d3515d9	0.04421029
26	0xbe701df2	-0.23448923
27	0x3e116bfe	0.14201352
28	0x3cd8f085	0.026481876
29	0x3d8f7300	0.070043564
30	0xbe3c6d23	-0.18401007
31	0x3e11d672	0.1424196
32	0xbe62d27c	-0.22150606
33	0xbc8d24a4	-0.017229386
34	0xbe17c6a1	-0.14821865
35	0x3ca79f68	0.020461753
36	0xbd9f6a01	-0.077838905
37	0xbda7f876	-0.08201687
38	0xbe28e686	-0.16494188
39	0xbbb17b25	-0.0054162913
40	0xbe12bdea	-0.14330259
41	0x3d80ede7	0.06295376
42	0x3c999988	0.018749967
43	0x3d11b95f	0.035577174
44	0xbe82fce3	-0.25583562
45	0xbe2395ff	-0.15975188
46	0x3c25ad09	0.010112056
47	0xbdc6a3c7	-0.09699207
48	0x3e09cea0	0.13457727
49	0x3d9978e6	0.07493763
50	0x3e27abf5	0.1637419
51	0x3dfa9fe9	0.12237532
52	0xbda2d257	-0.079502754
53	0xbc6d7c6c	-0.0144949965
54	0x3e386276	0.1800631
55	0x3dacb3a6	0.08432703
56	0xbd987c2f	-0.07445561
57	0xbdf23e84	-0.1182833
58	0x3d940dfd	0.072292306
59	0xbd57cf5e	-0.052687995
60	0x3d976ce5	0.07393817
61	0xbc7a0ae4	-0.015261386
62	0x3e430b46	0.19047269
63	0xbd5913a8	-0.05299726
64	0x3d7e7f78	0.062133282
65	0x3e558a4a	0.20853534
66	0xbd712937	-0.058877196
67	0x3e42c4e3	0.19020419
68	0xbb372dcb	-0.0027950879
69	0xbcc06ebe	-0.023490306
70	0xbd39c3b0	-0.045352638
71	0x3e1ec128	0.15503371
72	0xbdbbfc19	-0.09178943
73	0x3e487669	0.1957642
74	0x3db5c02d	0.08874545
75	0xbce28852	-0.027652893
76	0x3d69bf91	0.057067458
77	0x3df1e0dd	0.118104674
78	0xbd594482	-0.05304385
79	0x3e145dc6	0.14488897
80	0x3e0c9e68	0.13732302
81	0x3d34b731	0.044120017
82	0xbdf8505f	-0.121247046
83	0xbda3551c	-0.07975218
84	0x3d9e9620	0.07743478
85	0xbd81107c	-0.06301972
86	0xbba402ba	-0.005005208
87	0x3d6a7bcd	0.057246972
88	0x3e144584	0.14479643
89	0xbdd5c779	-0.10438437
90	0x3ded5d89	0.11590106
91	0x3dd01be5	0.101615705
92	0xbe720719	-0.2363552
93	0x3df3ad2a	0.11898263
94	0xbe5fed46	-0.21867856
95	0x3cc46f5d	0.023978883
96	0xbe63bdca	-0.22240368
97	0xbe3e3236	-0.18573841
98	0xbdd718b3	-0.10502758
99	0x3dc31f4e	0.09527455
100	0x3dfb0520	0.12256837
101	0xbd92776b	-0.071516834
102	0xbcfd5be2	-0.030927602
103	0xbe2661fe	-0.16248319
104	0xbe369e5e	-0.1783385
105	0xbe2091d5	-0.1568063
106	0x3d3cba89	0.04607633
107	0xbe190ac9	-0.1494552
108	0xbd1db42a	-0.038501896
109	0x3dd662b5	0.104680456
110	0x3d94527d	0.07242296
111	0xbd852002	-0.06500246
112	0x3e329ea5	0.1744333
113	0x3d22423d	0.03961395
114	0xbbcb72d9	-0.0062087593
115	0x3cd07a08	0.025448814
116	0x3d8106d5	0.06300131
117	0x3d9313b0	0.071814895
118	0xbe2ee178	-0.17078197
119	0x3df7778b	0.12083348
120	0x3b231839	0.0024886264
121	0x3e34ed6d	0.17668696
122	0x3d10db41	0.035365347
123	0xbdcd7e56	-0.10033862
124	0x3c3bf66a	0.011472324
125	0x3e2c7bd3	0.1684411
126	0xbe0fd7fd	-0.14047237
127	0xbe1350ca	-0.14386287
128	0x3e145cd5	0.14488538
129	0xbdc1e170	-0.09466827
130	0xbea53f4f	-0.32274863
131	0xbd968fde	-0.07351659
132	0x3dbf3f57	0.09338253
133	0xbd96f323	-0.073705934
134	0x3e18374c	0.14864844
135	0xbdd097ee	-0.10185228
136	0xbcaa1bee	-0.020765271
137	0x3e39d096	0.18145975
138	0xbe04ec3a	-0.12980738
139	0x3e4f7ad1	0.20261694
140	0x3e61152f	0.21980737
141	0x3e62e1e1	0.22156478
142	0xbde161d1	-0.11004985
143	0xbd7f1d84	-0.062284008
144	0xbe3f5176	-0.18683419
145	0xbe235f8d	-0.15954418
146	0xbce228f5	-0.02760742
147	0x3ce7fe04	0.028319366
148	0x3e7a3feb	0.24438445
149	0x3c5d02e9	0.013489463
150	0xbddd3171	-0.10800446
151	0x3db6bfda	0.089233115
152	0xbca387d3	-0.019962227
153	0xbd9946d2	-0.07484211
154	0xbdac5a4f	-0.084156625
155	0x3d8524a7	0.065011315
156	0xbddf5cbc	-0.109063596
157	0xbd97822d	-0.07397876
158	0xbe8ed2d1	-0.27895215
159	0xbc138139	-0.009002977
160	0xbe94f9a5	-0.29096714
161	0xbb2bab7b	-0.002619474
162	0xbe9774e7	-0.29581377
163	0xbdb76253	-0.08954301
164	0x3c4de443	0.012566629
165	0x3e00b106	0.12567529
166	0x3e4c8632	0.19973066
167	0xbdd85cc1	-0.105645664
168	0xbce9643f	-0.028490184
169	0xbd33c899	-0.043892477
170	0xbc9ec330	-0.019380182
171	0xbd910e3c	-0.07082793
172	0xbdfa9493	-0.122353695
173	0xbcc96b5a	-0.024587322
174	0xbe32f15b	-0.17474882
175	0xbd31dace	-0.04342156
176	0x3d985d69	0.074396916
177	0xbd835774	-0.06413165
178	0xbd991006	-0.07473759
179	0xbd29659e	-0.041356675
180	0xbe8c5ab0	-0.2741294
181	0x3d6d76a5	0.057974476
182	0xbe0fbdbe	-0.14037225
183	0xbe409f9a	-0.18810883
184	0xbd18bf5c	-0.03729187
185	0xbe047905	-0.1293679
186	0x3d34d078	0.044144124
187	0xbdf9de1d	-0.12200568
188	0x3d1ea993	0.038735937
189	0x3d9f0cef	0.07766139
190	0xbdc42364	-0.09577063
191	0xbe190a3f	-0.14945315
192	0xbd487a0f	-0.04894453
193	0xbe0967e4	-0.13418537
194	0xbe7f78e8	-0.24948466
195	0xbdb92c8f	-0.09041702
196	0x3ded8941	0.11598445
197	0x3e1b9bac	0.15196103
198	0x3d3e52be	0.046465628
199	0x3e3a39cb	0.18186109
200	0x3d468978	0.048470944
201	0x3e5c5c0d	0.2151949
202	0xbe649bbb	-0.22325031
203	0xbe0c9d55	-0.13731892
204	0xbdac8546	-0.084238574
205	0x3e54eaa6	0.20792636
206	0xbe0589a1	-0.13040783
207	0x3e1bd646	0.15218458
208	0xbc5937c7	-0.013257927
209	0xbdc8d8d0	-0.09806979
210	0x3d27bd2d	0.040951896
211	0xbd68d39f	-0.056842443
212	0xbd57b43b	-0.052662116
213	0x3dd11e80	0.102108955
214	0xbe1c52ab	-0.1526591
215	0xbe1da124	-0.15393502
216	0xbd283fb7	-0.04107639
217	0xbe0b0c8f	-0.1357901
218	0xbe85951a	-0.26090318
219	0xbe652fe5	-0.22381552
220	0x3dbe80b9	0.09301896
221	0x3de6889c	0.11256525
222	0xbe1c88eb	-0.15286605
223	0x3e1371c8	0.14398873
224	0x3cf8e561	0.030382814
225	0x3e28d3de	0.16487071
226	0x3e178c06	0.14799508
227	0xbe2a67e1	-0.16641189
228	0xbd20f736	-0.03929826
229	0xbd13e411	-0.036106173
230	0xbce5ecee	-0.028067078
231	0xbb56642c	-0.0032713516
232	0xbd846a96	-0.06465642
233	0x3d64f5d2	0.055898495
234	0x3cdf58db	0.02726405
235	0x3e16bcfa	0.14720526
236	0xbde26383	-0.110541366
237	0x3ddff7e6	0.10935955
238	0xbbaa645d	-0.0051999525
239	0x3d5e3f72	0.054259725
240	0xbdcf2b50	-0.10115683
241	0xbdd0a024	-0.101867944
242	0x3db44966	0.08803062
243	0xbd234c73	-0.03986783
244	0xbe45ef44	-0.19329554
245	0x3c2d9992	0.010595696
246	0xbd9fae8d	-0.07796965
247	0xbb78fbe5	-0.0037991938
248	0x3e5db14a	0.21649662
249	0xbdd43737	-0.10362094
250	0xbd7fedc2	-0.062482603
251	0xbc27e147	-0.010246581
252	0x3ce9cb38	0.028539285
253	0xbdcca0bc	-0.09991595
254	0xbe233a42	-0.15940192
255	0x3dba9b2c	0.09111628

fc2.bias f4 [15]
0	0x3d08c24f	0.033388432
1	0x3e12c91f	0.14334534
2	0x3d192c93	0.037396025
3	0xbdf666b3	-0.12031307
4	0x3f4b1756	0.7933248
5	0x3d0a54e1	0.033772353
6	0xbe2604d8	-0.16212785
7	0x3eab0c8b	0.33408007
8	0x3e91692b	0.2840055
9	0xbd853503	-0.06504252
10	0xbe9914ac	-0.29898584
11	0xbd6a166a	-0.057150282
12	0x3dd33a85	0.10313896
13	0xbcf4005f	-0.029785333
14	0xbe0f50f3	-0.13995723

task_specific_layers.fitness_dp3_activity.weight f4 [1, 15]
0	0xbd9cdb7a	-0.07659049
1	0xbd7c330a	-0.061572112
2	0x3e071003	0.13189702
3	0xbe180b11	-0.14847971
4	0xbe1de517	-0.15419422
5	0x3ddc4431	0.10755194
6	0x3e60a4ba	0.21937838
7	0x3fbfaeff	1.497528
8	0xbe1339df	-0.14377545
9	0x3e87cba5	0.26522556
10	0x3e4ab078	0.1979388
11	0x3d0a4215	0.033754427
12	0x3cc38939	0.023869144
13	0xbe20e9dd	-0.15714212
14	0x3eb22c7b	0.3479956

task_specific_layers.fitness_stain_removal.weight f4 [1, 15]
0	0x3da3a212	0.07989897
1	0x3c0da804	0.008646015
2	0xbdeff617	-0.1171686
3	0x3d9b367d	0.07578752
4	0xbeb1f86b	-0.3475984
5	0xbe53fb39	-0.20701303
6	0x3e1f4cb8	0.1555661
7	0x3f8dac81	1.1068269
8	0xbe5d9c50	-0.2164166
9	0x3e303f5a	0.17211667
10	0xbd1b140a	-0.037860908
11	0x3d7b887d	0.061409462
12	0x3d58cd3f	0.052930113
13	0x3e4311c5	0.19049747
14	0x3ea58f2a	0.32335788
